model_l1.pth (torch, 111878 bytes, 54 tensors)

fc1.weight f4 [32, 1]
0	0xbfb0fab8	-1.3826513
1	0x3dfde38e	0.12396918
2	0xbf788870	-0.9708319
3	0x3e037d69	0.12840809
4	0x3e3056e2	0.17220643
5	0xbef1cd3d	-0.47226897
6	0x3d806763	0.062697195
7	0xbe177279	-0.14789762
8	0xbd531010	-0.05152899
9	0x3e79635e	0.24354312
10	0xbe5dd3a1	-0.21662761
11	0xbd8ac9f9	-0.067768045
12	0x3e496a4d	0.19669457
13	0x3e8e3bc4	0.27779973
14	0x3d627244	0.055284753
15	0xbfec02ab	-1.8438314
16	0x3d586f7a	0.052840687
17	0x3fb5ef22	1.4213603
18	0x3d8499b1	0.06474627
19	0xbe83e50a	-0.2576068
20	0xbd34d099	-0.044144247
21	0x3d586445	0.05283
22	0x3dec751f	0.115457766
23	0xbcbe5309	-0.023232954
24	0x3efebfd6	0.49755734
25	0xbf2feec5	-0.6872371
26	0x3e458422	0.19288686
27	0x3d83998e	0.064257726
28	0xbf6b0255	-0.91800433
29	0x3d730280	0.059328556
30	0xbd38ab57	-0.045085277
31	0x3f35676e	0.70860946

fc1.bias f4 [32]
0	0xc0aecffa	-5.462888
1	0x3f2dc6bf	0.6788139
2	0xc09f0e56	-4.9705
3	0xbfad0fe7	-1.3520478
4	0x3f2f44d0	0.68464375
5	0x3fd3644d	1.6514984
6	0xbfa4e0aa	-1.2881062
7	0x3fc86109	1.5654613
8	0x3f1dee11	0.61691386
9	0xc0028fbb	-2.0400226
10	0x3fcc904a	1.5981534
11	0x3f6b3790	0.91881657
12	0x3f67fc86	0.90619695
13	0xbfd3342d	-1.6500298
14	0xbf45af72	-0.77220833
15	0x3ebd8a39	0.37019518
16	0xbf5db170	-0.86598873
17	0x40aa9739	5.33096
18	0xc00808e6	-2.125543
19	0xc05a6350	-3.4123116
20	0x3f185771	0.59508425
21	0xbfcaa794	-1.5832391
22	0xbffff71d	-1.9997288
23	0x400d037b	2.2033374
24	0xbfd0bfb3	-1.6308502
25	0x3f8297e2	1.0202601
26	0x3fa54e7f	1.291458
27	0xbfd02e8f	-1.6264209
28	0x3fa5935f	1.2935599
29	0xbf40776c	-0.75182223
30	0x3f1cf1c7	0.6130642
31	0x4093d2d4	4.619486

fc2.weight f4 [32, 32]
0	0x3d9f9e59	0.07793874
1	0xbf57236a	-0.8403841
2	0x3e53d549	0.2068683
3	0x3e5ec0f2	0.2175329
4	0xbf3de8a9	-0.74183136
5	0xbdca1f49	-0.098692484
6	0x3e9936dd	0.2992467
7	0xbee312bc	-0.4435023
8	0xbe04edb9	-0.12981309
9	0x3a8e2a1e	0.0010846292
10	0x3df4aa5b	0.11946555
11	0xbd05d072	-0.032669492
12	0xbf3f72e0	-0.7478466
13	0x3dece38f	0.11566841
14	0x3ed76089	0.42065838
15	0x3e2f5157	0.17120872
16	0x3e9b25cf	0.30302283
17	0xbd85ef61	-0.065397985
18	0x3ef9a883	0.48761377
19	0x3db2ab0b	0.0872403
20	0xbe3bd7e4	-0.18344074
21	0x3fa05d0f	1.2528399
22	0x3ed49055	0.41516367
23	0xbf7462ba	-0.95463145
24	0xbc5f4a75	-0.013628592
25	0x3e632c46	0.22184858
26	0xbf1b5886	-0.6068195
27	0x3edde6bf	0.43340108
28	0x3d921031	0.071319945
29	0x3c0a4a4f	0.008440568
30	0xbedb1fbd	-0.42797652
31	0xbbf39e3e	-0.0074346354
32	0xbebed8d5	-0.37274805
33	0x3ddccd63	0.10781362
34	0xbe831dcd	-0.25608674
35	0xbe04554d	-0.12923165
36	0x3dafb116	0.08578698
37	0x3e9b61d9	0.3034809
38	0xbd09b29c	-0.0336176
39	0x3e5d6997	0.2162231
40	0xbe978f68	-0.29601598
41	0xbe8bdc5f	-0.27316567
42	0x3eafef5a	0.34362298
43	0x3e1c07ba	0.15237322
44	0x3c9b24c0	0.018938422
45	0xbe2a4631	-0.16628338
46	0x3e8b1687	0.27165624
47	0x3e22c0f9	0.15893926
48	0x3e9de1c8	0.3083632
49	0x3eb4f20a	0.3534091
50	0x3e8ac843	0.27105913
51	0xbe90e47c	-0.2829932
52	0xbe4ca595	-0.1998504
53	0x3ecc5c63	0.39914235
54	0xbd2b7374	-0.04185815
55	0xbf5fadbe	-0.87374485
56	0xbe8e655d	-0.2781171
57	0x3e878bc2	0.26473814
58	0xbe314cda	-0.17314473
59	0x3ea463ae	0.321073
60	0x3ec77776	0.3895833
61	0x3e178003	0.14794926
62	0xbe6436be	-0.22286507
63	0x3ebc8843	0.3682271
64	0xbe33a94b	-0.17545049
65	0xbd602794	-0.054725245
66	0x3d0d7aca	0.03454093
67	0xbec68c09	-0.38778713
68	0x3d62193a	0.05519984
69	0xbe3005f9	-0.17189778
70	0xbe6f7ae6	-0.23386726
71	0x3e54fb8b	0.20799081
72	0x3d0c68a4	0.03427948
73	0xbd3db067	-0.04631081
74	0x3df1145a	0.1177146
75	0x3e1d72c2	0.15375808
76	0x3d6be76e	0.057593755
77	0xbe10c34e	-0.14137003
78	0xbe8bf10a	-0.27332336
79	0xbe2845f7	-0.1643294
80	0x3d919100	0.07107735
81	0x3ddb9a22	0.10722758
82	0xbff4afb4	-1.911612
83	0x3da4350d	0.08017931
84	0xbe014699	-0.12624587
85	0xbc8522f8	-0.016252026
86	0xbf1fa355	-0.623586
87	0x3e766d21	0.24065067
88	0x3d6bf180	0.05760336
89	0xbd552631	-0.052038375
90	0xbe6ecfb2	-0.23321417
91	0xbf9b6788	-1.214097
92	0x3e0b1a2e	0.13584206
93	0xbef56fa4	-0.47936738
94	0xbe904d5f	-0.2818403
95	0x3e83f5d7	0.25773498
96	0x3da728aa	0.08162053
97	0x3c1b4af8	0.009478323
98	0xbd562579	-0.05228183
99	0x3f8ebe50	1.1151829
100	0xbd109cda	-0.035305835
101	0xbe2dee46	-0.16985425
102	0x3e546738	0.207425
103	0xbfc8eb9a	-1.56969
104	0xbe0c1aec	-0.13682145
105	0x3f46cc2b	0.77655286
106	0xbec8f18e	-0.39246792
107	0xbdd59b0c	-0.104299635
108	0x3e58eea8	0.2118479
109	0x3ebc9f25	0.36840168
110	0xbd7f20d8	-0.06228718
111	0x3d69e473	0.05710263
112	0x3deeff7c	0.116698235
113	0x3d5759ef	0.052576
114	0x3f4ba31f	0.7954578
115	0x3e4b91ca	0.19879833
116	0x3e56cb51	0.20975997
117	0xbe21ffa7	-0.1582018
118	0x3f4da028	0.80322504
119	0x3c37f371	0.011227475
120	0xbc0ae5a0	-0.008477598
121	0xbd056621	-0.0325681
122	0x3d788fd5	0.060684044
123	0x3f0c04a6	0.5469459
124	0xbdf4955f	-0.11942553
125	0xbe0a72c1	-0.13520338
126	0xbe5e9d09	-0.21739592
127	0xbdd6b586	-0.104838416
128	0xbdc1c169	-0.09460718
129	0x3df8285c	0.12117073
130	0xbd1b2982	-0.03788138
131	0xbee214b8	-0.44156432
132	0x3e41066b	0.18850105
133	0x3b023daf	0.0019873192
134	0xbe9fa9d9	-0.3118427
135	0x3ef5b8f4	0.4799267
136	0x3e13f865	0.14450224
137	0x3ae53b90	0.0017489064
138	0x3e7db41b	0.24775736
139	0x3f139cd5	0.5766118
140	0x3f3a1496	0.7268766
141	0xbdb29e39	-0.08721585
142	0xbe93af8e	-0.28844875
143	0x3e6a836b	0.22901694
144	0xbe923b63	-0.28560933
145	0xbe0ab0fc	-0.13544077
146	0xbf2c52f1	-0.6731406
147	0xbd3aef69	-0.045638476
148	0x3dd65c88	0.10466868
149	0xbf05a821	-0.5220967
150	0xbf448954	-0.76772046
151	0x3f7a6b2d	0.9781979
152	0xbdc62f51	-0.09676994
153	0x3e2d177b	0.16903488
154	0x3edd577a	0.43230802
155	0xbf899653	-1.0749
156	0xbd0b81a6	-0.03405919
157	0xbe73f598	-0.23824155
158	0x3e801a74	0.25020182
159	0xbe2e6bd2	-0.17033318
160	0x3dca1ae8	0.09868413
161	0xbf2ee828	-0.6832299
162	0x3e6cade7	0.23113213
163	0x3e87fe88	0.2656138
164	0xbf3d399b	-0.73916024
165	0x3e6b4aec	0.22977799
166	0x3e3fb543	0.1872149
167	0xbedad240	-0.42738533
168	0x3d08ca5a	0.033396102
169	0x3e07c75b	0.13259642
170	0x3df72862	0.12068249
171	0x3d2c473f	0.042060133
172	0xbf186d90	-0.5954218
173	0xbd502fe4	-0.050826922
174	0x3dd05e5a	0.10174246
175	0x3e92da48	0.2868216
176	0x3ee9882b	0.456117
177	0xbe675469	-0.22590794
178	0x3eb8a6e7	0.36064836
179	0x3e92c9d4	0.28669608
180	0x3cb64869	0.022251325
181	0x3f59b0a2	0.85035145
182	0x3ece19f9	0.4025419
183	0xbf5c74e6	-0.8611587
184	0x3c31b95b	0.010847415
185	0x3da6c14c	0.08142337
186	0xbf0c0fa9	-0.54711396
187	0x3edc01f8	0.42970252
188	0x3d95cebd	0.07314823
189	0xbe0bfa65	-0.13669737
190	0xbcbf3a64	-0.023343273
191	0xbcc844e0	-0.024446905
192	0x3be15560	0.0068766326
193	0xbdb27a25	-0.087147035
194	0xbe5014c3	-0.2032042
195	0xbecaed4f	-0.39634177
196	0xbe4859c8	-0.19565499
197	0x3e91403c	0.2836932
198	0xbd41275f	-0.047156688
199	0x3ec1bc3b	0.3783892
200	0x3e6a9f26	0.22912273
201	0xbf757df8	-0.9589534
202	0x3fa2337d	1.2671963
203	0x3e0716a6	0.13192233
204	0xbe81d34c	-0.2535652
205	0xbfa13edb	-1.2597307
206	0xbc857d82	-0.016295198
207	0x3dd3d0d9	0.10342569
208	0xbdc0f383	-0.09421446
209	0xbcd9cc75	-0.02658675
210	0xbf17c3ed	-0.59283334
211	0x3d587f63	0.05285586
212	0xbdcd3d44	-0.10021451
213	0x3d87ec6c	0.06636891
214	0xbed67e39	-0.41893175
215	0xbecaff43	-0.39647874
216	0xbe7c82d2	-0.24659279
217	0x3e3a965f	0.18221425
218	0xbe8bcc02	-0.27304083
219	0xbe4034c3	-0.18770127
220	0x3dc16309	0.094427176
221	0xbcfa6ba4	-0.030568905
222	0xbce2ace6	-0.027670335
223	0x3e1e9001	0.1548462
224	0x3e1d928e	0.15387937
225	0xbe94a5d5	-0.2903277
226	0x3e6bc122	0.23022893
227	0x3dcd8875	0.10035793
228	0xbd6beaa3	-0.057596814
229	0xbc64b96b	-0.013960223
230	0x3ea7b7a3	0.3275729
231	0xbe3729e3	-0.17887072
232	0xbd2b1d70	-0.04177612
233	0x3da01014	0.07815567
234	0x3e4c640c	0.1996004
235	0xbe93e9c5	-0.2888929
236	0xbed9fd66	-0.4257614
237	0xbe5170eb	-0.20453231
238	0xba8eddcb	-0.001089984
239	0x3e2abde8	0.16674006
240	0x3dd7af57	0.1053149
241	0x3cc795d9	0.024363445
242	0x3f0a029a	0.5391022
243	0x3e61f006	0.22064218
244	0xbea8daf0	-0.32979536
245	0x3ee89339	0.45424822
246	0x3d9594b6	0.07303755
247	0xbfb3eb78	-1.4056234
248	0xbe66bdd0	-0.22533345
249	0x3d40a9fa	0.047037102
250	0xbf6fe2cc	-0.9370544
251	0x3e4f1377	0.20222269
252	0x3e3610c5	0.17779835
253	0x3e02a1f1	0.12757088
254	0xbed17468	-0.40909123
255	0xbcf94584	-0.030428655

fc2.bias f4 [32]
0	0x3d16fb62	0.03686083
1	0x3ea34241	0.31886485
2	0x3e2e2c00	0.17008972
3	0x3cf7a522	0.030230109
4	0xbd8cd22c	-0.068760246
5	0xbd768aff	-0.06019115
6	0x3da8bba4	0.082389146
7	0x3d9200d6	0.07129066
8	0x3e22f324	0.15913063
9	0x3e6262e9	0.22108044
10	0x3d17810b	0.0369883
11	0xbe4c3db2	-0.1994541
12	0x3dac0902	0.084001556
13	0x3e109755	0.14120229
14	0xbde2e4ac	-0.11078772
15	0xbdcdb493	-0.100442074
16	0x3e218618	0.15773809
17	0x3d502b21	0.05082238
18	0xbe7b2b77	-0.245283
19	0xbd55aec0	-0.052168608
20	0x3a8fdb88	0.001097546
21	0x3d016010	0.031585753
22	0xbd929631	-0.07157553
23	0xbe15f823	-0.14645438
24	0x3dec739a	0.11545487
25	0xbeda94e9	-0.42691734
26	0xbce146e3	-0.027499622
27	0x3c5242f2	0.012833344
28	0xbdbf824d	-0.09351025
29	0xbc9b57d3	-0.018962776
30	0x3d0c40cf	0.034241494
31	0x3d09e206	0.03366282

fc2a.weight f4 [32, 32]
0	0xbf78b858	-0.97156286
1	0xbec7c648	-0.39018464
2	0xbccef414	-0.02526287
3	0xbda83362	-0.082129255
4	0x3e86f59d	0.26359263
5	0xbf94214e	-1.1572664
6	0x3dc63dd5	0.09679762
7	0xbf41a653	-0.75644416
8	0xbeb9dcd0	-0.3630128
9	0xbdc526ce	-0.09626542
10	0xbe35984f	-0.17733882
11	0xbf8cf9b9	-1.1013709
12	0xbe68f60e	-0.22750112
13	0x3f98b42a	1.1929982
14	0xbe786013	-0.242554
15	0xbe4c9cbb	-0.19981663
16	0x3b8d3388	0.0043091215
17	0x3deba1f9	0.11505503
18	0xbec664c0	-0.3874874
19	0xbee9275e	-0.45537847
20	0x3ead4b3e	0.33846468
21	0x3e8006f3	0.25005302
22	0x3d2ded19	0.042462442
23	0xbe0c5a30	-0.13706279
24	0xbf30ff3a	-0.69139445
25	0x3e8aa001	0.27075198
26	0x3dd0b160	0.101900816
27	0xbe87a0ad	-0.26489773
28	0x3db5a58a	0.08869465
29	0xbe35e63c	-0.17763609
30	0xbe129e20	-0.14318132
31	0xbe6d4728	-0.23171675
32	0x3e779d09	0.24180998
33	0xbe9ffee7	-0.31249163
34	0xbef39561	-0.47574905
35	0x3e73b920	0.23801088
36	0xbd541916	-0.051781736
37	0xbd8e4c4e	-0.06948148
38	0xc015946a	-2.3371835
39	0x3ce3375b	0.027736356
40	0x3dd13df2	0.10216893
41	0xbece7104	-0.403206
42	0x3e805960	0.25068188
43	0x3e1f2c6c	0.1554429
44	0xbe7f46ed	-0.249294
45	0xbdacf5ab	-0.08445295
46	0x3e742668	0.23842776
47	0x3e436de9	0.19084896
48	0xbebe7553	-0.37198886
49	0xbda861d6	-0.08221786
50	0xbe6c8b7e	-0.23100087
51	0xbe86dced	-0.26340428
52	0x3e0e2d75	0.13884528
53	0xbe91aaa7	-0.2845051
54	0xbe5a9484	-0.21345717
55	0xbefc448f	-0.49271056
56	0x3d9e6336	0.07733767
57	0x3d26b395	0.040698607
58	0x3eb8312e	0.3597502
59	0xbf090024	-0.5351584
60	0x3f4cadc0	0.7995262
61	0xbecf15c4	-0.40446293
62	0x3ebf62a3	0.3737994
63	0xbdf672ca	-0.12033613
64	0x3eaa1d07	0.3322527
65	0x3f969327	1.1763657
66	0x3d73d639	0.05953047
67	0xbdf0ce1e	-0.11758064
68	0xbeee7cf4	-0.46579707
69	0xbda178b2	-0.07884349
70	0x3dbec6e3	0.093152784
71	0x3ec366c4	0.3816434
72	0x3e2cb8e2	0.16867402
73	0x3ed17467	0.4090912
74	0xbedb10d3	-0.42786273
75	0xbe62bbb2	-0.22141913
76	0x3e9fb47e	0.31192392
77	0xbeb072ad	-0.3446249
78	0xbe0b5e36	-0.13610157
79	0xbd96ae71	-0.07357491
80	0x3e0dda3f	0.13852786
81	0xbe8d3458	-0.27578998
82	0x3f03b9e3	0.51455516
83	0x3ef0a1b1	0.4699836
84	0xbf35cc5d	-0.7101496
85	0xbc92f146	-0.017937314
86	0x3ba9c10d	0.005180484
87	0x3f81f6ce	1.0153444
88	0x3e089836	0.13339314
89	0x3ce45547	0.027872695
90	0x3e66d3ab	0.22541682
91	0x3f113948	0.5672803
92	0xbde52b2a	-0.111898735
93	0x3e66f970	0.2255609
94	0xbddffd95	-0.10937039
95	0x3ef645e0	0.48100185
96	0x3cba5843	0.022747165
97	0x3eebe6af	0.46074435
98	0x3ed50aa8	0.41609693
99	0xbe94e208	-0.29078698
100	0x3e180463	0.14845423
101	0xbde7413d	-0.1129174
102	0x3f12c347	0.5732922
103	0xbc3272a7	-0.010891593
104	0x3e13ac9a	0.14421311
105	0x3f9b319b	1.2124513
106	0xbe9722ea	-0.29518825
107	0xbe1cfc88	-0.15330708
108	0x3ef39e40	0.47581673
109	0xbcc51a54	-0.024060406
110	0xbca7abf2	-0.020467732
111	0xbe5e9a61	-0.21738578
112	0x3d9b0fcb	0.07571372
113	0xbc130d9a	-0.008975411
114	0x3e27b4ec	0.1637761
115	0x3ef4176f	0.47674128
116	0xbddcfbe4	-0.10790232
117	0x3e64660e	0.22304556
118	0x3eb90091	0.36133245
119	0x3edffe61	0.43748763
120	0xbe74a958	-0.23892725
121	0xbd244905	-0.0401087
122	0x3dc2d3d5	0.0951306
123	0x3f3755f6	0.7161554
124	0xbecacf6d	-0.39611378
125	0x3e9128ae	0.2835135
126	0xbf8790f3	-1.059111
127	0x3d60df76	0.05490061
128	0x3e556401	0.2083893
129	0xbe2c35bd	-0.16817375
130	0x3f2f308d	0.6843346
131	0xbf142dd1	-0.5788241
132	0xbdf93686	-0.12168603
133	0x3e7cb89a	0.24679795
134	0xbe67c144	-0.22632319
135	0x3c80abac	0.01570686
136	0x3ef04507	0.46927664
137	0x3e1b438f	0.1516249
138	0x3db251ac	0.08706984
139	0x3e14b5d5	0.14522488
140	0xbfd93ab8	-1.6971045
141	0x3da5ce8b	0.080960356
142	0x3e0fc030	0.14038157
143	0x3d93df3c	0.07220313
144	0x3e649050	0.22320676
145	0x3f1f6499	0.62262875
146	0xbfdc9b4c	-1.7234893
147	0xbfc4551d	-1.5338475
148	0xbe8cf33e	-0.2752933
149	0x3f09ff7c	0.53905463
150	0xbfd5a78f	-1.669176
151	0xbc94931a	-0.01813655
152	0x3e04231a	0.12904015
153	0xbf21493d	-0.6300238
154	0x3e7531e3	0.23944812
155	0xbe8afe20	-0.27147007
156	0xbea2f788	-0.31829476
157	0xc046283d	-3.096206
158	0x3e118d42	0.14214042
159	0xbe3d519a	-0.1848816
160	0x3e47378b	0.19454782
161	0xbdc884c3	-0.09790947
162	0xbefab183	-0.48963556
163	0x3e7c7215	0.24652894
164	0xbdc04469	-0.09388048
165	0xbd277309	-0.04088119
166	0xbefa55bd	-0.48893538
167	0xbe468143	-0.19385247
168	0x3deec013	0.11657729
169	0xbec3301a	-0.38122636
170	0xbdddaf69	-0.108244725
171	0x3ea9a187	0.33131048
172	0xbe6249b2	-0.22098425
173	0xbe360638	-0.1777581
174	0x3fcdf3cb	1.6090025
175	0x3f4350a1	0.76294905
176	0xbeb6d002	-0.35705572
177	0xbe4979ca	-0.19675365
178	0xbdc0b24c	-0.094090074
179	0xbea9839d	-0.33108225
180	0x3dee9182	0.11648847
181	0xbfb2925b	-1.3950914
182	0xbe1eca64	-0.15506893
183	0xbe7cedd6	-0.24700102
184	0x3ea48d43	0.32139024
185	0x3d76674c	0.060157105
186	0xbcb01a72	-0.021496985
187	0xbf02fb49	-0.5116468
188	0x3eacf0f2	0.33777577
189	0xbe0a5e2e	-0.13512489
190	0x3d243cb9	0.040096972
191	0x3e3e9a95	0.18613656
192	0xbd930740	-0.07179117
193	0x3ed6689d	0.4187669
194	0x3f0390b9	0.51392704
195	0xbe9d3b6a	-0.30709392
196	0xbc75cbc1	-0.015002192
197	0xbe227ab4	-0.1586712
198	0x3f7657aa	0.96227515
199	0x3dea1031	0.114288695
200	0x3d31242f	0.043247398
201	0x3e4b9b28	0.19883406
202	0xbe22f581	-0.15913965
203	0xbdf58afc	-0.119894
204	0x3ed759fc	0.4206084
205	0x3c6c97a0	0.014440447
206	0xbe99fd17	-0.30075905
207	0xbe104bba	-0.14091387
208	0x3da9376e	0.082625255
209	0x3e58a838	0.2115792
210	0x3e940654	0.28911078
211	0x3e529647	0.20565139
212	0xbcee876a	-0.029117305
213	0x3e846371	0.25857118
214	0x3e8b878c	0.27251852
215	0x3ed610ed	0.41809788
216	0xbc934bcf	-0.017980484
217	0x3ddb518a	0.10708912
218	0xbd712384	-0.05887176
219	0x3ea7c822	0.32769877
220	0xbf198e76	-0.59983003
221	0x3e6fce9b	0.23418657
222	0xbfe13a57	-1.7595929
223	0x3d9a6bff	0.0754013
224	0xbddb9b70	-0.10723007
225	0x3dc3a875	0.09553615
226	0x3f0d8a7f	0.55289453
227	0xbf194297	-0.59867233
228	0xbd97e980	-0.074175835
229	0xbdfef4ae	-0.12449013
230	0x3eebdc3d	0.46066466
231	0x3e0d84a4	0.1382013
232	0xbca71805	-0.020397196
233	0x3eaed164	0.34144127
234	0xbe217a8b	-0.15769403
235	0xbe5fc6f0	-0.21853232
236	0xbd7a3a22	-0.061090596
237	0x3e4ce870	0.20010543
238	0xbf0c993f	-0.54921335
239	0xc0065c73	-2.0993927
240	0x3ec586d1	0.3857942
241	0x3ec58d49	0.38584355
242	0xbe83e9ac	-0.25764215
243	0xbe324432	-0.17408827
244	0xbe09e331	-0.13465573
245	0x3f1d2948	0.61391115
246	0x3d00d30c	0.03145127
247	0x3ecba8e1	0.39777282
248	0xbea18bf1	-0.3155208
249	0x3e80ca3e	0.251543
250	0xbdde2bef	-0.108482234
251	0x3e962593	0.29325542
252	0xbf3efc9e	-0.74604213
253	0xbdd12b00	-0.1021328
254	0xbcdca761	-0.026935281
255	0x3e26db60	0.16294622

fc2a.bias f4 [32]
0	0x3cff1217	0.031136556
1	0x3e58270c	0.21108645
2	0x3eabb718	0.33538127
3	0xbe3b74e8	-0.18306315
4	0x3e099c54	0.1343854
5	0xbe220256	-0.15821204
6	0xbe1c5698	-0.15267408
7	0xbe03be60	-0.12865591
8	0x3df885ef	0.12134921
9	0x3e5219d7	0.2051767
10	0xbe9d3ddd	-0.3071126
11	0x3d97bf70	0.07409561
12	0x3c8c9a99	0.017163562
13	0xbe7656ea	-0.24056593
14	0x3bc7aaa9	0.0060933423
15	0x3e721b37	0.23643194
16	0xba1f98c1	-0.0006088131
17	0x3c8311f0	0.015999764
18	0x3d96c49c	0.07361719
19	0xbf0ac0a0	-0.5420017
20	0xbe967c9b	-0.2939194
21	0xbeb2cae7	-0.34920427
22	0x3dc598f1	0.09648312
23	0x3e214142	0.1574755
24	0x3e540444	0.20704752
25	0xbe45a52a	-0.19301286
26	0xbe334771	-0.17507721
27	0xbe134b3f	-0.14384173
28	0xbe44a41b	-0.19203226
29	0xbe868ee8	-0.26280904
30	0xbd9b4bfd	-0.07582853
31	0xbda90981	-0.08253766

fc2b.weight f4 [32, 32]
0	0xbec06c61	-0.37582687
1	0x3f46dbee	0.77679336
2	0x3e4e0827	0.20120297
3	0xbf165389	-0.58721215
4	0x3f810e48	1.0082483
5	0x3ea1e58a	0.31620437
6	0xbf37a275	-0.71732265
7	0x3e3d7016	0.18499789
8	0x3f1788b2	0.59192955
9	0xbe2f9f7a	-0.17150679
10	0x3e7c8865	0.24661405
11	0x3ec8ff80	0.3925743
12	0xbdb91c8a	-0.090386465
13	0xbf8506c9	-1.0392696
14	0x3f3a6711	0.72813517
15	0x3e311ce6	0.1729618
16	0xbe805ffa	-0.25073224
17	0xbe75b030	-0.23992991
18	0xbea6e175	-0.32593885
19	0x3e698e38	0.22808158
20	0x3c6fa8e3	0.014627668
21	0x3e26046e	0.16212627
22	0xbe478c60	-0.19487143
23	0xbebc790e	-0.36811107
24	0x39ca24c8	0.00038555847
25	0xbbb82741	-0.005619914
26	0x3d3a6666	0.04550781
27	0xbf0f4660	-0.5596676
28	0x3f8dceec	1.1078773
29	0x3e64f7d3	0.22360162
30	0x3f530f4d	0.8244522
31	0x3e87b037	0.2650163
32	0xbdcc3742	-0.09971477
33	0xbec4243a	-0.3830889
34	0x400460a4	2.0683985
35	0xbe1a6523	-0.15077643
36	0xbd7c705f	-0.061630603
37	0xbec768df	-0.38947198
38	0xbe6b0954	-0.22952777
39	0x3e524098	0.20532453
40	0x3caf281c	0.02138143
41	0xbdd12c66	-0.102135465
42	0x3d8818a1	0.066453226
43	0x3f04db3b	0.5189702
44	0xbec0e629	-0.37675598
45	0xbc3a4ec7	-0.011371321
46	0xbc70d3bd	-0.01469892
47	0x3ef67101	0.4813309
48	0xbe382edb	-0.17986624
49	0xbda1ffe7	-0.079101376
50	0xbdcd007e	-0.100098595
51	0xbddbbc92	-0.10729326
52	0xbe54ed88	-0.20793736
53	0xbe3483b4	-0.17628366
54	0x3eb4dea3	0.35326108
55	0x3ecf6d27	0.40512964
56	0x3f3ee429	0.74566895
57	0x3e25c09d	0.16186757
58	0x3e6e22ae	0.23255417
59	0xbd4c3886	-0.049858592
60	0x3de98930	0.114031196
61	0xbf117c2a	-0.56830084
62	0xbd51992a	-0.05117146
63	0xbec2d0e8	-0.38050008
64	0xbdc83702	-0.09776117
65	0xbf1cdd89	-0.61275536
66	0x3f1459c5	0.5794948
67	0x3f21c65f	0.63193315
68	0xbf31b9f3	-0.6942436
69	0xbe3f6a3a	-0.18692866
70	0x3f6bc117	0.92091507
71	0xbc7ccf49	-0.01543028
72	0xbf251057	-0.6447806
73	0xbe4e35d1	-0.20137717
74	0x3d84a4f9	0.064767785
75	0x3e87b326	0.26503867
76	0xbd6c867c	-0.05774544
77	0x3f1f7692	0.622903
78	0xbe727d25	-0.23680551
79	0x3ecf6d5b	0.4051312
80	0xbd604fa6	-0.05476346
81	0x3e451e67	0.19249879
82	0x3d05c14a	0.032655038
83	0xba5532ac	-0.0008132856
84	0x3db58bc7	0.08864551
85	0xbe32e3e9	-0.17469753
86	0xbe30021c	-0.17188305
87	0x3f83b2c4	1.028893
88	0x3e3a1659	0.18172587
89	0x3ec1a05a	0.3781765
90	0xbe2bbfa6	-0.16772327
91	0x3edf4ddf	0.43614098
92	0xbf4af2e7	-0.7927689
93	0xbf156f4a	-0.5837294
94	0xbf1d4f40	-0.6144905
95	0x3dba61aa	0.09100659
96	0x3da72fd2	0.08163418
97	0x3f4c5a35	0.79825145
98	0xbed72c5b	-0.42026028
99	0xc004f252	-2.07729
100	0x3ea076b7	0.31340572
101	0x3f10f642	0.5662576
102	0xbf74055f	-0.95320696
103	0x3e079ef0	0.13244224
104	0x3f68e19f	0.9096927
105	0xbdd544c9	-0.1041351
106	0x3e3a6a7a	0.1820468
107	0xbe0ad75f	-0.1355872
108	0x3e250f62	0.1611915
109	0xbeb2959a	-0.34879762
110	0xbcf61169	-0.030037599
111	0xbe956a88	-0.2918284
112	0x3dfa4368	0.12219888
113	0xbe4d5f64	-0.2005592
114	0x3d3aa050	0.045563042
115	0xbe65d98e	-0.22446272
116	0xbdb0e8ac	-0.08638129
117	0x3df9bef5	0.12194625
118	0xbd12676f	-0.035743173
119	0xbf13518a	-0.57546294
120	0x3e142a30	0.14469218
121	0xbdac58c2	-0.08415367
122	0xbd6ab648	-0.057302743
123	0xbe3b2a06	-0.1827775
124	0x3ed3288a	0.41241866
125	0x3e4e45a1	0.20143749
126	0x3f0277e7	0.50964206
127	0xbd80ea72	-0.06294717
128	0x3efc00ba	0.49219304
129	0xbeab4dab	-0.33457693
130	0xbdd85701	-0.1056347
131	0x3e0122ae	0.12610886
132	0x3e677a37	0.22605215
133	0xbeb54199	-0.3540161
134	0x3e46a6f7	0.1939963
135	0x3edc79a3	0.4306155
136	0xbe5e9eb0	-0.21740222
137	0x3d744bf4	0.059642747
138	0x3f00cd79	0.50313526
139	0xbdebe029	-0.115173645
140	0xbea82c0d	-0.32846108
141	0x3e22ac7c	0.1588611
142	0xbf0f7633	-0.5603973
143	0xbdd7f375	-0.105444826
144	0xbfcd4c39	-1.6038886
145	0x3cc16cfb	0.023611536
146	0x3ecb96d9	0.39763525
147	0x3f93d2bd	1.1548687
148	0x3da23d16	0.079218075
149	0x3f49b081	0.7878495
150	0x3e5ecf24	0.21758705
151	0x3d95616d	0.07293973
152	0xbf71f030	-0.9450712
153	0x3ee024f7	0.43778202
154	0x3ebef658	0.3729732
155	0x3e6ba977	0.23013864
156	0xbda35870	-0.079758525
157	0xbcbeb2f2	-0.023278687
158	0xbe1a057f	-0.15041159
159	0x3f230789	0.6368337
160	0x3e2ea526	0.17055187
161	0xbdeaf16c	-0.11471829
162	0x3e12a93c	0.1432237
163	0xbd62dcdd	-0.055386413
164	0x3ca7b1c7	0.020470513
165	0xbfa35554	-1.2760415
166	0xbbe62ba8	-0.007024247
167	0x3f0a5fe9	0.540526
168	0xbc3496e0	-0.0110222995
169	0xbd088ac1	-0.03333545
170	0xbe65afc7	-0.22430335
171	0x3d294c80	0.04133272
172	0xbeca21f7	-0.39479038
173	0xbdee2750	-0.11628592
174	0x3e84d152	0.2594095
175	0x3e21eaf2	0.15812281
176	0xbf1de207	-0.61673015
177	0xbdc07206	-0.09396748
178	0xbec30d8d	-0.38096276
179	0xbe1febf5	-0.15617354
180	0x3d4e333f	0.05034184
181	0xbe7692fd	-0.24079509
182	0x3e58ea5a	0.21183148
183	0xbd85e768	-0.06538278
184	0xbbef20f5	-0.00729763
185	0xbd385367	-0.045001414
186	0x3fc3eee2	1.5307276
187	0xbdcca002	-0.099914566
188	0xbe003b05	-0.12522514
189	0x3d2bd918	0.041955084
190	0x3e4375ab	0.19087856
191	0xbdfc135f	-0.12308382
192	0xbdfd02a2	-0.12354018
193	0x3f195943	0.5990183
194	0xbcd829cb	-0.026387116
195	0xbf9535f5	-1.1657091
196	0x3ed3a13d	0.41333953
197	0x3cd4fc10	0.025999099
198	0xbfc328cf	-1.5246829
199	0x3ced2217	0.02894692
200	0x3f0e302c	0.55542254
201	0xbe36cdc1	-0.17851926
202	0x3bf30775	0.0074166604
203	0xbe0cd710	-0.13753915
204	0x3eb28bcd	0.34872285
205	0xbf13266d	-0.5748051
206	0x3d38413d	0.04498409
207	0xbbe2dc78	-0.0069232546
208	0x3e1c97ed	0.1529233
209	0x3e23cb14	0.15995437
210	0xbdce7890	-0.10081589
211	0xbe0385bb	-0.12843983
212	0x3dd99251	0.10623611
213	0x3de4b6d2	0.11167683
214	0xbdbc9f26	-0.09210043
215	0xbdcfb148	-0.101412356
216	0x3df4c68e	0.11951934
217	0xbe54012d	-0.20703574
218	0xbc05606c	-0.008140665
219	0xbf24cecf	-0.64378065
220	0x3f0feac5	0.56217605
221	0x3e80652f	0.25077197
222	0x3d3f0d67	0.04664364
223	0xbd0bed51	-0.03416187
224	0xbe9daa2e	-0.307939
225	0x3cfc8797	0.030826373
226	0xbd29044f	-0.041263875
227	0xbeec9dfe	-0.46214288
228	0x3f94e3a1	1.1631967
229	0x3ec69484	0.38785183
230	0xbd842d7a	-0.064539865
231	0xbe187188	-0.14887059
232	0xbd3042b3	-0.04303236
233	0xbd494ebf	-0.049147364
234	0x3e2a2f10	0.16619515
235	0xc0286c2d	-2.6316025
236	0xbda4619a	-0.080264285
237	0xbf0b6793	-0.54454917
238	0x3eb0a708	0.34502435
239	0xbf5186f0	-0.81846523
240	0xbc6b10d8	-0.014347278
241	0xbe9a5644	-0.3014394
242	0xbf30a395	-0.68999606
243	0x3e77b8c9	0.24191584
244	0x3f82c879	1.0217429
245	0x3e204343	0.15650658
246	0xbc864159	-0.016388582
247	0xbefac20a	-0.48976165
248	0xbe5c889a	-0.21536484
249	0xbe07bb3e	-0.13255021
250	0x3e6f6fb1	0.2338245
251	0x3ccb9ac1	0.024854066
252	0x3ec08027	0.37597772
253	0x3fbd763d	1.4801708
254	0x3f1e20a0	0.6176853
255	0x3e4a5223	0.19757895

fc2b.bias f4 [32]
0	0xbdfa5f89	-0.12225253
1	0x3e4c0fbd	0.19927879
2	0xbdb2757a	-0.08713813
3	0xbd34c27c	-0.044130787
4	0xbeccfc4d	-0.4003624
5	0x3e595312	0.21223095
6	0x3d919fe2	0.07110573
7	0x3d9efafa	0.07762714
8	0x3cb6f3e6	0.022333097
9	0x3e97a64c	0.29619062
10	0xbd8d10cc	-0.068879694
11	0x3e1521b5	0.1456364
12	0xbdcbb98b	-0.09947499
13	0x3e28e5d0	0.16493917
14	0x3eb408f2	0.35163075
15	0x3ee05abf	0.43819234
16	0xbf5cdaf6	-0.8627161
17	0x3e6af69c	0.22945637
18	0xbeb6f3ed	-0.35732976
19	0x3ed9e4bd	0.42557326
20	0xbdc3c4cd	-0.09559021
21	0x3e63fefd	0.22265239
22	0xbd1152ec	-0.03547947
23	0x3e4bd334	0.19904786
24	0x3e70403d	0.23462005
25	0x3edaa61a	0.4270485
26	0x3de378f5	0.11107055
27	0xbd774ab3	-0.060373973
28	0x3dcf83b0	0.10132539
29	0xbe18a88d	-0.14908047
30	0x3eba3279	0.36366633
31	0xbe4cb4eb	-0.1999089

fc2c.weight f4 [32, 32]
0	0xbd3441e7	-0.044008162
1	0x3da4e454	0.08051363
2	0x3eb89aed	0.360557
3	0xbeffdde5	-0.4997398
4	0xbd99ff8f	-0.07519447
5	0x3f8d1657	1.1022443
6	0xbe525e36	-0.20543751
7	0x3bdd69b3	0.006756985
8	0xbea88709	-0.32915524
9	0x3e422c35	0.18962176
10	0x3f73f60d	0.9529732
11	0xbf5fdb5a	-0.8744408
12	0x3ec82868	0.39093328
13	0x3ece771f	0.40325257
14	0xbe250f04	-0.1611901
15	0x3eaa276c	0.33233202
16	0xbb913698	-0.004431557
17	0x3e8fc311	0.2807851
18	0x3e8805f6	0.26567048
19	0x3eb68b40	0.35653114
20	0xbe151385	-0.14558227
21	0x3cff7bab	0.0311869
22	0xbdd8e6df	-0.1059091
23	0x3e79bdc3	0.24388795
24	0x3f0fa862	0.56116307
25	0x3e2423cd	0.16029282
26	0x3ec0c1d9	0.37647894
27	0xbe675ec8	-0.2259475
28	0x3ddfc541	0.10926295
29	0xbdb9f5db	-0.09080096
30	0xbe57b9e1	-0.21067001
31	0x3dae4f16	0.08511178
32	0x3cc092db	0.023507526
33	0xbf177a4c	-0.59170985
34	0x3d10b0d2	0.03532488
35	0x3ccb5284	0.02481962
36	0x3f16f57d	0.58968335
37	0xbcdf2428	-0.02723892
38	0xbe94877a	-0.2900961
39	0x3f2f7dbb	0.68551224
40	0x3e8eaa95	0.2786452
41	0xbf3b8e68	-0.7326417
42	0x3ec7947e	0.38980478
43	0xbe538c57	-0.20659004
44	0x3f194d70	0.59883785
45	0xbeaa0c39	-0.3321245
46	0x3f459bdf	0.77190965
47	0xbe7a04dc	-0.24415916
48	0x3e6f89a1	0.23392345
49	0xbebd3818	-0.3695686
50	0x3f837f30	1.027319
51	0xbeab1d4f	-0.33420798
52	0x3efa8edb	0.48937115
53	0xbea49c62	-0.3215056
54	0x3ea2db87	0.3180811
55	0xbe0e3a65	-0.13889463
56	0xc00baed8	-2.1825466
57	0xbefc364a	-0.4926017
58	0x3ea9c754	0.33159888
59	0x3ed1e581	0.4099541
60	0x3ec6fdb5	0.38865438
61	0xbedb8e7b	-0.4288214
62	0xbf065202	-0.52468884
63	0x3e72dedc	0.23717827
64	0x3d6cd631	0.057821456
65	0xbdc1af7f	-0.09457301
66	0x3ddb8875	0.107193865
67	0x3e411e6f	0.18859266
68	0x3ee008df	0.43756768
69	0x3ed69a1b	0.41914448
70	0x3f12c2d6	0.57328546
71	0x3e6752ac	0.2259013
72	0xbd6401f1	-0.055665914
73	0xbebb10f0	-0.3653636
74	0xbe2d7140	-0.16937733
75	0x3e397538	0.18111122
76	0x3e5598d2	0.20859078
77	0x3f1132ea	0.56718314
78	0x3e791c2f	0.24327157
79	0x3f71e4ed	0.9448994
80	0xbff6bc8f	-1.9276294
81	0x3eab797b	0.3349112
82	0x3e5f7d12	0.21825054
83	0x3f47a482	0.77985394
84	0x3eb51263	0.3536559
85	0x3f18ccf4	0.59687734
86	0x3ea4649b	0.32108006
87	0xbe87645a	-0.2644375
88	0xbe63c72c	-0.22243947
89	0xbe885314	-0.26625884
90	0xbf29f009	-0.6638189
91	0x3ea29c3c	0.31759822
92	0xbe0ff741	-0.14059164
93	0xbebb2246	-0.36549586
94	0xbf18d902	-0.5970613
95	0xbf32db5a	-0.69865954
96	0xbdcf831b	-0.10132428
97	0xbdf2769a	-0.11839028
98	0xbee64616	-0.44975346
99	0x3fc7be1a	1.5604889
100	0xbe02d2aa	-0.12775674
101	0xbe6c5319	-0.23078574
102	0x3f1b210c	0.605973
103	0x3e530d25	0.20610483
104	0x3e8f804b	0.28027567
105	0xbd47d417	-0.04878625
106	0xbd6e6080	-0.0581975
107	0x3ca6ffbd	0.020385617
108	0xbd80cb47	-0.06288772
109	0xbccce252	-0.025010262
110	0x3f088678	0.53330183
111	0xbe81ea2e	-0.25373977
112	0x3e0514d3	0.12996225
113	0xbe10a540	-0.14125538
114	0x3e3c6081	0.18396188
115	0xbd8ea003	-0.069641136
116	0x3ecd502c	0.4010023
117	0xbc9e55d9	-0.019328045
118	0x3e56c2d4	0.20972759
119	0xbed048a6	-0.40680426
120	0xbda315e9	-0.079631634
121	0xbefe95fd	-0.49723807
122	0xbf79b1a0	-0.9753666
123	0x3e36459e	0.17799994
124	0xbe1cd313	-0.15314893
125	0xbe23b8e6	-0.15988502
126	0xbd04cdaf	-0.032422718
127	0xbf66c1b5	-0.90139323
128	0xbf8bbd90	-1.0917225
129	0x3d88cd21	0.0667975
130	0x3f3c2d42	0.7350656
131	0xbe85cb3e	-0.26131624
132	0xbe8ff51e	-0.28116697
133	0xbd66bdfa	-0.05633352
134	0xbc3dd48f	-0.011586322
135	0xbf5c77f9	-0.86120564
136	0x3c4ed53c	0.012624081
137	0x3f3e6a22	0.74380696
138	0xbe93e1f6	-0.28883332
139	0x3c4820a5	0.012214814
140	0xbcad2468	-0.021135524
141	0xbca13650	-0.019679219
142	0xbe317b74	-0.1733225
143	0x3e73e2f6	0.23817047
144	0x3dc87360	0.09787631
145	0xbd9c7165	-0.07638816
146	0xbec3be36	-0.38231057
147	0x3e75905c	0.2398085
148	0xbf194365	-0.5986846
149	0xbd1d456b	-0.03839628
150	0xbee6eaf3	-0.45101127
151	0xbe64879c	-0.22317356
152	0x3f2804d6	0.6563238
153	0x3d1c3149	0.03813294
154	0xbd588821	-0.052864198
155	0xbf497147	-0.7868847
156	0xbf2f73a8	-0.6853585
157	0x3d1fea39	0.03904173
158	0x3e8f3039	0.27966478
159	0x3e458708	0.19289792
160	0xbe0ac349	-0.13551058
161	0x3e2d2861	0.16909935
162	0x3d8ec208	0.06970602
163	0xbeadaac4	-0.33919346
164	0xbe7ab0bc	-0.24481481
165	0x3fbab858	1.4587507
166	0xbe7d489a	-0.24734727
167	0x3e4073a6	0.18794116
168	0x3e705e00	0.23473358
169	0xbe1da270	-0.15393996
170	0x3f87c203	1.0606083
171	0xbf7db1f5	-0.99099666
172	0xbede2e25	-0.4339458
173	0xbec0a813	-0.3762823
174	0x3e6a679b	0.22891085
175	0xbe82e756	-0.2556712
176	0x3d931a59	0.0718276
177	0xbd943e67	-0.07238465
178	0xbec37d97	-0.38181755
179	0x3e6f27b8	0.23354995
180	0x3e4589af	0.19290803
181	0xbe143bc5	-0.14475925
182	0x3e79f8fc	0.24411386
183	0xbd8ed6cb	-0.06974562
184	0xbcf73a9e	-0.030179318
185	0x3ccaec7f	0.024770973
186	0x3e182d5d	0.14861055
187	0x3ea52b3f	0.32259557
188	0x3f740076	0.95313203
189	0x3e5ac9b7	0.2136601
190	0x3dfe3839	0.12413067
191	0x3e956931	0.29181817
192	0xbe9570e6	-0.29187697
193	0xbe49be1b	-0.19701426
194	0x3e11471d	0.14187284
195	0xbdae4ecb	-0.08511122
196	0x3e859854	0.2609278
197	0x3e026fdf	0.12737988
198	0x3ea34ea9	0.3189595
199	0xbcc9549b	-0.024576476
200	0x3f07f902	0.5311433
201	0xbea5730f	-0.32314345
202	0xbe167a72	-0.14695147
203	0x3ef52a26	0.4788372
204	0xbd9ba7bc	-0.07600352
205	0x3f0a7abf	0.54093546
206	0x3dedb777	0.11607259
207	0x3f788f28	0.9709344
208	0xbe48033f	-0.19532488
209	0x3ea987be	0.33111376
210	0x3e1b82af	0.1518657
211	0x40053944	2.0816202
212	0xbe8d2eb0	-0.27574682
213	0x3ec72572	0.38895756
214	0xbe7402ba	-0.23829165
215	0xbf7dbbe6	-0.99114835
216	0xbe463ebd	-0.1935987
217	0x3e9d093f	0.30671117
218	0xbdebf15d	-0.11520646
219	0x3e133f18	0.14379537
220	0xbd5363d9	-0.051608894
221	0xbeb00da8	-0.3438542
222	0xbeafedbb	-0.3436106
223	0x3d92a141	0.07159663
224	0xbeb66935	-0.35627142
225	0xbfec9df3	-1.8485702
226	0xbf23d973	-0.64003676
227	0x3d3e7bc5	0.046504755
228	0x3ee2ce0e	0.44297832
229	0xbe2bf72f	-0.16793512
230	0xbd979345	-0.07401136
231	0x3f66d4b2	0.901683
232	0x3f087bba	0.5331379
233	0xbf415ae2	-0.755293
234	0x3d9edb3b	0.07756659
235	0x3e169b77	0.14707743
236	0xbe244c3f	-0.1604471
237	0xbd4619d6	-0.048364483
238	0x3fe72fe7	1.8061494
239	0xbda89cf8	-0.082330644
240	0xbd2492ac	-0.04017894
241	0xbdb04280	-0.08606434
242	0x3c9732f7	0.01845692
243	0x3d2dbeb1	0.042418186
244	0x3e90e92e	0.28302902
245	0xbc94119f	-0.018074809
246	0x3eaf9beb	0.34298643
247	0xbe30b8ac	-0.17257947
248	0xbf51b834	-0.81921697
249	0xbf32e075	-0.69873744
250	0xbe8687b3	-0.26275405
251	0x3eb333fb	0.35000595
252	0x3e07b143	0.13251214
253	0xbda18915	-0.078874744
254	0xbe93a000	-0.28833008
255	0x3dd285fe	0.10279463

fc2c.bias f4 [32]
0	0x3dde6166	0.10858421
1	0xbe83c570	-0.2573657
2	0x3f6eb1bc	0.9323995
3	0xbe73067e	-0.23732945
4	0xbe6e631b	-0.23279993
5	0x3e8a5582	0.27018362
6	0x3f19beba	0.6005665
7	0x3f5be680	0.8589859
8	0x3eab037a	0.3340109
9	0x3e7aeff8	0.24505603
10	0x3d962733	0.073316954
11	0xbe94b22d	-0.29042187
12	0xbe0b467e	-0.1360111
13	0xbe514e33	-0.20439987
14	0x3df3eb59	0.119101234
15	0x3f068762	0.5255033
16	0xbf029295	-0.51004916
17	0xbe7c5573	-0.24641971
18	0x3f31f17c	0.695091
19	0x3d0406d3	0.03223307
20	0xbd6f0481	-0.058353905
21	0x3dfb1cc5	0.12261347
22	0xbe88412e	-0.26612228
23	0x3e6ed6a0	0.2332406
24	0xbe839500	-0.25699615
25	0x3c6c7aa0	0.014433533
26	0xbe9f8a07	-0.31159994
27	0x3d334b04	0.043772712
28	0xbeac89e7	-0.3369896
29	0xbcfcbdb8	-0.030852184
30	0xbda33712	-0.07969488
31	0xbe9eeb4b	-0.3103889

fc2d.weight f4 [32, 32]
0	0xbf173ee2	-0.59080327
1	0xbe55cb8c	-0.20878428
2	0xbd62ade2	-0.05534161
3	0x3e34274f	0.1759312
4	0xbe48c77e	-0.1960735
5	0xbfad2a14	-1.3528466
6	0x3e3d447d	0.18483157
7	0xbdfad6d8	-0.122480094
8	0x3e9f7006	0.31140155
9	0xbe836594	-0.25663435
10	0x3e2c03e0	0.16798353
11	0xbf3f78b3	-0.7479355
12	0x3d8840f7	0.06653016
13	0x3ee4edf2	0.44712788
14	0xbe780c47	-0.24223433
15	0xbd391d6f	-0.045194086
16	0x3ed6a436	0.41922158
17	0x3e435adc	0.19077629
18	0x3be22e26	0.006902474
19	0x3f39e958	0.7262168
20	0xbf02c99a	-0.5108887
21	0x3e99bd29	0.3002713
22	0x3f439e27	0.76413196
23	0xbe908532	-0.2822662
24	0xbd0eacd2	-0.034832783
25	0x3dac426d	0.08411107
26	0xbdfd0440	-0.12354326
27	0x3e23929f	0.159739
28	0xbf01cf4b	-0.5070693
29	0x3d547d84	0.051877514
30	0xbda619b8	-0.08110374
31	0xbfda4759	-1.7053024
32	0x3fa5f7ea	1.2966282
33	0xbe92f6a9	-0.28703812
34	0xbd014d96	-0.031568132
35	0xbef2e06e	-0.4743685
36	0xbdde9577	-0.10868352
37	0x3dc327ac	0.09529051
38	0xbdd783e3	-0.10523202
39	0x3dc5a746	0.096510455
40	0xbdc576ff	-0.09641837
41	0x3e03935e	0.12849185
42	0xbecd9808	-0.40155053
43	0x3f11e39a	0.5698792
44	0x3db1916f	0.086703174
45	0xbf7ca36b	-0.98686856
46	0xbdd08367	-0.10181313
47	0x3d46baeb	0.048518103
48	0x3dc0f380	0.09421444
49	0xbe54d0e1	-0.20782806
50	0xbcb0060b	-0.021487257
51	0x3e3b6b8e	0.18302748
52	0x3decdefe	0.1156597
53	0x3e10b13c	0.1413011
54	0xbdbc1561	-0.09183765
55	0x3f034954	0.51283765
56	0x3e763957	0.24045311
57	0xbe7bdf8c	-0.24596995
58	0x3c9b48e0	0.018955648
59	0xbee1dc5a	-0.44113427
60	0xbcf4896b	-0.029850682
61	0xbf92064d	-1.1408173
62	0x3e47f2a3	0.19526152
63	0x3f9b30e2	1.2124293
64	0x3e391dbe	0.18077752
65	0xbef261cd	-0.4734024
66	0x3cf6050f	0.030031709
67	0xbdb85867	-0.090012364
68	0x3f0a164b	0.53940266
69	0xbf3d5516	-0.73957956
70	0x3e7433ba	0.23847857
71	0xbe43b214	-0.191109
72	0x3fa5a17c	1.2939906
73	0xb9b0ba6b	-0.00033708228
74	0x3f8a9812	1.0827658
75	0xbe36c1e0	-0.17847395
76	0xbd70db45	-0.05880286
77	0x3ef901ab	0.48634085
78	0x3ec0b465	0.3763763
79	0x3e958342	0.29201704
80	0x3f1f85f4	0.6231377
81	0x3e3c0acc	0.18363494
82	0xbc55fb3d	-0.013060388
83	0xbe51a245	-0.20472057
84	0xbea2d80d	-0.3180546
85	0x3f2c42c5	0.6728938
86	0x3ef41906	0.4767534
87	0xbf8de557	-1.1085614
88	0xbeab15b7	-0.33415005
89	0xbe80e224	-0.25172532
90	0xbe20d049	-0.15704454
91	0x3d9de6cb	0.07710036
92	0x3d392181	0.045197967
93	0x3f0bc445	0.5459636
94	0x3e177ea5	0.14794405
95	0xbe9bdff6	-0.30444306
96	0xbf19f1b9	-0.60134465
97	0x3f2e25c5	0.6802638
98	0xbe5d4e38	-0.2161187
99	0x3d3a9aef	0.045557912
100	0xbf31d667	-0.69467777
101	0x3eb924d9	0.36160925
102	0xbf2c066f	-0.67197317
103	0x3e2a3b82	0.16624263
104	0xbee4e23e	-0.4470386
105	0x3ece1964	0.40253747
106	0xbffd214b	-1.9775785
107	0x3f02e9db	0.51138085
108	0x3d28d217	0.041215982
109	0x3e42a09a	0.19006577
110	0x3f25dec2	0.64793026
111	0xbec239a4	-0.379346
112	0xbf1536b6	-0.5828661
113	0x3d3aecc8	0.04563597
114	0x3e2cbdf6	0.1686934
115	0xbe8b69f0	-0.2722926
116	0x3f719b31	0.9437743
117	0xbfa073bd	-1.253532
118	0xbf0f612f	-0.56007665
119	0x3f77f7af	0.9686231
120	0x3e8a3503	0.2699357
121	0x3e707e6a	0.23485723
122	0xbe900aff	-0.2813339
123	0x3d443c58	0.04790911
124	0xbd05c6ea	-0.032660402
125	0xbe37085f	-0.17874287
126	0xbd2b9b48	-0.041896135
127	0x3f77dab9	0.9681812
128	0x3e3d0582	0.18459132
129	0x3f090e5c	0.53537536
130	0xbe42fdcc	-0.19042128
131	0xbe182353	-0.14857225
132	0xbf1f6972	-0.6227027
133	0x3ce40b34	0.027837373
134	0xbe496d20	-0.19670534
135	0x3cba12ed	0.022714103
136	0x3eae3c6d	0.34030476
137	0x3ece6090	0.40308046
138	0xbe214725	-0.15749796
139	0x3dd4f8de	0.1039903
140	0x3cc78c88	0.024359003
141	0x3ef72ebd	0.48277846
142	0x3e301e43	0.17199044
143	0x3d01a895	0.031654913
144	0xbf353c8d	-0.7079552
145	0xbeb23b68	-0.34810948
146	0x3d763790	0.060111582
147	0xbe8b536f	-0.27212092
148	0x3fbf0859	1.4924423
149	0xbfd978b2	-1.6989958
150	0xbfa29de7	-1.2704438
151	0xbce315e2	-0.027720395
152	0x3ee5699a	0.4480713
153	0x3ece9407	0.4034731
154	0x3e41bf3f	0.18920611
155	0xbe845cf4	-0.25852168
156	0xbbda1822	-0.006655709
157	0x3e04d04b	0.12970082
158	0x3dfec396	0.12439649
159	0x3e897aa0	0.26851368
160	0xbdddbd1f	-0.108270876
161	0xbe8edb36	-0.2790162
162	0xbdc4fe3e	-0.09618805
163	0x3f43fecb	0.7656066
164	0xbd55bf96	-0.052184664
165	0xbeb35b37	-0.3503053
166	0xbd8abb2e	-0.06773983
167	0xbf19d425	-0.6008933
168	0xbf3388a5	-0.7013038
169	0x3d27f7dd	0.041007865
170	0xbdc72bf3	-0.097251795
171	0x3f169b61	0.5883084
172	0xbe225ca6	-0.15855655
173	0x3f615536	0.88020647
174	0xbd9b15bb	-0.07572504
175	0xbd16fe8d	-0.036863852
176	0x3f680879	0.9063793
177	0x3e4efcd2	0.20213631
178	0x3c9825e2	0.018572751
179	0x3d857834	0.065170676
180	0x3dc3a8a7	0.09553652
181	0x3eb01cea	0.3439706
182	0x3ed02e5d	0.40660372
183	0x3ee4dfcb	0.4470199
184	0x3ca18527	0.019716812
185	0xbf901f11	-1.1259481
186	0x3e9869c0	0.2976818
187	0x3f2e1b12	0.68010056
188	0xbe83627d	-0.25661078
189	0xbe84ed3a	-0.2596224
190	0xbd0eb379	-0.034839127
191	0x3ee933fe	0.4554748
192	0x3d83c0d9	0.06433267
193	0xbd80fde5	-0.062984265
194	0xbd3ac4f8	-0.045598
195	0xbee270fe	-0.4422683
196	0xbe2bfafd	-0.16794963
197	0x3c0cca04	0.008593086
198	0xbf58595e	-0.84511364
199	0xbe423edc	-0.18969291
200	0x3f5044ac	0.81354785
201	0x3e97098a	0.29499465
202	0xbf0816dc	-0.5315988
203	0x3d32e6ea	0.043677248
204	0xbe2644ac	-0.16237134
205	0x3dba94b0	0.09110391
206	0x3ed928db	0.42413983
207	0xbd851ad3	-0.06499257
208	0xbe9a3654	-0.30119574
209	0xbecd7d4a	-0.4013465
210	0xbebb0aa9	-0.3653157
211	0xbd54a385	-0.051913757
212	0x3f1ce8b8	0.612926
213	0xbf1a88ae	-0.60364807
214	0xbf0f49a0	-0.5597172
215	0x3e7ce06f	0.2469499
216	0x3f0a6f46	0.5407604
217	0x3dd09e1d	0.10186408
218	0x3d987110	0.0744344
219	0xbe257e50	-0.16161466
220	0xbef2ee3d	-0.47447386
221	0x3e03f8c0	0.1288786
222	0x3eddbc30	0.43307638
223	0xbc3eafeb	-0.011638622
224	0x3de2e3a8	0.11078578
225	0x3ec7b979	0.39008692
226	0x3ec092ef	0.376121
227	0x3e6e945f	0.23298787
228	0xbf1f0706	-0.6212009
229	0x3db345d7	0.08753555
230	0x3e60e49e	0.2196221
231	0x3d9700e8	0.0737322
232	0xbf6a8bc0	-0.9161949
233	0x3eaf5159	0.3424175
234	0x3ee4d788	0.44695687
235	0x3e55d1d9	0.20880832
236	0xbe4d2f23	-0.20037512
237	0x3f8127d5	1.0090281
238	0x3e0d849b	0.13820116
239	0xbef9d0f2	-0.48792225
240	0xbfb39179	-1.402877
241	0x3cd4783c	0.025936238
242	0x3f5a7f4c	0.8535049
243	0xbe0416ea	-0.12899366
244	0x3d0967b1	0.033546153
245	0xbed1288d	-0.4085125
246	0xbf0de4e1	-0.55427366
247	0xbca39d2e	-0.01997241
248	0xbeac08dc	-0.3360051
249	0xbf09aa7b	-0.5377576
250	0xbe7f0df5	-0.24907668
251	0xbd5aaaf2	-0.053385682
252	0xbe889bf5	-0.26681486
253	0x3e95a1a0	0.29224873
254	0xbeb4d62a	-0.35319644
255	0x3da4193f	0.08012628

fc2d.bias f4 [32]
0	0xbd6efd88	-0.058347255
1	0x3e891cbc	0.26779735
2	0xbeff0c28	-0.49813962
3	0xbe70c884	-0.2351399
4	0xbedaab33	-0.4270874
5	0xbf26d73e	-0.65172184
6	0x3e3f7466	0.18696746
7	0x3ef1f8ff	0.4726028
8	0x3e8d5f06	0.2761156
9	0xbe19a5db	-0.15004675
10	0xbef5a927	-0.47980615
11	0xbf3fe024	-0.74951386
12	0xbdaeb625	-0.08530835
13	0xbf258993	-0.64663047
14	0xbe4dbcaa	-0.20091501
15	0xbefb65b2	-0.49101025
16	0x3ec61f5c	0.386958
17	0xbe816c3f	-0.25277898
18	0xbe2c9d59	-0.16856898
19	0x3d0d869e	0.03455221
20	0x3f68ecde	0.9098643
21	0x3cacf1e6	0.02111144
22	0x3dc4f219	0.09616489
23	0x3e03ccb0	0.12871051
24	0xbf490971	-0.7853003
25	0xbe16f7cb	-0.14742963
26	0x3e0773cc	0.13227767
27	0xbe59602c	-0.21228093
28	0x3cc5c892	0.024143491
29	0x3ddedab5	0.10881559
30	0x3ec8ba21	0.39204505
31	0xbeb2f639	-0.34953478

fc2e.weight f4 [32, 32]
0	0xbf537d31	-0.826129
1	0xbcbdd8a8	-0.023174599
2	0xbd485db9	-0.048917506
3	0x3dbdc2c8	0.09265667
4	0xbe56fcb3	-0.20994835
5	0xbe65dc8e	-0.22447416
6	0xbed25be7	-0.4108574
7	0xbf0f694e	-0.5602006
8	0x3df17a93	0.11790957
9	0x3ebbb233	0.36659393
10	0xbe46cc60	-0.194139
11	0xbe7fedf9	-0.24993123
12	0x3bb60a91	0.005555459
13	0x3d6375bc	0.055532202
14	0x3ea17663	0.31535634
15	0x3d70551e	0.058674924
16	0x3f4d1b5a	0.8011986
17	0x3f113e39	0.5673557
18	0xbf37ee95	-0.7184842
19	0xbe839088	-0.25696206
20	0xbd82078a	-0.06349094
21	0xbf385e5a	-0.7201897
22	0xbfbdcca7	-1.482808
23	0x3da1254e	0.078684434
24	0xbd4fcd2c	-0.050732777
25	0x3db5905b	0.08865424
26	0xbe8dfe2f	-0.2773299
27	0x3ec0fc15	0.37692323
28	0x3ebfd821	0.3746958
29	0xbec6e61c	-0.38847435
30	0xbe862c57	-0.26205704
31	0x3e06e54b	0.13173406
32	0x3e7af4e2	0.24507478
33	0xbc331885	-0.010931139
34	0x3f11db34	0.569751
35	0xbf758971	-0.95912844
36	0xbf8f4480	-1.119278
37	0xbe4beef7	-0.19915377
38	0xbdc44967	-0.09584313
39	0xbdacc0d5	-0.08435217
40	0x3f840f43	1.0317158
41	0x3f3a0f9a	0.72680056
42	0xbdc48e28	-0.09597427
43	0x3d527015	0.05137642
44	0xbfb7a9c2	-1.4348681
45	0xbdeb2526	-0.11481695
46	0xbd23ebdd	-0.04001986
47	0xbf04b299	-0.5183502
48	0x3f8ba4d6	1.0909679
49	0xbf0339e1	-0.5126019
50	0xbe80fd6f	-0.25193354
51	0x3d855111	0.06509603
52	0x3f28d858	0.65955114
53	0x3f31dc97	0.6947722
54	0x3f3825a3	0.7193243
55	0x3e84131c	0.2579583
56	0xbf254327	-0.6455559
57	0x3eb506bb	0.35356697
58	0x3f95b4cf	1.1695803
59	0xbdf1a9eb	-0.117999874
60	0xbea1ab01	-0.31575778
61	0x3d0616e6	0.03273668
62	0x3fa7e9bb	1.3118204
63	0x3e0aa4ac	0.1353938
64	0xbee5b64c	-0.44865644
65	0x3f5c3c6c	0.86029696
66	0xbea4dc05	-0.32199112
67	0xbd52dd5c	-0.051480636
68	0xbd0360d9	-0.032074783
69	0x3f5d86b7	0.86533684
70	0xbd0673d0	-0.03282529
71	0x3e1d1af0	0.15342307
72	0x3eb7dd8e	0.3591122
73	0xbf0b4ee4	-0.5441725
74	0x3eb894e0	0.36051083
75	0x3e66ac43	0.2252665
76	0x3f550cf4	0.8322289
77	0x3d4af82b	0.049553078
78	0xbe9a421a	-0.30128556
79	0xbe4bb6e3	-0.19893984
80	0x3eab1516	0.33414525
81	0xbe1d2132	-0.15344694
82	0x3e8ad8e9	0.27118614
83	0x3ef6fe99	0.48241118
84	0xbddb32ca	-0.107030466
85	0x3e10a72a	0.14126268
86	0xbe512e06	-0.20427713
87	0x3cca275f	0.024676977
88	0x3ea50d2c	0.32236612
89	0xbefabd38	-0.48972487
90	0xbefcb86e	-0.4935946
91	0x3d8f8741	0.070082195
92	0x3eb9ddc2	0.36302
93	0xbea26274	-0.3171574
94	0xbf1ee258	-0.62064123
95	0xbe2a98fb	-0.1665992
96	0x3e78fdd4	0.24315578
97	0x3d72631b	0.059176546
98	0x3e679b59	0.22617854
99	0xbee70f5f	-0.45128915
100	0xbc88ad88	-0.016684309
101	0xbe48e549	-0.19618715
102	0x3e87222a	0.26393253
103	0x3f4e6031	0.80615526
104	0x3e4f6b5d	0.202558
105	0xbe1bff9a	-0.15234223
106	0xbf21b697	-0.63169235
107	0xbe968ff5	-0.29406705
108	0xbe6ea012	-0.2330325
109	0xbf56cb1e	-0.8390368
110	0x3edd4ac1	0.43221095
111	0xbe14d2e5	-0.14533575
112	0xbdd77182	-0.10519697
113	0xbed9ddb1	-0.4255195
114	0xbef99dbc	-0.48753154
115	0xbc6a2960	-0.014292091
116	0x3f005694	0.5013211
117	0x3db51512	0.088419095
118	0x3f9b92ba	1.2154152
119	0x3aec0e69	0.0018009666
120	0xbf1ae2fe	-0.6050261
121	0x3e883d39	0.2660921
122	0xbc16c438	-0.009202056
123	0xbf1945c4	-0.5987208
124	0x3cb6184c	0.022228383
125	0x3e19770a	0.14986816
126	0x3f1d504c	0.6145065
127	0x3e9f440a	0.31106597
128	0x3a38bd5e	0.0007047261
129	0x3f4e6439	0.8062168
130	0xbee2b62f	-0.4427962
131	0xbf5f52de	-0.8723582
132	0x3dbb526e	0.091465816
133	0x3f25d5d9	0.6477943
134	0xbe2dccaf	-0.16972612
135	0x3e60f393	0.21967916
136	0x3e410319	0.18848838
137	0xbfa061cf	-1.2529849
138	0x3e9a4617	0.301316
139	0x3da73a3b	0.081654035
140	0x3ec9f5bc	0.39445293
141	0x3e40b189	0.18817724
142	0xbe819e19	-0.2531593
143	0xbdfd2b09	-0.12361724
144	0x3e587a96	0.21140513
145	0xbf27fb0b	-0.65617436
146	0x3f14a594	0.5806515
147	0x3ef1eed7	0.47252533
148	0xbdaaac65	-0.08333663
149	0xbdefc95b	-0.117083274
150	0xbe6d9cba	-0.23204318
151	0x3fafa4cd	1.3722168
152	0x3f167358	0.5876975
153	0xbf4d1013	-0.8010265
154	0xbf26d2bf	-0.65165323
155	0xbf027d4b	-0.5097243
156	0x3cb9745f	0.022638498
157	0xbea2f493	-0.3182722
158	0xbf492d01	-0.78584296
159	0x3d595eb2	0.053068824
160	0xbed0d669	-0.40788582
161	0x3e9d1a22	0.30684
162	0x3f061036	0.52368486
163	0x3ed7a43e	0.42117494
164	0x3dbfb1e5	0.093601026
165	0x3e3f7e69	0.18700565
166	0x3f151ed8	0.5825019
167	0x3e00a8e9	0.12564434
168	0x3f2e94fc	0.6819608
169	0x3f34ed26	0.7067436
170	0xbe7106cb	-0.23537748
171	0xbf2da123	-0.67824
172	0x3e9805e4	0.29691994
173	0x3ef39034	0.47570956
174	0xbefe08c2	-0.49616057
175	0xbef93969	-0.48676613
176	0xbdda8c7c	-0.106713265
177	0xbdd8d337	-0.10587161
178	0x3eb145b8	0.34623504
179	0xbeac4cf0	-0.3365245
180	0x3ef2b541	0.4740391
181	0xbe86f4fe	-0.2635879
182	0x3fae3989	1.3611308
183	0xbe54654e	-0.2074177
184	0xbf08ff13	-0.5351421
185	0xbe87fd31	-0.26560357
186	0x3fef404c	1.8691497
187	0xbdde9333	-0.1086792
188	0xbebf7ec4	-0.37401402
189	0x3a914038	0.0011081761
190	0x3fa3a014	1.2783227
191	0x3d93aa3b	0.07210203
192	0x3dade23e	0.08490418
193	0x3e4a1ef6	0.19738373
194	0xbe353f2a	-0.17699876
195	0x3eeb3d10	0.45945024
196	0x3e7b9ba4	0.24571091
197	0xbe0614af	-0.13093828
198	0x3eecfc16	0.46286076
199	0x3f8930d1	1.0718023
200	0xbdc20159	-0.09472913
201	0x3e02c516	0.12770495
202	0xbf1f5132	-0.6223327
203	0xbf237a26	-0.6385826
204	0x3e093174	0.13397771
205	0xbed2ce87	-0.41173193
206	0xbf66359a	-0.8992554
207	0xbf39129f	-0.7229404
208	0xbd864899	-0.06556816
209	0x3e88c1fd	0.267105
210	0xbddbfb39	-0.10741276
211	0x3d9f2249	0.07770211
212	0x3f3aba3c	0.7294042
213	0x3f8f7977	1.1208943
214	0x3f1f451c	0.6221483
215	0x3ecc7cce	0.39938968
216	0xbf334194	-0.7002194
217	0x3de6346e	0.11240469
218	0xbeecfc8b	-0.46286425
219	0xbf1ba96b	-0.60805386
220	0xbf10ec4d	-0.56610566
221	0x3e92a331	0.2864013
222	0x3dd2e89b	0.10298272
223	0xbf67d7c1	-0.9056359
224	0x3f8796e2	1.0592921
225	0xbe69b7de	-0.22824046
226	0x3fc2e347	1.522561
227	0xbf7a23d2	-0.9771091
228	0xbf398ed9	-0.72483593
229	0xbd51e9ae	-0.051248245
230	0xbf6992ba	-0.9123951
231	0x3d646669	0.05576173
232	0xbf07150b	-0.52766484
233	0x3f28054e	0.65633094
234	0x3e8ca8d4	0.27472556
235	0x3e88239f	0.26589677
236	0xbf41d158	-0.7571006
237	0x3e5cb0c9	0.21551813
238	0xbe1cd13d	-0.15314193
239	0xbd955ce4	-0.07293108
240	0x3ed029d0	0.406569
241	0x3f17ace5	0.5924819
242	0xbe2c29f6	-0.16812882
243	0xbe456a0a	-0.19278732
244	0x3f0109f8	0.50405836
245	0x3e945df5	0.28977934
246	0x3f091d32	0.53560174
247	0xbedfba12	-0.43696648
248	0xbeafac02	-0.3431092
249	0x3fd9dc4a	1.7020352
250	0x3d1bd9de	0.03804957
251	0x3dedc796	0.116103336
252	0xbe669e86	-0.2252141
253	0x3e5e26eb	0.21694534
254	0x3ed65599	0.4186218
255	0xbf92d3d6	-1.1470897

fc2e.bias f4 [32]
0	0xbeb5bff5	-0.35498014
1	0x3e9f7dae	0.31150573
2	0xbe39e71d	-0.18154569
3	0x3f3401e0	0.7031536
4	0xbe002368	-0.12513506
5	0x3f36416b	0.7119357
6	0x3ef2b262	0.4740172
7	0x3edd768c	0.43254507
8	0xbddfa896	-0.10920827
9	0xbeb13dc9	-0.3461745
10	0xbd89504e	-0.0670477
11	0xbe24d700	-0.16097641
12	0x3f04575e	0.5169581
13	0x3e6d549a	0.23176804
14	0x3ec3f542	0.38273054
15	0xbd0582ab	-0.032595318
16	0xbe9ae55c	-0.30253112
17	0xbe6c16d4	-0.23055583
18	0x3f1409db	0.5782754
19	0x3e9f4e8e	0.3111462
20	0xbeb87ed4	-0.36034262
21	0x3e7e51bd	0.24835868
22	0x3efe75de	0.496993
23	0xbdf3be57	-0.11901539
24	0x3ea3146b	0.31851515
25	0xbdffceef	-0.12490641
26	0xbf3da4c8	-0.7407956
27	0xbe77212e	-0.24133751
28	0xbdbaf14a	-0.091280535
29	0xbe5465f3	-0.20742016
30	0x3edf3dbb	0.43601784
31	0x3f3ae1b9	0.73000675
