model_l2.pth (torch, 113402 bytes, 54 tensors)

fc1.weight f4 [32, 1]
000000 3e 90 58 3f 51 45 b7 be 4b 57 86 3d d5 84 e1 3e
       0.84595096 -0.35795072 0.065596186 0.44046655
000010 6e 76 c4 3e 38 74 6c bf 7a 9d 34 bf 05 e2 db 3d
       0.38371605 -0.92364836 -0.7055279 0.10736469
000020 7a d1 4e bf b6 20 59 3f aa 89 1f bf 56 88 12 be
       -0.80788386 0.8481554 -0.62319434 -0.1430982
000030 e6 a1 3d bf 6e cb 3c 3f 05 40 97 be 5e c7 36 bf
       -0.7407516 0.7374791 -0.2954103 -0.7139796
000040 dd 04 d9 3d 1e db 6b bf 3f 56 ec 3e f6 3c c2 3e
       0.10596631 -0.9213122 0.4615955 0.37937135
000050 3f ea 66 bf 65 9c 94 be 3b 00 05 bf 80 da 44 bf
       -0.9020118 -0.2902557 -0.51953477 -0.76895905
000060 57 b4 ad 3e 9b b9 9a bd c7 fc 02 bf a1 76 1d 3e
       0.3392665 -0.07554933 -0.5116696 0.15377285
000070 46 28 0f bf cc 52 4d 3f 02 ce 43 3f 49 79 34 3f
       -0.5592083 0.80204463 0.7648622 0.70497566

fc1.bias f4 [32]
000000 09 53 2d 3f ac 2a 65 be aa d8 4c be 58 b0 ac 3e
       0.67704827 -0.2237956 -0.20004526 0.3372829
000010 05 0a 5c bf ea a1 1a 3f 90 d9 52 bf 73 e5 1f bf
       -0.8595279 0.6040331 -0.82363224 -0.62459487
000020 13 a9 84 3e 8f c5 1e bc 84 f0 84 bf 04 65 fa 3c
       0.25910243 -0.009690656 -1.03859 0.030565746
000030 f5 40 52 be d0 5d 0e bd 3b 68 c4 3e 81 86 23 3f
       -0.20532592 -0.034757435 0.38360772 0.6387711
000040 3d 12 0e 3f 0d 5a b5 3e 48 f1 0b bf ff 9f 0f 3f
       0.5549658 0.35420266 -0.5466504 0.5610351
000050 51 a3 16 3f 95 71 49 bf a1 f2 22 bf d3 b3 3c 3f
       0.5884295 -0.7868894 -0.6365147 0.7371189
000060 8d 27 61 bf 7c f2 4b 3f 39 53 a4 3e 3a bb 69 be
       -0.87950975 0.79666877 0.32094744 -0.22825328
000070 d3 62 23 3f a5 fb ff 3e 59 71 34 3f a6 ce 6c 3e
       0.6382267 0.49996677 0.70485455 0.23125705

fc2.weight f4 [32, 32]
000000 fa 33 18 3d be 02 f1 3d 25 9f ab bc 3a 0c 4c 3e
       0.037158944 0.11768101 -0.02094991 0.19926539
000010 72 f5 8c bd 61 cf 61 be 40 d5 42 be d6 9e 5b 3e
       -0.068827525 -0.22051765 -0.19026661 0.2144731
000020 7d cd ac 3d 64 4d 4a 3d 0a 98 58 be b4 73 47 be
       0.08437631 0.04939021 -0.21151748 -0.19477731
000030 93 ef 52 be e8 7a 89 bb fe 22 11 be 50 ad 00 3e
       -0.20599203 -0.00419556 -0.14173505 0.12566113
000040 2d d7 04 3e 2f 82 99 bd 8f 27 0c 3e ee 2b a7 bd
       0.12972708 -0.07495534 0.13686965 -0.08162676
000050 5a d2 15 3d 6e b0 4a be 9a 3f 09 3d 02 01 93 3d
       0.03657756 -0.19793865 0.03350792 0.071779266
000060 a2 e8 da bd c0 39 57 be 39 e2 88 bc 29 fb 24 3e
       -0.106889024 -0.21018124 -0.016709434 0.16111435
000070 07 8c f8 3b 0f e3 4f bd 43 85 27 3e 10 f3 fd bd
       0.007585052 -0.05075365 0.16359429 -0.12399876
000080 a1 af 59 bd 4b e2 f2 bd b8 66 b2 bd 77 f0 ee bd
       -0.05314601 -0.11859568 -0.08710998 -0.11666959
000090 4b 5c 4b be 46 11 01 be f4 4c 10 3e c0 23 0a 3d
       -0.19859426 -0.12604246 0.14091855 0.0337255
0000a0 08 22 0f bd ba 10 50 be 2b 62 d8 bd d6 5d fe 3d
       -0.034944564 -0.2031888 -0.10565599 0.124202415
0000b0 7f 15 bc 3d d2 63 4e be 90 42 34 3e 99 b7 b6 bd
       0.091837876 -0.20155266 0.17603517 -0.08921737
0000c0 26 9c 11 3d 31 25 f6 bd 97 1d de bc 18 95 c3 3d
       0.035549305 -0.120188124 -0.027113719 0.09549922
0000d0 24 8e af bd c3 64 d9 3c d3 a6 91 3c 1b b6 0d bd
       -0.08572033 0.026537305 0.017779743 -0.034597497
0000e0 df 39 9f 3d 1c 59 ba 3d d8 5f c0 3d 6a 40 1e 3c
       0.0777471 0.090990275 0.09393281 0.009658912
0000f0 61 da 52 3e c1 b2 cc 3d 3c ce 28 be 5c af 80 bd
       0.20591117 0.09995032 -0.16484922 -0.06283447
000100 3c 90 3c bd 17 15 16 3e 73 30 76 bd 02 a9 33 3d
       -0.04603599 0.14656483 -0.0601048 0.04386235
000110 28 e8 0c be 6f be 02 3e 5c 4e 4b be b6 79 c1 3c
       -0.13760436 0.12767957 -0.1985411 0.023617607
000120 bc d0 0b be 51 5f bc bd 01 9f 35 3c 59 ff 0c 3e
       -0.13653845 -0.09197868 0.011085273 0.13769282
000130 22 73 0d bc c6 c2 fe bd 27 40 c6 bd 9b 89 5f bd
       -0.008633407 -0.12439494 -0.09680205 -0.05457459
000140 cb df 02 3e f0 3a 8f 3d 5d c3 1d 3e d5 bb e0 bd
       0.12780683 0.06993663 0.15406556 -0.10973326
000150 c6 87 b4 3c 28 de 16 3e 17 5c ae bd f4 88 90 bc
       0.022037398 0.14733183 -0.085136585 -0.01764343
000160 d8 cc 1e bd ff 32 0b 3e 0d 7b 10 be c4 5c 1b 3e
       -0.038769573 0.13593672 -0.1410944 0.15172106
000170 d1 f4 0c 3e 38 80 59 3d 7f 17 b0 bc b9 34 51 3d
       0.13765265 0.053100795 -0.021495579 0.05107567
000180 27 d3 a3 bd 82 a8 16 bd 0f d3 41 bd eb 02 a2 bd
       -0.079992585 -0.036781795 -0.04732042 -0.07910713
000190 7e 70 be bd ff 55 09 3d 29 06 74 bc e1 67 d3 bd
       -0.092988 0.033529278 -0.014894047 -0.10322548
0001a0 c9 00 47 3e 01 51 39 bd 39 25 66 3e 4e 40 c9 3d
       0.19433893 -0.045243267 0.22475137 0.09826718
0001b0 01 39 51 3e 15 12 99 bd bf 38 3b bd 37 89 2c 3e
       0.20431902 -0.07474152 -0.045708414 0.16849218
0001c0 83 b0 1a be 42 66 cc 3c e4 8f 2a 3d 2f c3 6c 3d
       -0.15106396 0.024951104 0.04164113 0.05780333
0001d0 55 1b db bd 3b 9b 9d 3c 61 3d fa 3a 52 6f 84 bd
       -0.106985725 0.019239059 0.0019091779 -0.06466545
0001e0 7d 4e 9a 3d e4 c8 55 3e d3 b2 6b 3e c1 b5 34 bd
       0.07534502 0.20877415 0.23017435 -0.044118647
0001f0 27 08 29 3c 98 45 64 be 48 5c 89 3d 75 dc ab bc
       0.010316885 -0.22292173 0.067070544 -0.020979146
000200 ce c5 b5 3d 6b 75 0c bd ce 5c 5a bd 0c 71 7c 3c
       0.08875619 -0.034291666 -0.05331116 0.015407812
000210 09 59 f6 bd 24 86 f5 3c 2c f4 23 be 1f bd 1e 3e
       -0.12028701 0.02997119 -0.16011113 0.15501831
000220 23 bf 25 3e 86 4c 84 3d a9 41 af 3b 8a e0 d3 bd
       0.16186194 0.06459908 0.0053484035 -0.10345562
000230 bc 34 99 bd af 14 f8 bd 98 90 f2 bc b8 54 99 bd
       -0.074807614 -0.1211332 -0.029609963 -0.07486862
000240 92 2d ea bd c5 0a 26 3e f3 30 b3 3d 4b 88 18 3c
       -0.11434473 0.16215046 0.08749571 0.0093098385
000250 bf 85 ba 3d 6f ce 3e bd 89 4a b0 3d 3b c2 de 3b
       0.09107541 -0.04658359 0.086079665 0.0067980564
000260 45 88 cb 3d 64 09 1a 3c d0 e5 3e 3d 0d b7 95 3d
       0.09938101 0.009401653 0.046605885 0.07310305
000270 9e e3 c2 bc 94 93 43 bd c1 d9 29 3e d1 d2 e0 bc
       -0.023790177 -0.047748163 0.16586973 -0.027444275
000280 26 d0 59 bb 4d 4f 95 3d 07 d2 81 3d 27 c7 e7 3d
       -0.0033235638 0.07290516 0.06338888 0.11317282
000290 d2 e2 0f 3d 78 68 3c 3d 8d 0d bb 3c a4 a4 8e be
       0.035128422 0.045998067 0.02283361 -0.27859986
0002a0 19 77 b7 bd 8f 68 48 be 7b fb 21 3e ed f4 2d 3e
       -0.08958263 -0.19571136 0.15818588 0.16987963
0002b0 96 d7 75 3a 27 9a 9e 3d 08 f9 1b bc cb b3 64 3b
       0.0009378133 0.07744246 -0.009519823 0.0034897204
0002c0 66 8e 63 3d 40 02 58 3e 99 93 a1 3b e4 a5 bf 3c
       0.055555724 0.21094608 0.004930925 0.023394533
0002d0 bf 22 09 3e fa 0f 1c 3e 78 7a e8 bc b5 9f e2 3d
       0.13392161 0.1524047 -0.02837871 0.11065618
0002e0 37 24 db bd 4b 4b 2e 3e d8 d2 4b bc 7b 36 1a be
       -0.10700267 0.1702091 -0.012440406 -0.15059845
0002f0 e8 c0 e2 3c 0e ab 3b be 22 7f 12 3d e1 82 5b be
       0.027679875 -0.18326971 0.035765775 -0.21436645
000300 0b 06 f1 bd 17 45 32 be ac 6c 80 bb 1b 24 e8 3d
       -0.11768731 -0.17409168 -0.0039192047 0.113350116
000310 77 64 0a 3e 4d 4c a0 bd 76 63 b7 3c 23 2a 24 3d
       0.13514887 -0.07827053 0.022386294 0.040079247
000320 9a 5f 99 bc 04 11 1a bd 25 de c5 3d 3c 97 af bd
       -0.018722344 -0.037613884 0.09661511 -0.085737675
000330 7c fa ea 3c af a8 79 3d 10 c6 4b bc 9e 9c c4 bd
       0.028683893 0.060951885 -0.0124373585 -0.09600185
000340 1d 25 bc 3d de e5 bd bd 32 70 ae bd 1b 50 83 bb
       0.09186766 -0.09272359 -0.08517493 -0.004007352
000350 26 28 62 be 61 70 58 bc 5d 3d 67 3d 22 12 1d bc
       -0.22085628 -0.013210387 0.056455005 -0.009586843
000360 39 ea a7 bd 7d a5 7d 3d 74 06 b7 bd f2 61 55 bd
       -0.08198971 0.0619254 -0.08936778 -0.05209536
000370 8f 5a 74 3d b6 79 49 3e 1d f7 37 3e e4 51 d2 bc
       0.059656676 0.19675335 0.1796536 -0.025673814
000380 27 18 8b 3d bd 58 88 bd a7 dd de 3d 0b 10 1e bd
       0.06791716 -0.066575505 0.108821206 -0.03858952
000390 a5 a6 1f be 03 fd 84 3d 09 15 b6 3d 68 c5 b2 bd
       -0.15590914 0.06493571 0.08890731 -0.087290585
0003a0 1a 18 04 bc d6 58 0d 3e 21 e7 1f be f7 d3 98 bd
       -0.008062387 0.1380342 -0.15615512 -0.07462304
0003b0 be b7 4a bd 8f b4 54 bd 34 f8 c3 3d 5c 1d 51 3d
       -0.049491636 -0.051930007 0.09568825 0.05105339
0003c0 18 cc 7a 3d c4 9b 20 be ac 51 d7 3d 18 c4 fe 3d
       0.061229795 -0.1568442 0.105136245 0.12439746
0003d0 74 fe 48 3d 32 3a 19 bd c0 95 09 3e 05 3f 1c 3e
       0.04907079 -0.037409015 0.13436031 0.15258415
0003e0 5a 7f d1 3d d0 e6 6b bd 5d 87 28 be 87 6c d9 bd
       0.102293685 -0.057593167 -0.16457887 -0.10616403
0003f0 55 30 15 be ea 4e 1a be 49 3e c0 bd d9 71 5c 3c
       -0.14569218 -0.15069166 -0.0938688 0.013454878

fc2.bias f4 [32]
000000 78 8d 5f 3e de 55 1d 3b 59 a9 7d bd 18 4c 56 be
       0.2183131 0.002400748 -0.06192908 -0.20927465
000010 82 8b 1a be 59 ae 57 be a2 d9 ec 3d ed e7 e1 bc
       -0.1509228 -0.21062602 0.11564948 -0.027576411
000020 27 8d af bd c4 18 f0 bc 87 9b bf 3d 7e f8 03 be
       -0.085718445 -0.029308684 0.09355836 -0.12887761
000030 4e 4c 19 3d d3 37 b4 bd 17 a5 30 bd e8 9e c5 bd
       0.037426285 -0.0879971 -0.043126192 -0.096494496
000040 bd 82 9d 3d 68 f4 95 3d 3e 5e 19 3e 62 c2 fd ba
       0.07690952 0.073220074 0.14977357 -0.0019360299
000050 82 8f 37 3d f7 89 b3 bd 27 18 3c 3d 3f 65 c7 bc
       0.044814594 -0.08766549 0.04592147 -0.02434027
000060 d8 c8 0b 3e f9 8d 21 bd ba df 09 be 4a 5a 01 be
       0.13650835 -0.039442036 -0.13464251 -0.12632099
000070 09 6b 29 bd 57 ac 29 bc 7f d4 d6 3d de d9 98 3d
       -0.041361842 -0.01035603 0.10489749 0.0746343

fc2a.weight f4 [32, 32]
000000 40 b7 db 3c 69 a2 0a be c8 1a 93 bd 8b 71 1d bd
       0.026820779 -0.13538517 -0.071828425 -0.03843836
000010 ad 03 7b 3c 05 c8 17 bc 32 62 54 bd 32 f7 a4 3b
       0.015320701 -0.009263997 -0.05185146 0.005034351
000020 e2 3f 45 bd b0 ce 4f bc 07 66 eb bc e9 1d ba 3c
       -0.048156627 -0.0126835555 -0.028735174 0.02271934
000030 d3 a7 5c 3d d9 53 97 be fa 89 68 3d 74 80 c6 bd
       0.053870987 -0.29556158 0.05677221 -0.09692469
000040 03 d5 a2 bd 23 9c fc bd 24 df c9 bd 50 d7 81 3d
       -0.07950785 -0.12334468 -0.09857014 0.06339896
000050 97 04 e6 3d bd f1 53 bd 2d b6 23 be 0b b4 b4 bb
       0.11231344 -0.05174421 -0.15987463 -0.005514627
000060 d5 b9 5c be 7e 4d d7 bc 8d 8e f4 bd 63 58 fb bd
       -0.21555264 -0.026282068 -0.11941252 -0.12272718
000070 54 61 05 3e d0 ad 61 bd 7c 96 cc bc 66 96 27 3e
       0.13025409 -0.0550974 -0.0249741 0.16365966
000080 bf 94 4f bc f4 b5 cd 3d 12 24 2f bd b7 ea fa 3d
       -0.012669741 0.100444704 -0.04275901 0.122517996
000090 ef 49 12 3d 40 0a b6 bd 07 67 e6 3d 56 f0 e9 bd
       0.03571504 -0.08888674 0.1125012 -0.114227936
0000a0 2c 1d 00 be 9d c3 b1 bd 20 3f c8 bb 46 67 34 3d
       -0.12511128 -0.086798884 -0.0061110407 0.0440438
0000b0 34 93 33 3e f1 f3 07 be 22 5a 31 3d dc 4a ed 3d
       0.17536622 -0.1327665 0.043298848 0.11586544
0000c0 4b 71 ef 3d 92 ea ac bd 93 f9 2a 3e f1 3a 30 3e
       0.11691531 -0.08443178 0.16696768 0.17209984
0000d0 d9 b9 c1 bd 68 1d 05 be 33 43 23 3e 2f 2a f7 bc
       -0.09459276 -0.12999499 0.15943603 -0.030171482
0000e0 03 ac c3 3d 37 16 94 3d 88 29 80 3e fe 95 83 bd
       0.09554293 0.072308 0.25031686 -0.06425093
0000f0 ee 50 4e be f9 9c d8 bc 93 31 18 bd f3 b7 d8 bd
       -0.2014806 -0.026442038 -0.037156653 -0.105819605
000100 48 14 00 3e 74 30 ba bd 95 e2 69 bd 43 d6 b2 3d
       0.12507737 -0.09091273 -0.05710085 0.087322734
000110 9b a1 34 3d 4f 1f 84 3d 0e b5 c4 bd 3e 09 dc bd
       0.04409943 0.06451284 -0.09604846 -0.1074395
000120 e7 d2 dd bd 3b 9f a6 3d cf c4 37 3e 64 46 f0 bd
       -0.10831242 0.081358396 0.1794617 -0.11732176
000130 ec 9c b0 3d 00 db 0a be 62 80 8c bd 5e f4 83 3d
       0.086236805 -0.13560104 -0.068604246 0.06443094
000140 b9 60 24 be 9f 73 fe 3d ff 41 85 3c ad 36 28 3e
       -0.16052522 0.12424397 0.016266821 0.16427107
000150 b2 f8 93 3d 3b df 36 3c 54 39 8b bd d5 2a 29 be
       0.07225169 0.011161621 -0.06798044 -0.16520245
000160 5b 05 b7 3d e3 66 29 be d3 3f 42 bd af 63 11 3e
       0.08936568 -0.16543154 -0.04742415 0.14198183
000170 01 2c bf bd 97 b7 f0 3d 93 af 02 3e 0b 75 ed bd
       -0.09334565 0.11753767 0.12762289 -0.1159459
000180 13 9f 7f 3e fd 74 3a bd d9 c0 79 3d 85 38 19 3e
       0.24963026 -0.045521725 0.06097493 0.14962967
000190 be cd 84 3d 68 14 69 be 50 6d e9 3d 32 82 e4 3d
       0.06484555 -0.2276169 0.11397803 0.11157645
0001a0 88 d4 dd 3d d8 2b 03 be 21 2e c1 bd 51 dc a8 bd
       0.10831553 -0.12809694 -0.094326265 -0.08245147
0001b0 9c c9 ef 3c 74 2a 00 3d b6 84 2c 3b d5 a6 a5 bc
       0.02927094 0.031290486 0.002632422 -0.020221153
0001c0 eb 67 98 3c 6e 11 33 be e3 47 40 3d a1 de f8 bd
       0.01860424 -0.17487118 0.046943557 -0.12151838
0001d0 ba 49 14 bd b1 b2 04 3d a3 3e 6c 3d c7 f1 1b bd
       -0.036203124 0.032396976 0.057676923 -0.038072374
0001e0 71 0a 34 3d e5 19 90 bd 63 4e 62 bd fb 07 39 be
       0.04395527 -0.07036189 -0.055250537 -0.1806945
0001f0 5a 68 36 3e ef 12 94 bc ec 45 92 bc 21 2c 2f 39
       0.17813244 -0.018075434 -0.017855607 0.0001670574
000200 79 a5 8a 3b 89 7a 96 bc 7d 75 09 be 63 c3 83 3c
       0.0042311517 -0.018368976 -0.13423724 0.016084379
000210 48 4c 82 3d 59 ec ca 3d c7 e4 ca bc 8e 92 45 3e
       0.06362206 0.09908361 -0.024767293 0.19294187
000220 4d a0 85 bd c6 1a db 3c e4 31 da 3d 6c 92 d5 bd
       -0.065247156 0.026746165 0.10654047 -0.104283184
000230 be 73 61 3d 37 5b 4d bc 58 cc a3 bd 8b 0e 1f be
       0.05504202 -0.012533954 -0.0799796 -0.15532891
000240 8e 40 76 bd 09 00 38 3d 7b d4 14 3e 6b f2 12 3d
       -0.060120158 0.04492191 0.1453418 0.03587572
000250 a9 75 3f 3e aa 44 24 3d df 23 f5 3c bd 7d b2 3c
       0.18697228 0.040104546 0.029924331 0.021788472
000260 bb 60 15 3c ff 15 76 bd a5 1a 2f bd 72 70 81 3d
       0.009117301 -0.06007957 -0.04275002 0.06320275
000270 2c d0 e0 bd e4 cd b9 bd ed 57 b3 3d 7d 43 23 be
       -0.10977206 -0.09072474 0.08757005 -0.15943713
000280 18 5f a3 bc f4 5d b9 3d b3 36 c9 bd db 8d 2a bd
       -0.019942805 0.09051123 -0.09824886 -0.04163919
000290 c3 39 f3 3d 3a 5d 64 3d be b8 b8 3d b2 5c 0f 3d
       0.118762515 0.05575297 0.09019612 0.03500051
0002a0 28 b7 8f 3d e4 f9 ac 3d f1 49 ec bd 04 63 4d 3d
       0.07017356 0.084461 -0.11537541 0.050143257
0002b0 d6 f4 ee 3d c0 94 65 3d 62 17 80 3d 73 24 b6 3c
       0.116677925 0.056050062 0.0625446 0.022234177
0002c0 8e 1f 1c be 62 42 da bd 1d 9c 93 3d b8 be 01 be
       -0.15246412 -0.10657193 0.072075106 -0.1267041
0002d0 76 1f b9 bd f4 43 f2 3d 2a 91 95 3b 79 26 99 3c
       -0.09039204 0.11829367 0.004564424 0.018695103
0002e0 25 b9 6d bd 5b 9e a2 bd 33 5e 97 3b 62 60 dc 3d
       -0.058037896 -0.0794036 0.0046193837 0.10760571
0002f0 76 2c 2a 3d 74 9f 7f bd 34 b8 20 3e ce 54 70 bc
       0.041546308 -0.062407926 0.15695268 -0.0146686565
000300 aa 65 ca bd 17 96 c9 bd b3 5f 6a 3c 8c 30 7e bc
       -0.09882672 -0.098430805 0.014305043 -0.015514504
000310 68 3b dd bd 30 3c 9b 3d 1b c4 14 be 8e 66 1c 3d
       -0.108023465 0.07579839 -0.14527933 0.03818374
000320 63 6d d8 bd 64 91 01 bd 95 23 9a 3d e2 91 38 3d
       -0.10567739 -0.031632796 0.07526318 0.045061
000330 0e 2c d4 bd e0 d1 d6 bd 21 25 af bd 44 8a a3 bd
       -0.10359965 -0.10489249 -0.08552004 -0.079853565
000340 dd 7e 74 3c 49 59 98 3d 1c 4d 48 3b 37 0d 12 3e
       0.014922825 0.07438905 0.003056354 0.14262854
000350 42 0b 67 bd 9f fa 48 bc 69 d3 94 bd 01 23 2a 3e
       -0.05640722 -0.012266784 -0.07266886 0.16614915
000360 aa 33 e5 bd a9 f9 de 3d be a3 9a bd 6e 20 eb bd
       -0.11191495 0.10887463 -0.075507626 -0.11480795
000370 fe 41 7b bd 85 c5 9e 3d ba 43 18 3d 0a c1 7f bd
       -0.061342232 0.077525176 0.037173964 -0.062439956
000380 12 16 19 be 17 7d 73 bc 21 e1 9a bd 79 4c 03 be
       -0.14949825 -0.014861367 -0.07562471 -0.12822141
000390 87 35 f8 bb f8 b8 06 3e fc d3 0b be 10 f8 0c 3e
       -0.0075747403 0.13156497 -0.13655084 0.13766503
0003a0 be 8d 8d bd bd c7 07 3e f9 e4 d1 bd dd 9a 24 bd
       -0.06911801 0.13259788 -0.10248751 -0.04018675
0003b0 93 b0 09 3d aa cb c7 bd a2 b3 0b 3d 75 c3 ab bd
       0.03361566 -0.09755643 0.034106858 -0.0838689
0003c0 2e df bc 3c 67 c7 e5 3d 06 7b cb 3d 4f 92 f9 3d
       0.02305564 0.112196736 0.09935574 0.12186109
0003d0 b1 10 01 3e 16 3b 3d 3d a0 8b 63 bd 8c 12 c8 3c
       0.12604024 0.046198927 -0.05555308 0.024422906
0003e0 6e f2 71 bd b0 f5 76 3d 2e 6b 40 3e 18 e3 97 bd
       -0.05906909 0.0602929 0.18790886 -0.074163616
0003f0 98 34 ff 3d 90 90 4d 3d 3e 01 ce bd 92 24 8a 3d
       0.12461203 0.050186694 -0.10058831 0.067452565

fc2a.bias f4 [32]
000000 49 36 b1 bd eb ab 51 ba 63 60 28 3d 6e eb 83 bd
       -0.08652932 -0.0007998335 0.041107547 -0.06441389
000010 6e 14 21 be 24 42 82 3d 75 ae 26 be 18 f0 a2 3d
       -0.1573045 0.063602716 -0.16277488 0.079559505
000020 03 57 a3 bc 68 01 19 3d 9d 8b 09 be 66 25 de 3c
       -0.019938951 0.037354857 -0.13432164 0.027117442
000030 d9 82 06 be 2a 03 ad 3d b4 64 f8 ba 8f ec 97 3d
       -0.13135852 0.08447869 -0.001895091 0.07418167
000040 f9 95 5c 3d b4 6c d4 3d 5f a9 00 bd ae 0d e7 3c
       0.053853963 0.10372296 -0.031411525 0.028204765
000050 aa a1 c2 3d 90 61 18 be d0 34 05 3e 93 0c 6f be
       0.09503491 -0.14880967 0.13008428 -0.2334464
000060 96 ea 05 3e 6d 1e 01 3e 6d e2 29 3e 67 a8 f8 bc
       0.13077769 0.12609263 0.16590281 -0.030353738
000070 11 ff 9a bb 90 bf 29 3d 0e e4 4f bd d2 47 c0 3c
       -0.0047301133 0.041442454 -0.0507546 0.023471747

fc2b.weight f4 [32, 32]
000000 08 b4 ca bd ad 0b 27 3d 75 20 97 3c 0d c8 85 bd
       -0.098976195 0.04078262 0.018448094 -0.06532297
000010 6d 2f 34 3e 7e c1 14 be 6f 35 11 be 06 cc 20 bd
       0.17596216 -0.14526936 -0.1418054 -0.039257072
000020 68 96 f4 3d d2 c3 b6 bd 97 c3 8e 3c 68 65 da 3c
       0.1194275 -0.089240685 0.017427249 0.026659682
000030 1d 21 3f bb f1 12 49 be 4b e3 e7 3c b6 b4 9f bb
       -0.0029164024 -0.19636132 0.028306624 -0.0048738373
000040 02 54 08 3e ca c3 e7 3d 04 c2 83 3d 5e 4e 13 bc
       0.13313296 0.11316641 0.0643349 -0.008990852
000050 e9 e3 04 bd c7 c1 5f ba db 31 06 be 1a 61 ed bd
       -0.032443915 -0.000853565 -0.13104956 -0.11590786
000060 9b 24 d7 bd a1 18 c5 bd 79 ef d5 bc 10 f9 8a 3c
       -0.10505029 -0.09623838 -0.026115166 0.016964465
000070 d5 1b 18 be 55 3d 33 3e a2 c3 88 bd f0 6f a5 bd
       -0.14854367 0.17503865 -0.06677939 -0.08077991
000080 da de 2a 3d b2 90 82 bd e4 a7 00 3e 2c f8 0f be
       0.041716434 -0.06375255 0.12564045 -0.14059514
000090 6e 4c 80 3d db 1a a5 3d 8b 68 03 be b2 b2 78 3d
       0.06264578 0.08061763 -0.12832849 0.060717292
0000a0 89 e5 aa 3d e0 32 b2 3d ff ba 0a 3b 96 d0 30 be
       0.083445616 0.0870111 0.0021168587 -0.17267069
0000b0 17 aa de bd dd db c2 bd 4f 9c 83 3c c4 d8 a8 3d
       -0.10872286 -0.09514592 0.016065745 0.0824447
0000c0 83 e5 b5 3d f6 54 07 3e ce 45 d1 3d c3 21 44 be
       0.088816665 0.13216004 0.10218392 -0.19153504
0000d0 79 8b 12 3e a4 c3 0e be 1a 2d a7 3d 91 3a 24 bc
       0.14311017 -0.13941818 0.08162899 -0.010023729
0000e0 56 17 3d bd 4e 21 05 3e f0 df 8a bd 92 b6 16 3d
       -0.046164833 0.13000986 -0.06780994 0.036795206
0000f0 66 ed 00 3d 31 0a fe 3d af 24 d2 3d 10 0a 37 3e
       0.0314764 0.124042876 0.10260903 0.17874932
000100 e8 e8 bc bd ef 25 53 3b 9e ba 62 bd dc 85 0e 3e
       -0.09224111 0.0032218655 -0.055353753 0.13918251
000110 9b 70 16 bd 71 c2 03 be de 50 93 bd d3 79 f7 3c
       -0.036728483 -0.12867142 -0.071931586 0.030209458
000120 9c c7 08 3e b8 d4 a5 3c 10 7f 5f 3d 8e da a8 bc
       0.13357395 0.020243034 0.054564536 -0.020612027
000130 5f 5d 5e bd b8 42 0b 3e 07 29 31 be 2b 25 ba bd
       -0.054288264 0.1359967 -0.17300807 -0.090891205
000140 78 11 29 3d 71 63 b4 bd af e5 61 bb aa 23 2d 3c
       0.041276425 -0.088080294 -0.0034469177 0.010567585
000150 88 8a d8 3c 9c 52 a4 bd c1 62 09 bd 76 d3 ef bd
       0.026433244 -0.08023569 -0.033541445 -0.11710255
000160 79 e0 e6 bc 80 f8 22 be 2a 83 35 bd 4d 07 e8 bd
       -0.028183209 -0.15915108 -0.04431454 -0.113295175
000170 c9 bb 11 3e 3a 44 aa 3d e4 6f d8 3d 13 3c 20 bd
       0.1423179 0.083137944 0.105682164 -0.03911979
000180 69 46 95 bd 1f 3c 04 3e ec 76 ed bd 25 10 ff 3c
       -0.0728882 0.1291356 -0.11594948 0.031135628
000190 4f 74 d1 3c f2 8d da 3d 98 a0 87 bc ad e8 19 be
       0.025568156 0.10671605 -0.01655607 -0.15030165
0001a0 46 09 ad 3c 8b 12 8d 3d 44 48 3c 3d 43 ca a3 3d
       0.021122586 0.068883024 0.045967355 0.07997563
0001b0 5d 1c fc 3c 3f 5c 76 bd 0f 73 bb bd c8 d6 9d 3c
       0.030775243 -0.060146566 -0.09152805 0.019267455
0001c0 75 68 27 be 03 58 8d bc 81 12 a6 bb 26 b0 21 3c
       -0.16348441 -0.017253881 -0.005068124 0.009868657
0001d0 c2 a8 4c 3e df c0 7f 3d de f4 b9 bd 41 1a c9 3d
       0.19986251 0.062439796 -0.09079908 0.09819461
0001e0 09 75 0f bd f0 56 2c 3e 34 28 1b 3e e2 95 54 bd
       -0.035023723 0.16830039 0.15152055 -0.051900752
0001f0 a1 7c 1f 3d 24 09 23 bd bf 5f 86 bd 2f 30 6c 3b
       0.038937215 -0.03980364 -0.06561231 0.0036039462
000200 fa 81 87 bd 71 ae fb 3c 2a 37 6c 3d 3f e0 88 3d
       -0.06616588 0.030722829 0.057669796 0.066833965
000210 59 60 26 be f8 72 09 3c aa 68 06 bc ea d3 c5 bd
       -0.16247691 0.008389227 -0.008203665 -0.0965956
000220 1c d3 ba bc 44 74 49 3d 9f 87 37 3c 24 7a f5 3d
       -0.022805743 0.049183145 0.011201768 0.11986187
000230 50 94 40 3e 29 96 8c 3c aa 7a 0a be 42 98 34 be
       0.18806577 0.017161446 -0.13523355 -0.17636207
000240 30 16 6f 3d d7 3f be bd 84 fa e5 3d 32 33 b1 3c
       0.05837077 -0.0928952 0.11229423 0.021630857
000250 83 7c 46 3d 76 aa bd 3d f7 01 0d bd 37 d6 ff 3a
       0.048458587 0.092610285 -0.034425702 0.0019518797
000260 b8 09 3d be ae ea 2b 3d ab f7 c7 bd 8e f3 d3 bd
       -0.18460739 0.041971855 -0.09764036 -0.10349189
000270 71 04 d6 3d eb d1 92 3d c9 53 99 3d ce 0d 12 3e
       0.10450066 0.07168945 0.07486684 0.14263079
000280 7f 4e 9e 3d 04 4a 59 3d e1 8f 8e 3d 06 5a e8 bd
       0.07729816 0.053049102 0.069610365 -0.113452956
000290 69 9b 20 be 9f 24 e1 3d fc dd c7 3d d1 5b 4a 3d
       -0.15684284 0.10993313 0.09759137 0.04940397
0002a0 08 74 8c bd 40 d7 03 be b1 e2 03 be 5a 3a 14 3e
       -0.06858069 -0.1287508 -0.12879445 0.14475384
0002b0 6d 65 f5 bd 59 89 e0 bd 71 ff 81 bd 63 68 e1 3d
       -0.11982236 -0.10963697 -0.0634755 0.11006238
0002c0 e5 98 42 be 70 e3 18 be 8f db c2 3d 32 e1 27 bd
       -0.19003637 -0.1493051 0.09514534 -0.040986247
0002d0 85 83 61 bc db 04 0e be 76 51 d7 bd 25 06 0c 3e
       -0.013764267 -0.1386904 -0.10513584 0.13674219
0002e0 ba 9d 00 3d 71 d5 0c 3e 42 52 05 bd 05 ec 87 3d
       0.03140042 0.13753296 -0.03254915 0.06636814
0002f0 9f e1 39 bd 52 21 bf bd a3 af 16 be 7d 51 74 3d
       -0.045381185 -0.09332527 -0.14715438 0.059648026
000300 cd fc 46 3b 67 5f 5b bd 20 37 8c bd 7c 5f 34 3c
       0.0030363083 -0.05355778 -0.06846452 0.011009093
000310 7f fd c8 3d d8 ce a2 bd 82 1c 9f 3d c8 fd f8 bd
       0.098139755 -0.079496086 0.07769109 -0.1215778
000320 fb 40 47 be c1 68 2f 3d 99 a8 c3 bd ef 49 d6 3d
       -0.19458382 0.04282451 -0.09553642 0.104633205
000330 70 1a ba 3c dd d4 9e 3d 0f bd 42 3d be 0d ef bd
       0.022717685 0.07755444 0.04754358 -0.11672543
000340 e6 e5 4e b9 28 4f 8b bd c9 1b 43 bd e6 8b 19 3d
       -0.00019731335 -0.06802207 -0.04763392 0.037486933
000350 a2 07 00 be 07 ce a5 bd 42 9f 16 3e ce 32 e6 3d
       -0.12502912 -0.08095937 0.1470919 0.11240159
000360 15 77 5d 3e f1 44 90 3d 23 24 14 3e 6f a3 fc 3d
       0.21627457 0.070443995 0.1446691 0.1233586
000370 9c eb 9c 3d 1c c1 b3 bd a6 7e 71 bd 3d 9a 8e bb
       0.076621264 -0.08777067 -0.058958672 -0.0043518827
000380 fd b7 01 be 95 e2 8f bd 8c 50 0b 3c 37 64 90 3d
       -0.12667842 -0.07025639 0.008503091 0.070503645
000390 fd a1 af 3d 58 4a ed 3d 6e 4c 65 bd e9 f6 49 be
       0.08575819 0.115864456 -0.055981092 -0.19723095
0003a0 05 00 b9 3d 0b db b1 bd 01 20 bc bd 77 98 c7 3c
       0.09033207 -0.08684357 -0.09185792 0.024364693
0003b0 ce 3f 0f 3e 7f e1 88 bc d4 1f 59 bd 28 6e ce bd
       0.13989183 -0.016709087 -0.05300887 -0.100796044
0003c0 3e d0 06 3e 21 98 b6 3b a4 da a7 bd eb c1 32 3d
       0.13165376 0.0055723344 -0.08195999 0.043641966
0003d0 bc 1a d4 3c 9f d1 23 3e 15 85 98 bd b7 11 5c bd
       0.025891654 0.15997933 -0.074472584 -0.05372783
0003e0 10 ec d6 3c 68 9f 7b 3d d2 85 bc 3b 78 29 61 bd
       0.02623561 0.06143132 0.0057532573 -0.05497119
0003f0 59 dd 83 bd 8a 9b fb bd 7b c7 a8 3d d6 19 87 3c
       -0.06438703 -0.12285526 0.08241173 0.016491812

fc2b.bias f4 [32]
000000 5e 1a 32 3d e4 46 95 bc 36 5c a3 bc 27 87 e4 3d
       0.043482177 -0.01822228 -0.01994143 0.11158591
000010 f0 5c f1 3a ab 1b 0d 3e 3c 50 d7 38 5d 37 38 be
       0.0018414538 0.13780086 0.00010266944 -0.1798987
000020 03 67 02 3d f3 c1 ce bc cb d4 88 3d 97 57 68 bd
       0.03183652 -0.025238967 0.06681212 -0.056724157
000030 ac 32 c8 3d 1a 6a ce bd 10 35 3f 3d 6b 09 0f be
       0.0977529 -0.10078831 0.046681464 -0.13968436
000040 69 7a ac 3d b4 55 cd 3b 2a 5e dd 3c f6 95 01 3e
       0.084217854 0.00626632 0.02702244 0.12654862
000050 15 a5 1c be fd 4f e5 3d 71 12 a7 3d dd 3c cd 3d
       -0.15297349 0.11196897 0.08157814 0.100213744
000060 61 e5 da bd 51 09 70 3d 1a c3 cf 3c 7f 87 8e bd
       -0.10688282 0.058602635 0.025361586 -0.069594376
000070 8b 1c d0 3d 45 c8 c4 bd 6f 0b 4a be 42 f1 ad bc
       0.10161694 -0.09608511 -0.19730924 -0.021233205

fc2c.weight f4 [32, 32]
000000 cb 5b c0 bd 77 11 28 3e 7e f1 47 3d 4a 02 28 3d
       -0.09392508 0.16412912 0.04881429 0.041017808
000010 51 58 9d 3d f3 81 ff 3d 2c 3e f9 3d c7 2a da 3d
       0.07682861 0.12475958 0.121700615 0.106526904
000020 06 86 df 3c 35 de 94 bb 55 db 0b 3e f1 1a 8e bd
       0.027285587 -0.0045430907 0.13657887 -0.069387324
000030 f1 2d f0 3d f2 32 e9 3d 67 06 09 be 8d 35 0f 3e
       0.11727513 0.1138667 -0.13381349 0.13985272
000040 d6 4f 46 3d 8c 53 83 bd 88 17 23 3e 4e c7 18 be
       0.04841598 -0.0641242 0.15926945 -0.14919779
000050 c2 c3 85 bb bf 32 a9 bc f0 6a bf 3d 26 fe 9e 3d
       -0.004082174 -0.02065408 0.093465686 0.07763319
000060 4b 0a 11 bb fd ca 3f 3d 03 f2 2d 3d a7 0c 1d be
       -0.002213138 0.046824444 0.04246713 -0.15336858
000070 71 e1 9f 3c 4c a8 39 3d 95 91 45 bd ff ef 17 be
       0.019516679 0.045326516 -0.04823454 -0.14837645
000080 0c 94 2e bd 4b d0 3e bb 94 6b fe 3d 4b 76 03 bd
       -0.042621657 -0.0029115852 0.12422863 -0.032095235
000090 7c f3 05 3e 3f 65 9c 3d bb 03 05 be 0b d2 02 bd
       0.13081163 0.07636499 -0.12989704 -0.031938594
0000a0 68 87 30 3d 59 7d 8b 3d 05 d4 51 bd 06 19 0e be
       0.043097883 0.068110175 -0.05122759 -0.13876733
0000b0 75 b3 42 be 5f 14 22 be a6 19 ca 3d b3 11 e7 bd
       -0.1901377 -0.15828083 0.09868173 -0.11282673
0000c0 9e b1 9c bd f8 02 29 be 8c 67 35 3b 3f f2 0f be
       -0.07651065 -0.16505039 0.0027680127 -0.14057253
0000d0 4c 3e df bc b2 ea fe bd 4e 1f ee bd 3d 11 62 bd
       -0.027251385 -0.12447108 -0.11627065 -0.05519222
0000e0 ac 4b 04 3e 1a 8c 15 3e 6f 92 11 bc 35 69 2a 3e
       0.12919492 0.14604226 -0.00888501 0.16641696
0000f0 20 78 29 3d 9b 85 02 be 06 83 3b 3d 41 fd 88 bc
       0.041374326 -0.12746279 0.04577925 -0.016722323
000100 4f a8 9d bd 54 b9 39 3e e1 4d 54 be 8b ae 0f 3e
       -0.07698118 0.18137103 -0.20732833 0.14031427
000110 f8 a3 97 3d be 64 4b 3e c4 6c dc 3d 42 7d 16 be
       0.074043214 0.19862649 0.10762933 -0.1469622
000120 8a 84 03 3e b9 2b cf bd d8 14 b2 bd e2 91 96 bd
       0.12843528 -0.10115761 -0.08695382 -0.07352044
000130 45 55 de bb f0 0e b0 bc 31 28 ca bd c6 27 db bc
       -0.0067850673 -0.021491498 -0.09870947 -0.026752364
000140 b7 4e 0a bd 50 1f c1 3d 6b de f1 bc c3 55 79 3d
       -0.033766475 0.094298005 -0.029525002 0.060872804
000150 b0 a9 1c 3e f8 d1 92 bd 92 c3 af bd 6a bf 12 be
       0.15299106 -0.071689546 -0.08582224 -0.14330831
000160 7b b8 ec 3c fc 67 07 3e e9 72 a3 3d c0 cf d3 bd
       0.02889656 0.1322326 0.07980902 -0.103423595
000170 8b 53 07 bd 28 5c b7 3c d6 b1 0a be 8a 42 06 bd
       -0.033038657 0.02238281 -0.13544402 -0.0327783
000180 5d 41 b2 3d 7b 37 ba 3b cb bb c1 bc db 63 64 bd
       0.08703873 0.0056828833 -0.023649117 -0.055759292
000190 89 66 b0 3d 0c 57 1a be 6b f0 f8 bc fb 26 4d bd
       0.08613307 -0.15072268 -0.030388078 -0.050086003
0001a0 1c 35 75 bd 48 f3 b5 3d f8 87 1e 3d e8 0e b7 bd
       -0.059865102 0.08884293 0.03870389 -0.0893839
0001b0 a2 f7 87 3c a7 fd bc bd 65 c2 98 3c 74 55 a2 3d
       0.016597573 -0.09228068 0.018647382 0.07926455
0001c0 6e b6 98 3c 75 0f 06 3e 82 07 75 3e 0b f3 03 3d
       0.018641677 0.13091834 0.23928645 0.032214206
0001d0 52 e5 9f 3d 43 13 3e 3d d2 fd 56 bd d8 47 ab 3d
       0.07807411 0.04640509 -0.052488156 0.083633125
0001e0 93 d2 05 3e b6 85 eb 3a 00 e0 0d 3d ed a8 89 bd
       0.13068609 0.0017968926 0.03463745 -0.06721673
0001f0 0d 69 f5 3d 8a 69 c3 3d 7a 65 cb 3d fd 67 68 bc
       0.119829275 0.09541614 0.099314645 -0.014184949
000200 27 28 be bd 05 a5 4d bd 61 45 ba bd 8b 33 26 bc
       -0.09285002 -0.050206203 -0.09095264 -0.010144125
000210 71 e5 6a bd e3 8d c0 bd cc 1d 0e be 6c 9a 26 3e
       -0.05734772 -0.09402063 -0.13878554 0.16269845
000220 07 35 a1 3b 82 94 b3 3d 6b 8c 76 3d 4d 36 bf bd
       0.0049196514 0.0876856 0.060192507 -0.09336529
000230 21 f3 31 be 58 b7 d5 3d 2c 8a 28 bc c5 3a dd 3d
       -0.17377903 0.10435361 -0.010286849 0.10802225
000240 92 4c bb 3d 28 38 1f 3e 0d 08 2d be e5 a2 28 3e
       0.09145464 0.15548766 -0.16897602 0.1646839
000250 c5 15 b7 3d b0 e5 19 3d 00 3e 6b 3c e5 57 22 3e
       0.08939699 0.037572563 0.014358044 0.15853842
000260 47 a3 c5 bd 2a be 9a 3c e9 46 17 3e 34 63 28 bc
       -0.09650283 0.018889505 0.14773144 -0.010277558
000270 2e 3a 77 bd 5f ba c3 3d cf d2 6e 3d ce 35 24 3d
       -0.06035822 0.09557032 0.05830651 0.040090375
000280 48 7e f8 3c 48 d4 e0 3d d3 70 b3 3d 31 02 b0 3d
       0.030333653 0.109779894 0.08761754 0.08594168
000290 c0 69 14 3e 4a c5 1e bd a9 49 94 3d d4 88 fa bc
       0.14493465 -0.03876237 0.07240612 -0.030582823
0002a0 c3 11 a8 3d 17 19 e2 bd dd 91 8c bc 90 f4 7b bd
       0.08206513 -0.11039942 -0.017159397 -0.06151253
0002b0 81 5f 02 be 6b 3f a9 b9 b5 fc 28 3e 81 d5 6d bc
       -0.12731744 -0.00032281442 0.1650265 -0.014516235
0002c0 bd 40 31 be 35 db 2a bd 02 39 82 3c 27 ab 8e 3e
       -0.17309852 -0.04171296 0.015896324 0.27864954
0002d0 4f a3 ab 3d 88 57 02 3e ff 47 f2 3c f9 58 a8 3d
       0.08380758 0.12728703 0.029575346 0.08220095
0002e0 74 d4 95 bc 54 95 36 bd 5c 4e 9c bd c4 bf 38 bd
       -0.018289782 -0.044576004 -0.07632133 -0.045104757
0002f0 99 26 36 3e 1c 03 a2 3d 9f 3d cb bc 97 f2 f5 bd
       0.17788161 0.07910749 -0.024809657 -0.12009161
000300 eb 8d 32 3d 1c 55 25 be 96 60 24 3d e9 34 fb 3d
       0.043592375 -0.16145748 0.040131174 0.12265951
000310 25 27 29 be 71 99 ec 3c 0d c5 fe 3d 84 dc bf 3c
       -0.16518839 0.02888176 0.12439928 0.02342058
000320 8d 05 8e 3d 2e bf 40 bd ae ff 12 be 54 2b 5b be
       0.069346525 -0.047057323 -0.14355347 -0.21403247
000330 c0 68 04 be 9a af 20 3e 39 f2 fd bd 08 e3 c3 bd
       -0.12930584 0.15691987 -0.12399716 -0.09564787
000340 74 db 4f bb 24 59 01 be dc 6d cf bd 61 78 46 3b
       -0.0031716498 -0.1263166 -0.10128376 0.0030284154
000350 1a a4 a0 bd cf fa 95 3d 9a ac d2 bd 71 d4 f5 bd
       -0.078438 0.073232286 -0.102868274 -0.120034106
000360 ae 91 28 3e 90 73 c0 bd 9c a8 e5 bb 02 4e 00 be
       0.16461822 -0.09397042 -0.007008625 -0.12529758
000370 a6 fc 43 3d ba 27 c9 bd 12 2a 47 3d 7e ef be bb
       0.047848366 -0.0982203 0.048624106 -0.0058268895
000380 7a ca fa 3c f5 d5 60 3d ec 0f 3c be 31 12 62 bd
       0.030614126 0.054891545 -0.18365449 -0.05519313
000390 8c cc 1c be 96 a1 04 3e 3b 5c 54 3c 7a 02 c9 bd
       -0.15312403 0.12952265 0.012961443 -0.098149255
0003a0 f9 22 eb ba 0e 2c 1b be 38 0b c1 3d f8 c4 2e 3e
       -0.00179395 -0.15153524 0.09425968 0.17067325
0003b0 02 9d 67 3e f8 e4 bc ba fb d2 c2 3d b8 6c 8a 3d
       0.22618487 -0.00144115 0.095128976 0.06759018
0003c0 af 7c c1 3d 2d 71 21 3e 2b 95 f5 3d 38 89 15 3e
       0.0944761 0.1576583 0.11991342 0.14603126
0003d0 26 cb 25 bd 73 da f9 3d b4 55 46 3d b8 c7 0f 3e
       -0.04047694 0.12199869 0.048421577 0.1404103
0003e0 37 48 00 bd 40 f9 a6 bd 80 0a 1b be 2a b4 0c 3e
       -0.03131887 -0.081530094 -0.15140724 0.13740602
0003f0 92 fa 54 bd ea d3 12 3e d2 3b 1f be c7 71 b3 bd
       -0.051996775 0.14338651 -0.15550163 -0.08761936

fc2c.bias f4 [32]
000000 83 55 15 3d 8b c3 89 3d aa 22 a1 bc 44 e0 02 bd
       0.036458503 0.0672675 -0.01966985 -0.031952158
000010 48 16 80 3d 7a 03 73 bc c8 c0 02 be a2 70 a2 bd
       0.0625425 -0.014832372 -0.12768853 -0.07931639
000020 01 b9 60 3d f3 18 bd bd 2e 43 8b 3b ab 56 23 be
       0.054863933 -0.09233274 0.004249952 -0.1595103
000030 31 9e 23 3e 18 00 c9 3b 4e 41 f2 bd e0 b5 0d bd
       0.15978314 0.0061340444 -0.11828862 -0.034597278
000040 d1 fa 5c 3d 27 dc b8 3d ee ea 93 bc 2c b0 c6 3d
       0.053950135 0.09026366 -0.01805636 0.09701571
000050 ee e1 e3 bc f0 c9 00 3d 63 22 46 bd cf 1d 7e bd
       -0.027817693 0.031442583 -0.048372637 -0.062040146
000060 63 c5 9e 3c 2d 47 1e bc 06 5c e9 3d 78 d5 ba 3d
       0.01938123 -0.009660524 0.11394505 0.09122747
000070 7f 04 27 3e 02 0d b2 3c 39 e4 18 3e 66 6e 8d bd
       0.16310309 0.021734718 0.1493081 -0.069058225

fc2d.weight f4 [32, 32]
000000 5c 29 df 3d 55 a6 93 3d 06 da 4f bb 58 3a f4 3d
       0.108965605 0.0720946 -0.0031715645 0.11925191
000010 8a 98 8b 3a fa 7d 8c bd fd 13 a9 bc 88 32 30 be
       0.0010650319 -0.068599656 -0.020639414 -0.17206776
000020 6f 91 7a bd ac 34 9f 3c 5a 79 e8 3d dd a3 75 3d
       -0.061173853 0.019434296 0.11351271 0.059970725
000030 18 4f d4 3d 84 82 1d bd f7 b4 6f bd 99 b7 e1 bd
       0.103666484 -0.038454548 -0.05852219 -0.110213466
000040 00 78 c9 bd 94 96 8a bd 6a f1 3b 3d 33 74 56 3e
       -0.09837341 -0.06767002 0.045884527 0.20942764
000050 df 7d a4 3c b0 16 20 bb 4e c3 47 bd 72 78 91 bd
       0.020079551 -0.0024427585 -0.04877024 -0.07103051
000060 df 89 06 bd e0 a5 29 3e 0a 68 8a 3d 54 34 64 3b
       -0.032846328 0.16567183 0.06758125 0.003482123
000070 f3 5d b2 bd 85 7b 04 be 54 ec dd bd 0b 12 de bd
       -0.08709326 -0.12937744 -0.10836092 -0.10843285
000080 86 0c 00 bd 00 fa 14 3e 28 b0 a3 bd 37 ed b2 3d
       -0.031261943 0.14548492 -0.079925835 0.087366514
000090 2c 95 19 3d 08 e5 6b 3d ef 98 f6 bd 00 66 be 3d
       0.037495777 0.057591468 -0.120408885 0.09296799
0000a0 a5 f4 c5 bd ae 8c 7f 3d e8 36 55 3d 49 cb b0 3b
       -0.09665803 0.062390022 0.052054316 0.005395327
0000b0 d6 8b 7f 3d 76 48 99 3d 40 fb 48 3d 80 98 73 bd
       0.062389217 0.07484524 0.049067736 -0.059471607
0000c0 c9 a2 66 3d 9c 21 c2 bc df 5d 2b be 16 64 f6 bd
       0.056307588 -0.023697667 -0.16735028 -0.12030809
0000d0 d2 db d4 bd f5 82 d6 bc 2b 7b 1b 3e 78 76 d7 bd
       -0.1039349 -0.026185492 0.15183704 -0.10520643
0000e0 9e c5 1e 3e 65 86 62 3d ba b3 90 bd 9f cf f1 bd
       0.15505072 0.05530395 -0.0706553 -0.11807179
0000f0 44 78 fa 3d d8 cd e9 bd 87 31 de bd 17 06 08 be
       0.1222997 -0.11416215 -0.1084929 -0.13283573
000100 47 f2 f4 bc 4c 3e 79 bd 43 f3 09 3e 97 b5 ce bd
       -0.029900683 -0.060850427 0.13471703 -0.10093229
000110 c7 34 82 bc 3c 64 01 be b6 1e a1 bd 16 3c 20 be
       -0.015894307 -0.12635893 -0.07867186 -0.15647921
000120 f6 ff 16 3e b0 90 b1 bd 4b fc 2a bd b6 5c 29 be
       0.14746079 -0.08670175 -0.04174451 -0.16539273
000130 6d 64 9c 3a 20 c1 e1 3d a3 f8 82 3c d0 89 23 3d
       0.0011931785 0.11023164 0.0159877 0.03992635
000140 7b 7c 1b bd 53 f0 fa bd 02 d2 e7 3d 17 21 9e bd
       -0.03796051 -0.122528695 0.11319353 -0.07721155
000150 85 2f 16 3e 31 bb 91 bd ff 2a 6e bd f2 9d 0f 3d
       0.14666565 -0.07115782 -0.058146473 0.035062738
000160 b7 28 f1 3d 91 7a 55 bd de 51 2b bd 95 88 90 3d
       0.11775344 -0.05211884 -0.04182612 0.07057301
000170 6b 3a 6e 3d 88 99 c2 3d 65 d5 36 bd 51 e9 ff bc
       0.05816118 0.0950194 -0.044637103 -0.031239184
000180 36 75 b2 3d 68 39 14 be d4 48 7d 3b db 1b 12 3c
       0.087137625 -0.14475024 0.0038648145 0.008917774
000190 f2 98 74 bd 78 70 0f 3e 0a f3 b3 bd 72 60 12 be
       -0.059716173 0.14007747 -0.087865904 -0.14294603
0001a0 c7 ea 74 bd a5 c8 e4 bc 94 c2 27 be 15 68 18 3e
       -0.059794214 -0.027927706 -0.1638282 0.14883454
0001b0 1b 38 46 3d 77 73 37 be 16 ff 40 3c 29 7f e9 bd
       0.04839335 -0.1791514 0.011779567 -0.11401207
0001c0 be 9a 12 3d 26 5f b8 3d 20 90 04 3d 1b 0a 07 3e
       0.035792105 0.09002523 0.03236401 0.13187449
0001d0 0e fd 18 bd 60 bc ac 3d 02 b8 87 bc b4 7f de bd
       -0.037350707 0.08434367 -0.016567234 -0.10864201
0001e0 73 d7 05 3b 46 a6 2f 3d 55 9a c7 bd ee 68 3a 3c
       0.0020422607 0.04288318 -0.097462334 0.011377556
0001f0 48 01 e0 bc 28 52 d5 bd 13 bc 89 3d 13 b0 07 be
       -0.027344361 -0.10416061 0.067253254 -0.1325076
000200 d4 70 01 bc ec b5 d2 3d 7d 55 66 3d c3 0d 14 3e
       -0.0079004355 0.10288605 0.05623387 0.14458375
000210 50 59 c2 bc d1 cf e9 bc 3e a3 ed 3d 33 e2 cf 3b
       -0.023724228 -0.028541477 0.116034016 0.0063441037
000220 e0 0d 44 bd a7 a5 ae 3d 0c 70 68 3d e2 61 9e bc
       -0.047864795 0.085276894 0.05674748 -0.019333784
000230 e2 64 d9 bb 09 f8 b8 3d ec 42 e1 bd d6 fd f2 bd
       -0.0066343406 0.09031684 -0.109990925 -0.118648216
000240 09 e3 d7 bd 6c 6e 8d 3d 4f b3 10 3e 7f d2 23 3d
       -0.105413504 0.06905827 0.14130901 0.039995667
000250 8b 7a 2e be 74 45 06 be 87 39 c9 bd 9a 71 00 3d
       -0.17038934 -0.13112432 -0.098254256 0.03135834
000260 b3 39 0e be 5f 47 5f bd 9f d4 93 3d 53 4e 0e be
       -0.13889198 -0.054511424 0.07218289 -0.13897066
000270 d9 3f bc bb cc 38 30 39 58 7f 9f 3d 11 27 ea bd
       -0.005744916 0.00016805826 0.07787961 -0.114332326
000280 89 97 26 3e ec 00 cf bd 0a 9c f5 bc cc 16 56 3c
       0.16268744 -0.10107598 -0.029981632 0.013066959
000290 b9 0e d9 3d 8d 89 52 bd 73 cd 91 3d 67 51 91 bc
       0.10598511 -0.05140071 0.071192645 -0.017739011
0002a0 c9 81 bd bc 9b 4e 3d 3c 70 d3 e4 bd 43 3d 34 3b
       -0.023133175 0.011554386 -0.11173141 0.0027502335
0002b0 12 48 e1 3c 49 bc 33 3d 2e 81 44 bd aa ba f0 3d
       0.027500186 0.043880735 -0.047974758 0.11754353
0002c0 18 6e 21 be 41 44 d2 bd 11 96 d5 bd 26 80 03 3d
       -0.15764654 -0.10266925 -0.104290135 0.032104634
0002d0 c8 b4 a3 bb 06 b6 cb bd 94 6b e8 3d 2f 85 9c 3d
       -0.004995916 -0.099468276 0.11348644 0.0764259
0002e0 f2 f9 45 be 9c 6e 16 3d 31 7d d8 bd 9b 14 79 bd
       -0.19333628 0.03672658 -0.10570753 -0.060810667
0002f0 6d 39 f1 bd 69 cb 3e 3d 16 41 b3 3d 1c 48 08 3d
       -0.11778531 0.046580706 0.087526485 0.033271894
000300 65 82 d0 bd e1 22 4f bd dc 85 6b 3e ed f7 9c bc
       -0.10181121 -0.050570372 0.23000282 -0.019161189
000310 8f 0f bf bd da 71 5b 3d ed 58 15 bd 12 b7 fe bd
       -0.093291394 0.053575374 -0.03646176 -0.12437262
000320 34 9b e4 3b 2f 5f 0e 3e 89 1f 04 3d 4c 90 d2 bd
       0.0069765095 0.13903497 0.032256637 -0.10281429
000330 96 42 fa 3d b1 fe cf bd 21 3c da bd 49 cd 7e bc
       0.122197315 -0.101560004 -0.10656 -0.0155518735
000340 47 9a 31 3e 81 bc 2c bd 1c ea 88 3d 88 98 89 3d
       0.17344008 -0.04217196 0.06685278 0.06718546
000350 4e c8 a4 bd 65 19 24 3e ce f9 17 3b e6 98 bd bd
       -0.080460176 0.16025312 0.0023189667 -0.09257679
000360 4b d4 97 3b 59 e5 d7 3d 94 71 c0 bd 6b da 0b 3e
       0.0046334616 0.105417915 -0.09396663 0.13657539
000370 8a 18 43 3c 60 e0 78 bd c6 9c 71 3d 00 fb 03 3e
       0.011907706 -0.060760856 0.0589874 0.12888718
000380 90 74 d7 3d 25 84 0f 3e bf 36 11 be b1 1a 85 bc
       0.105202794 0.14015253 -0.1418104 -0.016248079
000390 e3 b2 4c be f3 cc ec 3c 07 3a ff bc b2 83 53 3e
       -0.19990115 0.028906321 -0.0311556 0.20655707
0003a0 54 ed 4c 3e c2 06 b3 bd 2f d7 3b bd b1 02 11 be
       0.20012408 -0.08741523 -0.045859512 -0.14161183
0003b0 97 b1 7b 3d 79 8a 85 3c e9 ec 4a 3d 13 44 6f bd
       0.06144866 0.01630138 0.04954234 -0.05841453
0003c0 e3 98 2e be 5c 92 13 3e 86 0d d2 bd 30 d7 38 bc
       -0.17050509 0.144113 -0.10256486 -0.011281773
0003d0 b6 b0 32 3d 99 38 54 3c 22 40 0c bd 0c 55 1e 3e
       0.043625556 0.012952947 -0.03424085 0.1546213
0003e0 d3 53 45 bd e4 8c e5 bd ac dc ba 3c 50 05 a2 bc
       -0.048175644 -0.112085134 0.022810303 -0.019777924
0003f0 f2 41 1f 3e 9c b6 d0 bd 07 fc 1b 3d 61 51 93 bd
       0.155525 -0.1019108 0.03808215 -0.07193256

fc2d.bias f4 [32]
000000 77 0a 14 3e cc 19 f5 bd 68 c0 83 bc 55 d8 20 be
       0.14457117 -0.11967811 -0.016082957 -0.15707524
000010 86 9e 81 bd 16 72 e6 bd 38 27 7c bd 58 d5 31 3e
       -0.06329064 -0.11252229 -0.06156084 0.1736654
000020 dd ad af 3d 5a 48 c8 bc 46 f8 8b 3d 68 2a f7 3d
       0.08578084 -0.024448562 0.06834464 0.12068635
000030 15 60 ef 3d 35 43 c6 bd 2e 9d 86 3d da 88 10 3e
       0.11688248 -0.096807875 0.065729484 0.14114705
000040 ec c9 41 bd 5f 2e 99 3d 53 40 1d bc c7 5b fd 3c
       -0.04731171 0.07479548 -0.009597856 0.030927552
000050 18 ad e8 3d 57 51 bb bd b4 50 b2 3d 00 af 15 be
       0.1136114 -0.09146374 0.08706799 -0.14617538
000060 6f cc d1 bd 96 5a 88 3d 37 e6 c5 bd 4b 78 ab bd
       -0.10244071 0.06657903 -0.096630506 -0.083725534
000070 42 bc 01 3d 10 b8 15 b9 c2 72 1f bc 87 c0 ab 3d
       0.031673677 -0.00014278316 -0.00973195 0.08386331

fc2e.weight f4 [32, 32]
000000 86 73 99 3d 25 cc 1a 3e 74 5e c8 3d cc 2d ca 3d
       0.074927375 0.15116937 0.097836405 0.09872016
000010 8d ab b7 bc 33 37 ad bd da b7 22 bd 28 7a f0 bd
       -0.022420669 -0.08457794 -0.039726116 -0.117420495
000020 a4 14 e0 3d 11 c1 11 3e 90 f0 15 3d 16 a1 85 3d
       0.10941437 0.14233805 0.03660637 0.06524865
000030 44 31 52 3d a9 b8 86 3d 94 e4 0f 3d 39 c8 e4 3c
       0.051316515 0.0657819 0.0351301 0.027927505
000040 1e 44 aa 3d 70 5c 5b 3c c7 cb 39 3e 25 89 e2 ba
       0.083137736 0.013388738 0.18144141 -0.0017283304
000050 1f c4 8b bd ba e1 aa bd b1 3d f2 bd e6 0d 43 bc
       -0.068245165 -0.08343835 -0.11828173 -0.011905169
000060 0e 55 41 3e 02 7d b2 3c a1 1d 18 3e 16 47 20 bc
       0.18880102 0.021788124 0.14855053 -0.009782573
000070 5c d1 72 3c 05 b3 b4 3d 3b cf b9 3d b9 35 ec bd
       0.014820423 0.08823208 0.09072729 -0.11533684
000080 68 fc cd 3d 9d d6 8a bd 68 a4 87 bc 94 dc d2 3d
       0.10057908 -0.067792155 -0.016557887 0.10295978
000090 8a ce b8 bd 52 31 02 bd e7 33 57 3d ca bb e2 3d
       -0.09023769 -0.031785317 0.052539732 0.11070974
0000a0 7d 04 4f bd 6f 9b 0f bc 3d 06 7b 3c 65 ca 72 3d
       -0.05054139 -0.008765086 0.015321312 0.05927505
0000b0 ae e8 1f 3e 03 8b 53 3c 3b b0 0d bd b9 18 ba 3d
       0.15616104 0.012911561 -0.034591895 0.09086747
0000c0 4f e8 c0 3d c1 93 82 bd f1 49 ba bd 9d 78 f2 bd
       0.09419309 -0.06375838 -0.090961345 -0.118394114
0000d0 a7 94 4b 3e 4b 2e 72 3d 0d 56 e0 3d 08 ba ff 3d
       0.19880925 0.05912618 0.10953913 0.124866545
0000e0 37 89 0b bd 75 5f 44 be 9e 0b 87 bc 91 7f ef bd
       -0.034066405 -0.19177039 -0.016485032 -0.11694253
0000f0 21 c9 69 bc 2c 6e c7 3d 7d f5 a6 bd 28 a9 2c be
       -0.014269144 0.097378105 -0.08152292 -0.16861403
000100 d3 12 9d 3d 66 cc 21 3e 62 97 e5 bd 4f 43 28 3e
       0.07669606 0.15800628 -0.112105146 0.16431926
000110 1f 28 88 3c 77 f3 0a be 73 37 04 3e f7 ca df bd
       0.016620694 -0.13569437 0.12911777 -0.10927384
000120 9b b0 3d bd 9f 0f eb bd 0f e6 5d 3d d4 0f 3e 3d
       -0.046311002 -0.11477589 0.05417448 0.046401814
000130 8f 3e 09 3e 0b c4 7a 3d 14 f3 8c bd a9 8e 0f be
       0.1340277 0.061222117 -0.06882301 -0.14019264
000140 46 9e 09 be 10 22 27 3e 50 8e 0d bd 3c b3 83 3d
       -0.13439283 0.16321588 -0.034559548 0.064306706
000150 2b 15 1b 3c f9 91 8b bd 2a 2e 04 be b9 42 56 3d
       0.009465496 -0.068149514 -0.12908235 0.052309725
000160 69 57 c2 bc 2e 4d cc bd 5d ef 9c bb 40 92 1f be
       -0.023723321 -0.09975658 -0.0047892765 -0.15583134
000170 d1 40 fd 3d a3 c6 e3 bd 11 e9 9f bd 6e 68 fa bd
       0.123658784 -0.11121871 -0.07808126 -0.1222695
000180 95 d0 23 be 2e f2 91 3d fa c5 10 3e 73 64 11 3d
       -0.15997536 0.0712627 0.14138022 0.035496186
000190 7f ad eb bd 52 5e b8 bb 91 41 3a 3e 33 cb 8e bd
       -0.11507701 -0.005626478 0.18189074 -0.06972351
0001a0 11 45 31 3d 4a 78 9e 3d 1e fd a2 bd 49 2c 19 3e
       0.043278757 0.07737787 -0.079584345 0.149583
0001b0 ef 04 19 3d 9b e9 09 be 50 91 19 be 47 78 ae 3d
       0.03735822 -0.1346802 -0.14996839 0.08519035
0001c0 11 80 6f bd 01 f9 55 3e 88 6a 52 3c 45 84 34 3e
       -0.058471743 0.20895769 0.012842782 0.17628582
0001d0 bd 0d eb bd 38 f2 e0 bb 68 86 3c 3c ad fd 61 bd
       -0.1147723 -0.006864812 0.011506654 -0.055173565
0001e0 71 98 fe 3d 66 8a 2b bd 4e 23 07 be 72 3a ac 3d
       0.1243142 -0.041880034 -0.13197061 0.08409585
0001f0 49 40 45 bc 51 cf 29 3e f7 e3 92 3d 0c 69 b4 3d
       -0.012039253 0.16582991 0.07172387 0.088090986
000200 98 bf 11 3e 86 28 1d 3e c7 87 70 3d 1d 85 1d be
       0.14233243 0.1534749 0.058723237 -0.1538281
000210 0e 48 f3 3d 9d 3d 50 bb 92 b8 0e be 9d a5 3a 3e
       0.11878978 -0.0031775006 -0.13937595 0.18227239
000220 8c 08 d3 3d 4b 17 8a 3d b9 37 13 3d d0 47 01 be
       0.103043646 0.06742724 0.035941813 -0.1262505
000230 46 11 88 3c d3 3a da 3d 95 00 1a bd 10 b5 16 3e
       0.0166098 0.10655751 -0.03759821 0.14717507
000240 11 e3 27 3d fd 98 2a 3e 4a 84 27 bd e4 56 ec 3d
       0.04098803 0.16659923 -0.040897645 0.115400106
000250 bd ff 84 3d 5c 47 40 bd 61 8e c1 bc 86 7a 8a 3d
       0.06494091 -0.046943054 -0.023627462 0.06761651
000260 66 67 27 be 19 0b e9 bc 39 e1 01 3d cf b0 ba 3d
       -0.16348037 -0.028447675 0.03170893 0.09115755
000270 78 b4 b5 3d c4 73 78 3d c1 28 c4 bd de 96 c5 3d
       0.08872312 0.060657278 -0.09578086 0.09647916
000280 ae 8b d0 3d 08 28 0f be 97 62 10 3d 7d 7d d7 bd
       0.10182892 -0.13980114 0.035250273 -0.10521982
000290 73 ba d1 3c cb 96 8b bb 09 c8 a9 bc 89 ab be bd
       0.025601601 -0.0042599193 -0.020725267 -0.093100615
0002a0 07 3f 90 3c 90 88 a0 3d 8f 32 dd 3c e3 d3 7d 3c
       0.017608179 0.07838547 0.027001647 0.015492412
0002b0 c0 7a 1d be 94 e4 be 3d 2b de 7e 3d df d0 ca bd
       -0.15378857 0.093209416 0.062223595 -0.0990312
0002c0 71 d1 1f be c0 7b 4f 3d f3 2d ea bd 7a 77 00 3e
       -0.1560724 0.050655127 -0.11434545 0.12545577
0002d0 f0 0e f1 bc 81 f7 35 3d b2 3e 0c be ae 7c a1 3c
       -0.029426068 0.04442549 -0.13695791 0.019712772
0002e0 b1 ea 20 3e dd f4 86 3d d1 c1 05 bd 42 b7 1d 3e
       0.15714528 0.06589673 -0.03265554 0.15401939
0002f0 3c 16 c2 bd 73 4b 46 bc 74 8d 2f bd 4c 8a cf 3d
       -0.09476897 -0.012102949 -0.04285951 0.101338
000300 c8 44 50 bd 80 47 54 3c 01 d7 05 3e 27 61 ac bd
       -0.050846845 0.0129565 0.13070299 -0.08416968
000310 66 fa 49 3d 27 9f 3d be 11 13 9a bc 98 8a 86 3d
       0.049311064 -0.18517743 -0.01880792 0.065694034
000320 d6 3f 80 3c 2f d8 75 bb 30 a6 c8 3c 5e 76 e7 bc
       0.01565544 -0.0037512889 0.024493307 -0.028254684
000330 b7 0d df 3d 90 f2 35 3d cb 1f 36 be cb be 35 be
       0.10891288 0.04442078 -0.17785566 -0.17748563
000340 84 e9 c0 bd 8e f3 9f 3d 3f f5 09 3c d7 48 10 be
       -0.094195396 0.07810126 0.008420288 -0.14090286
000350 9d 95 58 3e 35 34 f3 3d 98 13 dc bd 65 4a 69 3d
       0.21150823 0.11875192 -0.10745925 0.056955714
000360 ae 92 b1 3c 90 e4 c8 3c 03 de 03 be 05 ba ba 3d
       0.021676388 0.02452305 -0.1287766 0.09117512
000370 d1 32 9b 3d 48 4b 34 bd 94 79 de 3d 0a 74 45 be
       0.07578052 -0.044017106 0.10863033 -0.19282547
000380 9d 64 ef 3b 43 a7 fe 3d 1b 74 8d be 40 be 07 be
       0.007305695 0.124342464 -0.27627644 -0.13256168
000390 a3 6a c8 3d 0b fe 66 3d 88 5c 88 bd ca a2 a3 3d
       0.09785964 0.056394618 -0.06658274 0.07990034
0003a0 35 ef 01 3d 84 39 d6 bd 2d 35 84 3d 63 24 21 bd
       0.031722266 -0.10460189 0.06455455 -0.03934134
0003b0 0a 45 c9 bd 19 39 9b 3d c3 19 96 3d d1 12 37 be
       -0.09827621 0.0757925 0.073291324 -0.17878272
0003c0 a3 9b 36 be 0d 66 cb bd 35 85 fe bd a3 23 4d 3c
       -0.17832808 -0.09931574 -0.12427751 0.0125207035
0003d0 88 26 15 3e a3 32 00 3d b9 71 8c 3d 5d 4a 07 be
       0.1456548 0.03129829 0.068576284 -0.13211961
0003e0 8e f2 06 be be 3b cf 3b 08 9d 0c be 30 46 f2 3d
       -0.13178465 0.0063242605 -0.13731778 0.118297935
0003f0 cf 32 02 be e5 52 73 bd 79 02 40 be 41 06 bc bd
       -0.12714694 -0.059405226 -0.18750943 -0.0918088

fc2e.bias f4 [32]
000000 5d 54 84 bd 80 13 00 be b0 81 6c bd 67 71 be 3d
       -0.064614035 -0.12507439 -0.057740867 0.092989735
000010 0b 14 e7 bd d5 3d 44 bc bb 06 eb bb bc e7 21 bd
       -0.1128312 -0.0119776325 -0.007172433 -0.03952764
000020 92 2d fe 3d dc 64 ba 3d c1 96 7c bd 76 2b 99 bd
       0.124110356 0.09101269 -0.061667208 -0.07478993
000030 d3 97 7d bd af 01 17 3d 3a 4a 8b 3d 99 1f 16 be
       -0.06191237 0.03686684 0.06801267 -0.14660491
000040 87 bf 25 3d 65 2a 6e bd 6a e4 08 3e db 26 00 be
       0.040465858 -0.0581459 0.13368383 -0.12514822
000050 57 c5 4f ba 37 bb ce bd 35 45 90 3d a8 85 f2 3d
       -0.0007925829 -0.10094302 0.0704445 0.11841899
000060 a7 ee 42 3d 40 77 b1 bc 5f e9 b4 3d ee e2 3e bc
       0.047590878 -0.021663308 0.088335745 -0.011650784
000070 ed 72 17 3d 1a 39 dc 3d 43 f9 b3 3d a8 e2 0f be
       0.036974836 0.10753079 0.08787777 -0.14051306
