model_l1_l2.pth (torch, 113654 bytes, 54 tensors)

fc1.weight f4 [32, 1]
00000000: bf88 22be 6c79 5fbe 03d8 d93d c64f adbe
00000010: dcda 793d c2a1 bf3f 7751 f7be 9651 c03f
00000020: 57fb 583e f5cd 423e 6a85 b33f cfac f7bd
00000030: acf6 c6bd 5837 e4be 4fdc 153c 83c5 0f3e
00000040: f8a6 6d3f 2de4 323e 1463 f8be d9bb 60bf
00000050: 272f 683f 1be1 473e d3e0 233f 89a6 79be
00000060: 61d1 2cbd 7857 91bd d74b c23f a46d 17be
00000070: d09d cdbe 9103 bc3d 3cf9 663f dcb0 91bf
-0.15872477 -0.21823663 0.10636904 -0.33849925 0.060999736 1.497124 -0.4830434 1.5024898
0.21189629 0.19023879 1.402509 -0.120935075 -0.09715018 -0.44573474 0.009146764 0.14040188
0.928329 0.17469855 -0.4851309 -0.8778663 0.9069695 0.19519465 0.6401493 -0.24379934
-0.042191867 -0.070967615 1.5179394 -0.14787918 -0.40159464 0.09180368 0.9022405 -1.1382098

fc1.bias f4 [32]
00000000: 31a4 5f3f 2541 b43f 9dc2 b6bf bddc c73f
00000010: 4369 4dbf 3946 dbbe 784b b23f 2dd5 1440
00000020: 2a63 edbf 7ab6 46bf 62a3 693e 01d1 2bbf
00000030: 2bb2 f13e 246d 733f 885d c7be f966 63bf
00000040: 801a 17bf f197 afbf f3fd 9e3f 6b3c 483f
00000050: 25c6 9abf e04a ecbf 9561 27bf 7abd b93f
00000060: dba5 55bf a895 803f facc e4be e477 333f
00000070: 728b 283f dde9 ccbf e067 b83f 724c 21c0
0.8735991 1.408238 -1.4278141 1.5614239 -0.8023874 -0.42827013 1.3929281 2.3255112
-1.8545887 -0.7762219 0.22816232 -0.6711579 0.47206244 0.9508841 -0.38938546 -0.88829
-0.5902481 -1.3718244 1.2421249 0.7821719 -1.2091719 -1.846035 -0.65383273 1.4510949
-0.834562 1.0045671 -0.44687635 0.70104814 0.65837777 -1.600887 1.44067 -2.5202909

fc2.weight f4 [32, 32]
00000000: 9c77 bb3d 3492 da3c b805 85be 0559 6d3d
00000010: 2db9 253e 5bb7 8ebc 75a5 9fbd 3c5b 6dbd
00000020: 1ead da3b a7de f9bd c659 f6bd 45b8 10be
00000030: 886a 193d 93d5 09be 4f03 c63d 6c9b c3bd
00000040: 8868 abbc c193 4dbe 73d8 acbd fa5c 8abd
00000050: 93ff 86bd 412f 75be 157f 483d 85d6 a5bd
00000060: 5342 183c 0540 183e ac39 5a3d 0165 f43d
00000070: 3912 3bbc de7f 253d efeb e03c fbe7 49bd
00000080: 571d fc3d 35b9 14be 4604 3dbe 144f 93bb
00000090: d6e2 283e ecfc 883d 4e65 79be b180 31be
000000a0: 038e 44be 6327 b9bd b17c 30be a5f4 253e
000000b0: 1c42 09bc 9e5d 17be 2074 c23d c0fe fcbd
000000c0: ba30 b13d f4a1 25bb 2aeb cebd bf83 48be
000000d0: 0ba9 4b3e f8e2 13be da1e 673d 0258 9f3d
000000e0: bccf 133e f8b3 4a3e 8808 263c 6853 493e
000000f0: 997e 0ebe a32a f9bc 57fe 19be 03b0 ee3d
00000100: 25bb 7f3d 7081 feba efe3 81bd ea66 d2bd
00000110: eb90 50bd 189e b63c fb7f a3bc 5cd5 0c3e
00000120: 0326 473e f4a3 1dbd 0eeb 08be e722 23bd
00000130: 1ca7 e53d 8610 ee3d 33be 533e 7f02 e23c
00000140: df15 053e f77d fabd 7998 563d 7862 9f3d
00000150: f2f5 bdbd 09dc 2c3e 3bec ec3d 7878 2ebe
00000160: 1ba1 2d3e 375b 7e3e c2bc 783d 8ab4 9dbd
00000170: 560c 1b3c 0227 3ebe 4e9b b03d 3648 183e
00000180: acd9 ec3d d5a8 ddbd ee0b 313e 873b 373e
00000190: 4d22 693e 405c 153e 0da2 c23d b565 373e
000001a0: 3fc1 c1bc 76c3 ee3d 4e23 69bb efce b13d
000001b0: 33a8 a43d 94b7 133e 14ea ccbb f305 fe3d
000001c0: cf12 e8bd a716 033e 7cba 89bd 072c 0f3e
000001d0: 6f1e 07bd 6635 bebd aa02 7f3d 4cbb a03d
000001e0: bc8b 4e3d d446 93bd 2e3d 0abe 2e04 55bb
000001f0: d20c 0e3e 3420 c43d 6d55 e6bd 92ad f8bd
00000200: 8d0c 223d b854 143e dfc3 68be dbbc 553d
00000210: e9e0 373e d93b c83d d71c 0bbe b514 a1bd
00000220: 20ef 28bc 668b f83d 27d8 173d e744 153d
00000230: 1417 573d 36e9 80bb 23af 3abd f3fd cfbd
00000240: bc4f a4bc dc54 6b3d 5809 b33d 844c f63d
00000250: 2705 223d 69c8 c4bd c19f 9e3c 65fb 8e3d
00000260: a599 e33d 29a9 1b3e ed48 3a3d 2315 bdbd
00000270: a1ae a8bc 912f 3bbe 4467 e33c b54d 7bbd
00000280: e0e1 56be 9b40 773c 00a6 4fbd 816f fc3c
00000290: f569 30be 9191 26bd a608 053e ea02 3e3d
000002a0: 686d 4d3e f86c fb3d aeb2 1bbd 7c9a 24be
000002b0: f92e 2c3d 15de 0b3e fde0 953d 3dca 01bd
000002c0: 5862 c53c d21c 163e 7ccd a0ba b865 323e
000002d0: 24e0 94bd 6761 493e 18e4 6e3d 543a 603d
000002e0: 1186 9ebd 1c86 583d b7a8 71bd 2fa1 b13d
000002f0: a101 35be 6a5d 0a3e 39d3 1b3c 0981 073e
00000300: 8cce 90bd 5b6a 5d3d f2f1 d63d a47a 36bd
00000310: 5baf 073e 1441 e13d f6e1 fabd d2c8 4b3d
00000320: c4c5 53bd e625 0bbe c77c 9fbd 34a0 aebd
00000330: c037 53be 7a37 603d 94c1 38be 224c 0cbe
00000340: 4ed0 aabd 668b 7bbc 6036 77bd 3829 afbd
00000350: d86a ba3d fe50 48be a0d1 b23d 13a4 c93d
00000360: 7c08 9bbd da00 21be 2aa9 853d e59d 223d
00000370: 3fcb b1bd b188 0cba cb8d a8bc d16b 09be
00000380: 9dd9 b3bd a2a2 1d3e fe60 963d 106d de3d
00000390: 9fde 8f3e 9676 b8bd 0143 7fbd 8eb3 11be
000003a0: 485d f6bd b0d3 66bd 6a17 833d 9924 ba3c
000003b0: 155c 8d3d 71c2 0d3d 161d 08be 90e6 2b3e
000003c0: 738d 0e3e c2ef 153e f81e 3438 4392 ee3d
000003d0: 050f e4bc 00eb 67be 679c 3a3e 43b6 f2bd
000003e0: 7bbe af3d 5e13 16be 148c 983c 7a21 123e
000003f0: 912b 673d 69bb 943e 4a56 07be ca46 4bbe
0.09153673 0.026681043 -0.25980926 0.057946224 0.1618392 -0.017421415 -0.0779523 -0.057948336
0.006673469 -0.12200671 -0.12028842 -0.14132793 0.03745511 -0.13460378 0.096686 -0.09551129
-0.020923868 -0.20075895 -0.08439722 -0.06756015 -0.06591716 -0.23943807 0.04894932 -0.08097557
0.009293157 0.14868172 0.053277656 0.119333275 -0.011417919 0.040405147 0.027456252 -0.0492935
0.12310284 -0.14523776 -0.18458661 -0.004495511 0.16492781 0.06688866 -0.24355051 -0.17334248
-0.19194798 -0.090407155 -0.17235066 0.16206606 -0.008377578 -0.14781806 0.09494805 -0.12353277
0.08651872 -0.0025273534 -0.10103448 -0.19581507 0.19888704 -0.1444205 0.056425907 0.07780458
0.14434713 0.19795215 0.01013387 0.19660723 -0.1391548 -0.030415839 -0.15038429 0.11654665
0.062434334 -0.0019417237 -0.06342303 -0.102735355 -0.050919455 0.022292182 -0.019958487 0.13753265
0.19448094 -0.038486436 -0.13370916 -0.039828207 0.11213514 0.11624245 0.20678024 0.02758908
0.12996624 -0.12231057 0.052391503 0.07782453 -0.09275426 0.16880812 0.11568495 -0.17038143
0.16955988 0.24839483 0.06072689 -0.07700451 0.00946339 -0.18569568 0.08623372 0.14871296
0.11564955 -0.10823218 0.17289707 0.17893802 0.22766991 0.14585972 0.09503565 0.17909892
-0.023651717 0.11658375 -0.0035574022 0.086820476 0.08039894 0.14425498 -0.00625349 0.124034785
-0.113317125 0.1280161 -0.06725022 0.13981639 -0.032988008 -0.09287529 0.0622584 0.07848224
0.05042623 -0.07191244 -0.134999 -0.0032503712 0.13872078 0.09576455 -0.112467624 -0.12142481
0.03956275 0.14485443 -0.22730969 0.05218206 0.1795689 0.0977704 -0.1358522 -0.07865278
-0.010310918 0.12135963 0.037071373 0.036442664 0.052512243 -0.003934051 -0.04557718 -0.10155859
-0.020057552 0.057453975 0.087420166 0.12026313 0.039555695 -0.09608538 0.019363286 0.069815435
0.1111329 0.15201248 0.045479704 -0.09232547 -0.020591082 -0.18279864 0.027759202 -0.061353404
-0.20984602 0.015091087 -0.05069542 0.030814888 -0.1722792 -0.040666167 0.1299158 0.046389498
0.20061266 0.122766435 -0.0380122 -0.16074556 0.042036984 0.13658936 0.07318304 -0.03168701
0.024094746 0.14659432 -0.001226827 0.17421615 -0.07269314 0.19666062 0.058322996 0.054743126
-0.07740415 0.05286227 -0.05899879 0.086733215 -0.17676403 0.13512197 0.009510809 0.13232817
-0.07070646 0.054056507 0.10495366 -0.044550553 0.13250487 0.10998741 -0.1225013 0.049752064
-0.051702276 -0.13588676 -0.07787471 -0.0852665 -0.20626736 0.054740407 -0.18042594 -0.13700917
-0.08340512 -0.015353059 -0.06035459 -0.08552784 0.0910241 -0.19562146 0.08731389 0.09845748
-0.07569978 -0.15722981 0.06526406 0.03970136 -0.08681344 -0.0005360945 -0.020575425 -0.13420035
-0.08781741 0.1539407 0.073427185 0.10860646 0.28099534 -0.090069935 -0.06231976 -0.14228651
-0.12029511 -0.056354225 0.0640095 0.02272253 0.06902329 0.034609262 -0.13292345 0.16787171
0.13921146 0.14642242 4.2944186e-05 0.11648991 -0.027839193 -0.22648239 0.18223725 -0.1185117
0.08581253 -0.14655825 0.018621482 0.14270583 0.056438033 0.29049233 -0.1321651 -0.19851223

fc2.bias f4 [32]
00000000: 0819 1a3e 1c5d cebd 4757 183c 6fac f73d
00000010: 8ec2 1a3e 9830 2a3c a454 1a3d d1af 14be
00000020: 5061 6d3d 28ec 28be c4e3 eb3d 001c a2bd
00000030: a539 11be 1a89 84bd 7af7 10be 541a d9bc
00000040: 8210 8abd 2bf9 e93d 3c8c 8a3c 6ba9 9aba
00000050: 74f6 dc3d 9e41 26be 32b9 393d 89dc 963d
00000060: 7a35 87bd 489c e93d c339 41bd 6577 d3bd
00000070: 878e 80bd e246 1f3e e9ad edbd 8011 8a3b
0.15048611 -0.10076353 0.009298152 0.12093436 0.15113279 0.010387562 0.037678376 -0.14520194
0.057954133 -0.16496336 0.11518052 -0.07915497 -0.14182146 -0.064714625 -0.14156905 -0.026501812
-0.0674143 0.11424478 0.016912572 -0.0011799758 0.10789195 -0.16235968 0.04534263 0.073662825
-0.06601997 0.114067614 -0.047174226 -0.10325507 -0.06277185 0.15554383 -0.11605436 0.004213512

fc2a.weight f4 [32, 32]
00000000: af04 e6bd c3b3 16be c6fc b1bc 3fa4 10be
00000010: 0fc6 2cbd e752 5d3d 82de 003e 7603 ffbd
00000020: 7a4d 57be cf36 28bc 6dca 833e 55ff 093e
00000030: c097 a03c d5a1 8cbc 540c 243e 482e 19bd
00000040: bd13 b2bd c910 eb3d c3f9 da3d f26c 6a3e
00000050: bee9 893d d725 2ebe 1bf7 c5bd 56c0 b63d
00000060: fc60 2b3d 5103 fd3c 673d 2dbe 0c0b 4e3e
00000070: e0ad fa3d c2c0 ac3d 2c96 193e b33d 743c
00000080: cc47 483d ab0f a0bc 4810 96bd 487c 133d
00000090: 57e2 a03d 3d54 413d b52a 4ebe a7e2 033e
000000a0: 3437 e63d 96c9 99bd 0a83 e53d f177 fa3d
000000b0: 918b 163e ad3a febd 3b67 a43d d6dd 8abc
000000c0: 2cf5 283d 3087 8dbc 78a7 99bc f6a6 403e
000000d0: 5f5c 153e 5dca b9bd 256f 4d3e 9cce 1cbe
000000e0: 1391 57bb 4fd1 d13d 8c98 4abe 128e 573e
000000f0: 3e8e a4bd 39d8 4b3d 8703 733d 476e b4bd
00000100: 3ae2 8fbd f05a ef3d b91c 09be d5c2 da3c
00000110: d1d5 4dbe 35d4 aebd 4514 b23d 9eb6 163e
00000120: 0315 063e abdd 86be 3985 a93d 62c2 e5bc
00000130: 6c33 c3be 8827 5b3c 83d6 8f3d d888 083d
00000140: 0bca 83bd e6be b6be 2a1c 7abe 3e5b b5be
00000150: 15fa 74bb 21af 203e dfff 87be be36 603e
00000160: 381b 7a3c 3c15 5abe 6166 1e3e 0b29 423e
00000170: b3f3 9f3d a2e6 16be 1efa 73be 72fe aa3e
00000180: e53f aa3d 0b72 b1bd 3e1d 333e cfcd 69bc
00000190: 5389 0fbe d21b 393e 2589 0f3d c468 24bd
000001a0: 4e26 81bd 614f c63b 6469 813e 675a 003e
000001b0: 8ce8 293e 7eef 193e 5d7d 893d 670a 62be
000001c0: 60a5 0e3e 83fe fe3d 8287 d43d 99da 9a3e
000001d0: b202 eb3d feff 45be aabb 77bd 5338 3b3d
000001e0: dda5 2bbd c961 773d 5c3d 28be b047 04bd
000001f0: 209b fc3d fad4 a2bd 5e82 38bc 341c d9ba
00000200: de96 663c 2104 4a3d 69a7 223e b70a 58be
00000210: c6bc 013e 5a67 2c3d 4bd1 b63d 6947 07bf
00000220: 748b 2bbd 9ce1 4cbd eb4d 66bd 2e54 293e
00000230: 436d bd3e 8e37 313e 71c0 423e 5054 c4be
00000240: cf09 20be d288 ea3e 14c8 afbd 1f2d b43e
00000250: 7568 753d d995 be3d 77cf 523e 9a36 45bd
00000260: 1bcb e5bd 881e e03e 7d4b 9c3d 9136 d2be
00000270: e4e4 cbbd f430 dd3c b3d3 f03d 941c 17be
00000280: 4c59 14be e854 03be e21f a73e 1fce 3fbe
00000290: 7606 6bbd f2aa 993d 2402 46be 5fb0 46be
000002a0: 9c3f 22be 38dc 723d 97b5 1ebe 673b 1b3e
000002b0: 6558 b63e d6bc 25be eaaf d8be ae18 3dbe
000002c0: 9fd3 efbd 5d52 a63e e905 ab3c b15b ea3d
000002d0: 9ae9 56be 85cd 44be 17a5 413d 49e5 15be
000002e0: a93b a73d 4a8e 653e 7417 343d dc7a 08be
000002f0: a3b5 8abd bf47 00be a49b 84bd 246e bebb
00000300: 3101 02be 4351 22be b29a ca3d e666 cebd
00000310: 74ac 60bc c39b d13e 36f4 83be aa2e 66be
00000320: ca63 63be 2ca6 9ebd bfd3 f0bd 10df 0f3d
00000330: 2b8e 333f 91ec 93bd 977a e1be 70f6 05be
00000340: a2e6 9abd 259e 3b3e d46f 15be d55e 2b3d
00000350: 43a1 8b3c 7422 3dbc 5de9 803e 25d8 f7bd
00000360: 4e75 f03d 36e8 4c3e dfe1 00be 6bf1 16be
00000370: 6b3a cc3c ab13 7cbd 4bfb 2a3e a2f9 153e
00000380: 449b 53bd cd3e 67be 81bf 94bd 6d03 cbbd
00000390: 2cb1 91bd aa49 bfbd 2a6d d5bd f48b 11be
000003a0: 86cd 123e 9ee4 a93d 91c0 85be b7ed 3dbd
000003b0: 15de 49be 5638 89bd 11b0 37be 0504 0ebc
000003c0: a3b8 f9bd f5f0 ed3d 6b75 ca3c 40e4 ddbd
000003d0: 1ee6 c0bd 53f1 683d 2641 1abe a0af 84bd
000003e0: 7ec9 d7bd 49d9 673d 4d9d bbbd 2841 1bbe
000003f0: c92e 283e cd0b d93c 370b 00bd 1a64 c73d
-0.11231362 -0.14717011 -0.021726977 -0.14125155 -0.04218107 0.05403414 0.1258488 -0.12451832
-0.21025649 -0.010266974 0.25740376 0.13476308 0.01960361 -0.017167011 0.16020328 -0.037397653
-0.08695171 0.11477811 0.106921695 0.22893122 0.06734036 -0.17006622 -0.09666272 0.08923404
0.04184054 0.03088537 -0.16917954 0.20121402 0.12240195 0.08435203 0.14998692 0.014907288
0.048896596 -0.019538721 -0.07327324 0.036007196 0.07855671 0.047199477 -0.20133479 0.1287943
0.11240998 -0.075091526 0.11206634 0.12229908 0.14701678 -0.12413535 0.08027502 -0.016951483
0.04124944 -0.017276376 -0.018756613 0.1881369 0.14586018 -0.09071801 0.2006193 -0.1531319
-0.0032892867 0.102450006 -0.19784755 0.2105029 -0.08034943 0.049766753 0.059329536 -0.08810096
-0.07025571 0.11687267 -0.13389863 0.026704231 -0.20101096 -0.08536569 0.08695272 0.147181
0.13093953 -0.26340994 0.08277363 -0.02804679 -0.3812517 0.013376124 0.07023337 0.03333363
-0.06435021 -0.3569252 -0.24424806 -0.35421175 -0.0037380506 0.15691806 -0.26562402 0.21895882
0.0152652785 -0.21297163 0.15468742 0.18960969 0.07810154 -0.14736417 -0.23825881 0.3339725
0.08312968 -0.0866433 0.17491624 -0.01427026 -0.14017229 0.18077019 0.0350429 -0.040138975
-0.06306134 0.006051943 0.2527572 0.12534486 0.16592616 0.15032765 0.06713364 -0.2207428
0.13930273 0.12450888 0.103774086 0.30244902 0.114751235 -0.19335935 -0.060481705 0.04570801
-0.041906226 0.06039599 -0.16429657 -0.03229493 0.12334275 -0.07950778 -0.011261551 -0.0016564191
0.0140740555 0.049320344 0.15884174 -0.21097837 0.12669668 0.04209075 0.08926638 -0.5284334
-0.04188104 -0.050019845 -0.056226652 0.16536018 0.36997423 0.17306349 0.19018723 -0.38345575
-0.15628742 0.4580751 -0.08583084 0.35190675 0.05991407 0.09305925 0.20586954 -0.048147775
-0.1122038 0.43773293 0.07631586 -0.41057256 -0.09955767 0.027000882 0.117591284 -0.14756995
-0.14487189 -0.12825358 0.32641512 -0.18730973 -0.05737921 0.07503308 -0.19336754 -0.19403218
-0.15844578 0.05929205 -0.15498959 0.15159379 0.35614315 -0.16185316 -0.42321712 -0.18466446
-0.117102854 0.32484713 0.020876842 0.1144327 -0.2098755 -0.19219024 0.047276583 -0.14638247
0.08165676 0.2241756 0.04396768 -0.13328117 -0.06772926 -0.12527369 -0.064749986 -0.0058114696
-0.12695767 -0.15851311 0.09892787 -0.1007822 -0.013712991 0.4093915 -0.25772256 -0.22478738
-0.22206035 -0.077465385 -0.11759137 0.03512484 0.70138806 -0.07222856 -0.4403884 -0.1308229
-0.07563521 0.18322046 -0.1459344 0.041838486 0.017044669 -0.011543859 0.25178042 -0.12101773
0.11741124 0.20010456 -0.12586163 -0.14740531 0.0249302 -0.061542194 0.16697423 0.14646009
-0.051661745 -0.2258255 -0.07263089 -0.09912763 -0.07113871 -0.09340222 -0.10421212 -0.14213544
0.14336213 0.082955584 -0.2612348 -0.04636928 -0.19713624 -0.06700198 -0.17938258 -0.0086679505
-0.1219342 0.116182245 0.024714192 -0.10834551 -0.09418891 0.05687077 -0.15063915 -0.0647881
-0.105364785 0.056603704 -0.09160862 -0.15161574 0.16424097 0.026494885 -0.031260695 0.0973589

fc2a.bias f4 [32]
00000000: 6f1a 0abe 151c f1bc bfdd f13d b3f9 3a3e
00000010: 610e 213e f6e5 b0bd 30f8 f6bd 0905 cc3d
00000020: 43e2 07bd a9a3 34be ed42 9abd dbfe c0bd
00000030: 310e 2bbc c986 02bd a222 d4bc 9204 123e
00000040: 2b89 203e b271 92bd cbad d6bd 58e4 203e
00000050: 04d1 113d 20af 3b3e 6073 5abe 95b8 b7bd
00000060: e1f6 ba3d c25c 143e 9483 bbbd bed3 1c3e
00000070: f6d1 1b3e 06b6 b1bd 85c8 3cbe 8a9a 563e
-0.13486646 -0.029432336 0.11809873 0.18259315 0.15728141 -0.086376116 -0.12059057 0.09961898
-0.033174764 -0.17640556 -0.07532296 -0.0942361 -0.010440395 -0.031866822 -0.02589542 0.14259556
0.15677325 -0.07150592 -0.10482367 0.15712106 0.035599723 0.18328524 -0.21333075 -0.08970753
0.0912912 0.1448851 -0.09155956 0.15315148 0.15216812 -0.08677296 -0.18435867 0.2095739

fc2b.weight f4 [32, 32]
00000000: 8c3a 03bc 15eb f4bd e706 423e da3f 78bd
00000010: 615e 003e 5843 26be 7de0 18be 3de5 2c3e
00000020: 19fa 4cbe 8f52 2ebe 441b c23d 684b af3d
00000030: 10fe 3bbd 94d5 ffbe 4a31 2ebe 8ecf 9c3c
00000040: 315f edbd 5baa 2d3c eb5d 62bd 804b 443d
00000050: 12f3 843e 8b8f 673e c44b b5bc 48d0 36be
00000060: 79a9 123e 64e6 42bd b622 b53e e671 cebc
00000070: b3a0 a53e 55ca 1b3e 0de7 92be f02f 2f3c
00000080: 83ec bcbc 1103 463e d304 593e cac9 113e
00000090: b667 3fbd 8fa4 41be 922c 42be deea 2fbe
000000a0: 32dd 04bd 31c5 cbbd f0b2 63bd 12e4 f6bd
000000b0: 5a31 363e 8af8 713e e90f ca3d 933d 91be
000000c0: aad6 6ebe 29b5 5cbe 1968 703d ada4 a2bb
000000d0: c560 2e3e 892e a1be 6a3c e93d bbbc 2ebd
000000e0: 3b98 7c3e f1bf b5bc 7e6f efbc fbfc 9cbe
000000f0: 4b45 c2bd a160 1e3e a184 3c3e 18a0 4ebe
00000100: 6f67 6a3d 606d 1f3d dab4 d53b d02a 403c
00000110: c0c7 99be 841e 0ebd 9cf5 5bbe 917b 14be
00000120: 700a ccbd 2321 f03d 87b3 763d 6853 a8bd
00000130: d1f2 6ebc e352 953e 7f15 c63d e3f2 a3be
00000140: 32e4 3e3c df66 9dbd 18f2 c7bd ffcb 41bc
00000150: 93b7 7bbd 9f1f 29bf e56b cd3d 33c5 3ebe
00000160: 761c 9e3d 48b5 9bbd d249 a7bd 9f07 6bbe
00000170: 4f9f 0dbe 3ba4 6f3d 3bc6 be3e 7632 20be
00000180: 2d90 79bd f36d 30be 68b6 d13e 99d3 be3c
00000190: 5a4e ba3d 83ac 9cbe 113e 8fbd 08e8 ef3d
000001a0: b1e9 8d3d 56b5 d0be dcc6 853d 360f 453e
000001b0: 09ec c6bc 6142 e6be 1b5d c13d 4205 2dbe
000001c0: 3cd5 28be bb1e 9d3d b0ad 8f3d f864 e7bd
000001d0: 7379 583e 1f60 683e ca45 0d3e df05 d73c
000001e0: 4551 2fbe f0b9 3ebd 886e 023f 8d35 e13c
000001f0: a2c5 f63d 4306 513d 89d1 32bd f7d0 863e
00000200: 600e 0fbe 0ed9 653d e689 973d 59da d03d
00000210: 8f9f 79be 4dfa efbe a045 b8be 20c6 8fbd
00000220: 7feb c83d d7d1 cb3d bd63 c43d f346 5b3e
00000230: 588d f13d adff f1bb 962a 6dbd 8165 acbe
00000240: 8919 b1bd 32af 00be d559 c0bd 43de d2bd
00000250: cd61 f53d 8c7a 61be 3b85 013e c412 66be
00000260: 14e7 f9bd 2d23 213d 61bd 943d b70b 4ebe
00000270: 984e a2bb a6ef 133e ab33 ca3d ebbd dcbc
00000280: cc1a a03d b85c 933d 1118 94bd 5236 513d
00000290: d3ba 72bd 9cbb 973e 46b9 3c3e 581e 89bc
000002a0: bd6b 0a3e 4f5d cd3d 2b6b af3d 0994 36be
000002b0: b97f 02bd b263 04be 5804 a8bd 65e9 40bd
000002c0: b5e8 073e edb3 843d 17d2 313e 0daa fd3d
000002d0: 349f 8abe c1ee e13e fe58 23be fbf0 fd3c
000002e0: b02d e5bd 66ca 643e 2f5c b8bd 5ce1 3bbd
000002f0: b39e 1f3e 0e40 0e3e 617d 5cbe c2a4 503e
00000300: a99d 273e 0002 69bc 1ea0 abbd 62d4 b83d
00000310: ce80 05be fb40 98be a627 75bd b90f 723d
00000320: f074 9fbe 1231 01be 6206 d63b aa21 20be
00000330: 5187 c3bb d8af a63e 4c9a 7c3d f0ee 7bbe
00000340: a165 cabd cdb8 57be 3d92 09bc b3a0 b83c
00000350: 2a1a 4f3e 52d6 b6be 204f 1d3e 4077 b6bb
00000360: 307f aa3d 2808 0ebe f912 54be 4116 57be
00000370: a194 7a3d 6971 8ebd bdd4 c43e a47a 32bd
00000380: 47b6 44bd ab13 c0bd 83cd da3d e9e1 593e
00000390: 1a2c 91ba 0cd6 efbc 16fa 00bc 9d17 aa3d
000003a0: 0d2d 61bd 4c1a 34bd f792 043e a23b b3bd
000003b0: ff17 bbbd f6f5 9739 2c8c c73d 18cd 123e
000003c0: 83db 4ebd ea24 4ebe bc5c 0f3e c678 2f3e
000003d0: 3642 123e 3363 f83e 7ea0 d63d b94a a1bd
000003e0: cce6 053e dd8e 1b3e e406 d63c 9107 643e
000003f0: a1c6 a23d 050b 94bc c148 97be 7536 443e
-0.008009564 -0.11958901 0.18947946 -0.06060777 0.12536003 -0.16236627 -0.14929385 0.16884322
-0.2001728 -0.17023681 0.09477857 0.085593045 -0.04589659 -0.49967635 -0.1701099 0.019141939
-0.11590422 0.010599698 -0.05526535 0.047923565 0.25966698 0.22613351 -0.022130854 -0.1785289
0.14322461 -0.047583 0.35378045 -0.025200795 0.32349166 0.15213902 -0.28691903 0.010692582
-0.023061996 0.19337107 0.21193247 0.14237133 -0.046729766 -0.1891043 -0.18962315 -0.17179438
-0.03243751 -0.09949721 -0.05559057 -0.1205522 0.17792264 0.23629966 0.09866316 -0.2836729
-0.23324075 -0.21553482 0.058693025 -0.0049634785 0.17029102 -0.31480816 0.11388476 -0.042660456
0.24667446 -0.022186251 -0.029227968 -0.3066176 -0.09485873 0.15466549 0.18409969 -0.20178258
0.05722755 0.038922668 0.0065218033 0.011728957 -0.3003521 -0.03469707 -0.21480411 -0.14500262
-0.09962928 0.1172507 0.060229804 -0.082190335 -0.014584259 0.291648 0.09672069 -0.32021245
0.011651086 -0.07685637 -0.097629726 -0.011828422 -0.061454367 -0.66063875 0.10030345 -0.18629913
0.07720272 -0.07602936 -0.08168377 -0.22952126 -0.13830303 0.05850623 0.37260613 -0.1564425
-0.060928512 -0.17229442 0.40959477 0.023294257 0.090969756 -0.30600366 -0.0699426 0.11714178
0.06929339 -0.40763348 0.0653207 0.19244084 -0.024282472 -0.44972518 0.094415866 -0.16896537
-0.16487592 0.07671877 0.0701555 -0.11298555 0.21140079 0.22692917 0.13796154 0.026247917
-0.17120846 -0.046564043 0.5094991 0.027491355 0.12049414 0.051031362 -0.04365686 0.26331303
-0.13970327 0.056115203 0.07399349 0.101978965 -0.24377273 -0.46870652 -0.3599062 -0.07020211
0.09810542 0.09952133 0.09589336 0.21413784 0.11794537 -0.0073852153 -0.05790194 -0.3367119
-0.086474486 -0.12566832 -0.09392134 -0.10296299 0.11981545 -0.22019404 0.1264848 -0.22468096
-0.12202278 0.039340187 0.07262684 -0.20121656 -0.0049532168 0.14446887 0.09873136 -0.026946029
0.07817611 0.07195419 -0.07231153 0.051077195 -0.0592602 0.29635322 0.18430051 -0.016738102
0.13517661 0.10027563 0.085653625 -0.17829908 -0.031860087 -0.12928656 -0.082039535 -0.047097582
0.13272364 0.064796306 0.17365299 0.1238595 -0.27074587 0.44127467 -0.15951917 0.030998698
-0.11190355 0.22342834 -0.090019576 -0.045869216 0.15587883 0.13891622 -0.21532203 0.2037535
0.16368736 -0.014221668 -0.08380149 0.09024884 -0.13037416 -0.29737076 -0.059852265 0.059097026
-0.31143904 -0.12616375 0.0065315226 -0.15637842 -0.0059670587 0.32556033 0.061670586 -0.24602866
-0.098826654 -0.2106659 -0.008396682 0.022537565 0.20224825 -0.35710388 0.15362215 -0.005568415
0.0832504 -0.13870299 -0.20710362 -0.21004583 0.0611769 -0.06955225 0.38443556 -0.04357399
-0.048025396 -0.09378751 0.106837295 0.21277584 -0.0011075765 -0.02927687 -0.007872125 0.08305285
-0.054974604 -0.04397039 0.12946688 -0.087516084 -0.09135436 0.0002898422 0.097435325 0.1433605
-0.05050231 -0.20131269 0.14000219 0.17135915 0.1428307 0.48513183 0.1047983 -0.0787558
0.13076323 0.15191217 0.026126333 0.22268511 0.07948042 -0.01807166 -0.29547694 0.19161399

fc2b.bias f4 [32]
00000000: d1b0 233e 0a61 f53d d293 2cbd 9fc5 3d3e
00000010: b10f edbd a827 7fbd 2a2b 1abe acf8 92bd
00000020: b8b3 3b3d e4be 5c3d 91c5 293e b4e1 e83d
00000030: 3858 e33d 8ce6 babd 4972 b63d 765f b73d
00000040: 2d03 a83c 51e5 b9bd a6ee 32be 903c 57be
00000050: 3feb 983c 4b64 aebd 101c 8b3e 9eab ecbd
00000060: 43d2 653b 4d7d 223d 2eb6 c7bc 3765 24bd
00000070: 5d6a 233d 1964 ac3d 2c67 503e da33 b23d
0.15985419 0.11981399 -0.04213316 0.18532418 -0.115752585 -0.06229368 -0.15055528 -0.07176337
0.04582569 0.053892985 0.16579272 0.113711745 0.11100811 -0.091260046 0.08908517 0.089537546
0.020509327 -0.09076942 -0.1747385 -0.21019197 0.018666862 -0.08515223 0.27169847 -0.11556171
0.0035067953 0.039670277 -0.024378862 -0.04013559 0.039896358 0.084175296 0.20351857 0.08701296

fc2c.weight f4 [32, 32]
00000000: a982 6d3d 04ff 343d a72f 043e 9a27 66bc
00000010: c8ab 9b3d 38f4 fb3d 6115 cd3c f50b 5e3e
00000020: 08a9 64be 2122 b2bd 4b06 083e 0212 8dbe
00000030: c001 c2bd c7d9 173e 1013 a93d f425 f1bb
00000040: f9b1 433e 3ae8 20be 4ffb 58be 2050 68be
00000050: ece7 64be 6f9c 943c 6a70 173e 4caa b53d
00000060: ee60 40be be6b 5a3d fb46 fcbc b45c 46be
00000070: 3edb 2e3e 3efd 9ebe fbf1 0d3e 6cbb 3f3e
00000080: b277 20bd 426d 703e e3bf 203e 1409 393d
00000090: c275 783e 7c36 86bc dd5f 2e3e f824 c7bd
000000a0: 7645 21be c21d 97bb ea1d 4bbe e221 bb3d
000000b0: c370 be3d 4ee7 febd a0ab a1bd 0e23 683e
000000c0: 63c7 303c 3345 963d a53f c6bc d176 4fbd
000000d0: 6825 4ebe 4728 093c 7858 efbc c3cc 833d
000000e0: 7f6e 183d bc46 79bd 50b9 133e 706a 47be
000000f0: fab6 023d 433c 08be 420a 5e3e 2128 4fbe
00000100: c175 d2be 1392 123b ddf5 11bc 906c 08be
00000110: 0680 4fbe b222 9d3e 5dac 16be 3bb9 49be
00000120: 0479 db3e 046e bf3d 3846 abbd f2f4 143e
00000130: 866b dbbd f9dd 043d bd19 a83e f082 ec3d
00000140: 63de 16be 4427 0a3e b80d d33e 23d8 6b3e
00000150: 2bde ab3e acb2 48bd 412e 4ebe 1c61 c53d
00000160: 5581 94bc 98d7 b2be 48b1 cbbc 5149 f2bd
00000170: 2d9d 31bd f79d c2bc 1ddd 5abe 3c8e b33d
00000180: 10f8 a33d a643 553e b6cc ad3e 69c9 32be
00000190: f1e2 9bbd 911f 39be 17ae ba3e a1b7 cf3d
000001a0: 8c6b 18be d738 3b3c 9d70 84be de10 d7be
000001b0: 07c8 273e b37b 2abd b7cf c5bd 9d28 633e
000001c0: 117a 893d f333 6e3a 4d14 983d 49e7 8d3d
000001d0: 75e4 7dbd 0493 dabd 557c 2ebe f2f4 9dbd
000001e0: 156f 8abc 14a0 8dbe 1189 5bbe 94de ae3d
000001f0: 5b8e 823d 6fce 0f3e 2cfb 023e ffae e63b
00000200: 92fd 31be 20e0 74be bf98 52be 7ae4 58bd
00000210: 9e69 7ebe 4165 94bd a97b 3c3e f3b9 f6bd
00000220: 4a89 09be c442 6b3e 0991 753e ee78 af3c
00000230: d1fd 553e 48bd 123c d93a 28bd 372b 57bd
00000240: 7bb6 93be e476 9e3d ede4 2abd d238 f9bd
00000250: 5ce5 143e df87 abbd c34f 713d fb1d 28bc
00000260: a133 523e 9190 07be e3bf c73b c588 9b3b
00000270: 5c20 8e3d 7b29 143e 0d45 98bd 0fc8 613e
00000280: 7cef 273e f3f1 293e 394e 2ebe e5cf c2bc
00000290: 6657 c83a 66ff 083f 6ee5 05bf 65f4 ac3e
000002a0: c07f a63d c22c edbd 69f5 8a3d 03fb 893e
000002b0: 0c1a bfbe 762d 733e db35 d43e 39c2 493d
000002c0: 8d61 2c3e b25f 943e f58d 923b 5f64 2dbe
000002d0: f461 fc3c e9ee 04be e489 78bd d15a 533e
000002e0: 99fc d9be 5270 c03d 9757 9f3d d02a 66bd
000002f0: ddf6 c33d c3f9 b8bc 3040 94bd f756 1c3e
00000300: 7f0a 613e 7609 01bc aec1 153e d6a0 933e
00000310: 9d85 53bd 8b71 c4be 0cf5 eb3d 2c8a 47bd
00000320: 3533 73be 7fe7 973c d419 093d 09a2 e5bd
00000330: d233 8a3e bdb2 b4be 19a4 d7be 8edd 573d
00000340: 8ede 2dbe f001 85be 021c 8c3b 366d 083e
00000350: 8c37 cc3d b1af 76bd 5e3b 183e a249 8b3d
00000360: 1689 cf3e d135 853d 37e8 a0bd 1b9b ef3b
00000370: 9b3c 0b3d 462c df3d 7640 0dbe 7e3e ad3d
00000380: 12fc b9be 53bf 64bd b36a ee3e e077 9abc
00000390: 8472 9d3d 2d59 bdbc b433 913e 6a6d b0bd
000003a0: fd70 87be a2ea 3dbe d268 03bf 2edb 71be
000003b0: 5a6e 0a3e 83a9 58be 6f6c 96be edf1 883d
000003c0: d608 cb3d 86f6 dbbd 02bf 933e a902 b93d
000003d0: d62d abbd 91dd ee3c 36ab 25be 1d0c 93be
000003e0: 53f7 ef3c b509 00be ac10 06bc 0931 083c
000003f0: 2e13 91bb 9184 48be ceca c93d e5fc 2bbe
0.057985935 0.044188514 0.12908803 -0.014047528 0.07601124 0.123024404 0.025034608 0.21684249
-0.22330105 -0.08697916 0.1328365 -0.275528 -0.0947299 0.14829169 0.08255589 -0.0073592607
0.1911086 -0.15713587 -0.21189617 -0.22686815 -0.22354096 0.018141 0.14788976 0.08870372
-0.18786976 0.053325407 -0.030795565 -0.19371301 0.17075822 -0.31052583 0.1386184 0.1872384
-0.03917665 0.23479179 0.15698199 0.045174673 0.24263671 -0.016383402 0.17028756 -0.09723848
-0.15749153 -0.0046117017 -0.1983563 0.09137322 0.09298851 -0.124464616 -0.07894063 0.22669622
0.010789725 0.073374175 -0.02420027 -0.05065042 -0.20131457 0.008371419 -0.02921699 0.064355396
0.037214752 -0.060858473 0.1442616 -0.19474196 0.03191278 -0.13304238 0.216836 -0.20230152
-0.41105464 0.00223649 -0.008908716 -0.13322663 -0.20263681 0.30690533 -0.14714189 -0.19699566
0.42865765 0.09347156 -0.083630025 0.14546564 -0.10713868 0.032438252 0.32832137 0.11548412
-0.14733271 0.13491541 0.41221404 0.23031668 0.33567938 -0.04899852 -0.20134832 0.09637663
-0.018128077 -0.3493011 -0.024864808 -0.1183039 -0.043362785 -0.023756964 -0.2137341 0.087673634
0.080062985 0.20826587 0.33945245 -0.17459644 -0.07611645 -0.18078448 0.36460945 0.10142446
-0.14884776 0.011427126 -0.25867167 -0.42005056 0.16384898 -0.041621875 -0.09658759 0.22183461
0.067127354 0.00090867205 0.07425747 0.0692888 -0.06198545 -0.10672572 -0.17039616 -0.07712735
-0.016898671 -0.27661192 -0.21439005 0.08538547 0.063748084 0.14043592 0.12791127 0.007039904
-0.17381886 -0.23913622 -0.2056608 -0.052952267 -0.24844977 -0.07245875 0.18406548 -0.12047186
-0.13431278 0.22974688 0.23981108 0.021419968 0.20897605 0.008956261 -0.041071746 -0.052531447
-0.2885016 0.0773752 -0.041722227 -0.12169041 0.14540619 -0.08375525 0.058913957 -0.010261054
0.20527507 -0.13238741 0.0060958727 0.004746529 0.06939766 0.14468949 -0.074350454 0.22048973
0.1639995 0.16596203 -0.17022027 -0.023780772 0.0015284836 0.5351471 -0.52303207 0.33780208
0.08129835 -0.115808025 0.067850895 0.2694932 -0.3732456 0.2374781 0.41447338 0.04925749
0.16834088 0.2897926 0.004472489 -0.1693282 0.030808426 -0.12981762 -0.060678378 0.20640112
-0.4257553 0.093964234 0.07780378 -0.056193173 0.0956857 -0.022580033 -0.07238805 0.1526755
0.2197666 -0.007875791 0.14624664 0.28833646 -0.051641095 -0.38367876 0.11521348 -0.048715755
-0.23750003 0.018543003 0.033471897 -0.112125464 0.2699266 -0.35292616 -0.42117384 0.052701525
-0.16979429 -0.2597804 0.0042757997 0.1332291 0.09971532 -0.060226146 0.14866397 0.06801154
0.40534276 0.06504405 -0.078567915 0.007312191 0.033993345 0.10897116 -0.13794121 0.08459185
-0.36325127 -0.055846523 0.4656578 -0.018855989 0.07687858 -0.023113811 0.2835976 -0.08614619
-0.2645339 -0.18546537 -0.5133182 -0.23618767 0.13518658 -0.21158414 -0.29379603 0.06686769
0.09913795 -0.1074038 0.28856665 0.090337105 -0.08358352 0.029158385 -0.16178593 -0.2872018
0.029292738 -0.12503703 -0.008182686 0.008312472 -0.004427335 -0.1958182 0.09853135 -0.1679569

fc2c.bias f4 [32]
00000000: 9588 cf3d ca96 063d fa90 42be c7c4 debd
00000010: 9b05 e8bd 002a 583d bf93 a9bc 3e21 0dbe
00000020: f1ab 123e baa0 eb3c c2b3 2b3e f214 113e
00000030: 7c7c 4c3d a57f 89bc 3624 39be 3181 1e3d
00000040: d3c9 903c d596 6a3e 35ee ab3d 0a04 db3d
00000050: ffd9 aa3a 04c1 f53c 67c8 41be e340 043e
00000060: bc83 1b3e 185c 81bd f034 453d 6152 b03d
00000070: f632 2d3e 28d6 57bd ea8d 633b 294e 223e
0.10133473 0.032858647 -0.19000617 -0.10877376 -0.11329194 0.05277443 -0.020700334 -0.13782212
0.14323403 0.028763164 0.16767791 0.14168146 0.049923405 -0.016784498 -0.1808022 0.038697425
0.017674362 0.229091 0.08395044 0.1069413 0.0013034939 0.029999264 -0.18924104 0.12915377
0.15186971 -0.063163936 0.04814619 0.086094625 0.16913971 -0.05269447 0.0034722039 0.15850128

fc2d.weight f4 [32, 32]
00000000: 4a70 b23d 4ca6 203e 999c b13b b99f fa3d
00000010: 530c c2bc b54d 6c3d eadc a4bc 9d63 4abd
00000020: 8fc2 feba 5d72 6d3d b3af 2fbe ac72 a9bd
00000030: 3aa3 d4bd e6e1 afbe e76f f53c cb6b 86bd
00000040: fc87 f23d a9fc ab3d 207d 78be 47f8 6f3e
00000050: e91b bf3d 3969 9c3e 2e5b 61be 7dab 903e
00000060: 8dcb 79bc e114 8dbe 08bc af3e a3f2 5bbe
00000070: 162f 03be 61c0 3e3e f34b e8be 26d9 a43d
00000080: 9a86 60bd 59d3 243e d4e6 dd3d 8c7c 793e
00000090: 28a3 653e 05ac 01be f7a9 c33e e67f c53e
000000a0: 4937 91be 1085 ebbc a66b 9abe bb29 afbe
000000b0: ce12 82be 811b 623a 1364 d43e bf03 1cbe
000000c0: 9578 79be 56c1 06be f6f3 203c f3c4 033d
000000d0: 4480 b0bd eb8c 2abe 7c40 a03e 7853 b1bd
000000e0: 282f 153d 263f 30be 16cd 43be 1d6e 22bc
000000f0: b93c aabe f990 093d e9d6 febd db83 07be
00000100: 6037 453e 0fd8 c93d 59da 5dbe 8a03 abbd
00000110: 61f0 a93d 1cb1 2d3e 6df4 c83d f2d1 36be
00000120: c667 c83d e2cf 433e c96e 973e ede3 39be
00000130: c228 5b3e 6501 a9bd 58b3 6fbe 4792 70be
00000140: fa5e e33d da8f abbd 8206 29bd d528 613e
00000150: 12c4 2d3d 40d8 f9bd 2e6b 45bc d363 95be
00000160: 0add fbbd 208b 04be 4c19 1fbd 431d 983c
00000170: 8061 053d 8d53 82be ed19 d53d c0a6 463e
00000180: 64fa 213b 9fac e5bd 750d e93b eef1 8dbe
00000190: 7ab0 033d 33b9 623d e084 263d f9f2 45be
000001a0: 2add afbb 7eac 86bd 31c4 073d cea3 4abd
000001b0: 469e f6bb 15ec 663e b97c 9bbc 7f88 133e
000001c0: a417 0f3e f5cc 92bc e774 13be b85e 2a3e
000001d0: 71a3 1cbe 1382 46be 06f0 bdbc 3701 2a3e
000001e0: 70e4 2b3e 3ce2 83bd 7eb2 9abd 8015 48be
000001f0: 2ec8 fdba de90 db3d fd02 4e3e 4058 a6bd
00000200: 4143 b1bd eb60 02be aed7 623b 8e5e af3d
00000210: 3c80 4b3d c6b9 2cbe d102 203e 373d bb3d
00000220: 36b8 ab3d 38c5 88bd 03ee 4d3e fc5b 4b3e
00000230: 33d2 8bbd ae1b 7b3e 7649 f23d bf89 adbd
00000240: e71e c33d e97c 3fbe d350 d23d 51dc 9a3a
00000250: 3d83 18be 0f7b 0dbe edca 8c3d 48c2 a93d
00000260: f4db 3c3e 931c bf3d b332 0cbe e76c 823e
00000270: ee8e a2bd ff0e b5ba 4e35 1c3e 79e6 aa3d
00000280: 11f3 24be 049a c43d fa9c 483e 915d da3d
00000290: 80db 153d 5d9f c1bc faff cdbd c741 823e
000002a0: 6206 b7bc 7bb8 3a3e d429 f0bb 0596 8ebe
000002b0: 998e 863d c9ea 46be b6a5 eb3d ba4e debd
000002c0: 52cc 95be 5362 513d 95d4 2cbe 5756 16bd
000002d0: e378 f5bd e322 3b3e 45ce fc3e 631e 66be
000002e0: 76d1 95be 3966 6abe d15d f63d 12ee 89be
000002f0: 7736 ebbe 1582 223e 6089 2b3a 3ee7 30bd
00000300: df32 34bc a51e 69be 943f be3c d9e5 4dbe
00000310: daec 683e bfec 1a3e 9e0c 283d 19ce 79be
00000320: 2fdb d43d 91ff 1bbe 7f24 9d3d b898 873e
00000330: 1b66 043e 53f9 2dbd 2b6e ccbe c7b7 963e
00000340: a54d 8f3e 4d0c 6d3c ad03 553e 7714 1c3e
00000350: 0d1b 233d 565e 00be 1056 ddbe 0ee8 393e
00000360: aa59 793e 9de6 b43e ce7b aebd 680f 003e
00000370: 418a db3e 7bd4 c73d c51c 6d3d 589d 0abe
00000380: 4f28 17be 9243 243d 9faf d2bd 03a9 823d
00000390: fe33 113e 4c83 003c cbee 433d b0b7 a3bc
000003a0: 13c2 eb3d dd97 7ebc 6845 203e 48bf 9fbb
000003b0: 9a27 2cbe 8698 bb3d add9 ae3b b99d 30be
000003c0: a74b ecbd ece2 063e 1f93 ff3d 705f 2dbe
000003d0: 78f6 213e d0a6 a2be d76d 953d bbe0 80be
000003e0: 1013 873e 330b b53e bae6 c2be 397a 643e
000003f0: f660 24be 7077 1abe be2d 173f bbc8 20be
0.08712824 0.15688437 0.005420279 0.12237496 -0.023687517 0.057691295 -0.020124871 -0.049411405
-0.0019436645 0.057970393 -0.17156868 -0.08273825 -0.103826955 -0.34352034 0.029960586 -0.065635286
0.11842343 0.083978005 -0.24266481 0.23434554 0.09331495 0.3054903 -0.22007439 0.28255835
-0.015246284 -0.27554992 0.34323144 -0.21479277 -0.1281093 0.18628074 -0.45370445 0.0804923
-0.054815866 0.16096248 0.108350426 0.24363917 0.2242552 -0.12663276 0.3821561 0.3857414
-0.28362492 -0.028749973 -0.30160254 -0.34211525 -0.25404972 0.0008625314 0.414826 -0.15235804
-0.24362405 -0.1315969 0.00982379 0.032170247 -0.08618215 -0.16655318 0.31299198 -0.086584985
0.036421925 -0.17211589 -0.19121203 -0.009913948 -0.33249453 0.033585522 -0.124433346 -0.13233893
0.19259405 0.09855663 -0.21665324 -0.083502844 0.08297802 0.16962093 0.098122455 -0.17853525
0.09785418 0.1912227 0.2957671 -0.18153353 0.21402267 -0.08252219 -0.23408258 -0.234933
0.111021 -0.08377047 -0.041265972 0.21988232 0.042423315 -0.121994495 -0.012049479 -0.29177722
-0.12298019 -0.12943697 -0.038842484 0.01856864 0.032563686 -0.2545437 0.104053356 0.19399548
0.0024715895 -0.112145655 0.0071122 -0.2772364 0.032150723 0.0553524 0.040654063 -0.19330968
-0.005366941 -0.06575869 0.033146087 -0.049472623 -0.007526192 0.22550996 -0.01898037 0.14407538
0.13973862 -0.017919997 -0.14400063 0.16637695 -0.15296723 -0.19385557 -0.023185741 0.16602026
0.1678636 -0.06439635 -0.07553576 -0.19539452 -0.0019362026 0.107209906 0.20118327 -0.08122301
-0.08655406 -0.12732284 0.0034613418 0.08562957 0.04968284 -0.16867742 0.15626074 0.09142535
0.08384745 -0.066782415 0.20110326 0.19859308 -0.06827202 0.24522278 0.11830418 -0.084735386
0.095273785 -0.18699993 0.10269322 0.0011814927 -0.14893813 -0.13816474 0.068746425 0.08289009
0.1844328 0.09331622 -0.13691215 0.2547371 -0.07937418 -0.0013813673 0.15254709 0.083447404
-0.16108347 0.09599689 0.19591132 0.106623776 0.036586285 -0.02363556 -0.10058589 0.2544081
-0.02234191 0.18234436 -0.007329205 -0.2784883 0.06570167 -0.19425501 0.11506216 -0.1085486
-0.29257447 0.05111916 -0.16877969 -0.036703434 -0.11985948 0.18275027 0.4937612 -0.22472529
-0.2926137 -0.22890557 0.12029613 -0.26939446 -0.4593999 0.15869935 0.0006543603 -0.04318928
-0.010998457 -0.22765596 0.023223676 -0.20107211 0.22746602 0.15129374 0.041027658 -0.24395026
0.103933685 -0.1523421 0.07672977 0.26483703 0.12929575 -0.042474102 -0.399278 0.29437086
0.27988926 0.014468265 0.20802183 0.15242182 0.03982072 -0.12535986 -0.43229723 0.18154928
0.2435061 0.35332194 -0.085197076 0.12505877 0.42878917 0.09757324 0.057888765 -0.13536584
-0.1476147 0.040103503 -0.10287403 0.06379893 0.1417999 0.007843804 0.047835153 -0.01998505
0.11511626 -0.015539137 0.15651476 -0.0048750974 -0.16811982 0.09159951 0.0053360076 -0.17247666
-0.11537867 0.13172501 0.12479233 -0.16930938 0.15816677 -0.31767893 0.07296341 -0.25171456
0.2638173 0.35360107 -0.38066655 0.22312249 -0.16052613 -0.15084624 0.5905417 -0.15701573

fc2d.bias f4 [32]
00000000: 7529 66bd 4d8b b23d 3a23 f3bd be0a fc3d
00000010: 503d f83c d32a f3bb e2e7 013e de14 83bd
00000020: 7e14 9bbb e281 6d3e 4472 1a3e 7e00 23be
00000030: 06df c2bd 2092 09bd 3060 afbd cdc1 1ebe
00000040: 2dcf 0c3c 53a9 b6bd 64df 203d 5605 693d
00000050: 0725 fe3b 6a24 7cbe 926c e53d 6b4c 0c3d
00000060: f182 01bd 9ba8 8dbe 6868 863d 06fa 0abe
00000070: 7f87 fe3d ec09 1c3e 0d6c 0a3d 2e43 143d
-0.05619188 0.08717976 -0.11871953 0.123067364 0.030302674 -0.0074208765 0.12686113 -0.064004645
-0.0047326675 0.23194078 0.15082651 -0.15918157 -0.095151946 -0.03358662 -0.08563268 -0.15503617
0.008594316 -0.08919015 0.039275542 0.056889854 0.007755879 -0.24623266 0.11202349 0.034252565
-0.031619016 -0.27667698 0.06562883 -0.13571939 0.124281876 0.1523816 0.03379445 0.03619688

fc2e.weight f4 [32, 32]
00000000: 7923 3b3c c3d3 c23d 7665 4dbe 3bbe c23d
00000010: ea96 20bd 44da 613d 5c85 4b3d d4ab b13c
00000020: b0ec acbd b752 c93c ef3f 8bbe 06da 493e
00000030: 9227 123d 88b9 69bd 498e 273d 73d0 51bd
00000040: 9860 4cbe b417 0c3e 6b8d 81be 4bd7 a93d
00000050: 0bc8 7ebd 8e64 6b3d 92c1 b5bd 3cff cfbd
00000060: 1321 e1bd 2516 043e 3082 cb3d 7cc6 293d
00000070: 121a 8a3c 52de 93be a603 2c3e 79a4 30be
00000080: d62d f8bb 3bc3 09be 5415 3dbe 3c81 ffbd
00000090: 45b3 1c3e bdd3 ccbd 8dc2 6cbc e477 273b
000000a0: 17ba 8b3e 761f 57be dee2 4d3e 3c92 52bc
000000b0: 85b3 3c3e 6c15 00be 386d 123e b60c 7c3d
000000c0: 46a7 7e3d df28 48be d69b 12be ae73 5ebe
000000d0: 4e1e edbd a2d4 353c 4a8c 043e e1fd 8dbd
000000e0: ffdc 403e b6da 3b3e c6f7 973d 09c6 983e
000000f0: 565c cdbd da65 bcbd a9eb 90be a241 ab3b
00000100: c811 9a3d 1f30 2a3d 2f79 b1bd 2c2f 5fbc
00000110: 108d a93d 60b2 6b3e 45e2 20be f1ca 483e
00000120: 61c3 53be 2abd 8b3d f5fd 613e adec 24be
00000130: c766 48be f469 6fba baf8 bcbc e79c 74bd
00000140: 58e2 7bbe e614 5dbe ad0b 26be 4a7d 523e
00000150: 6e6b 1a3e 7a4f 8e3d 0aa3 96bc bb84 62be
00000160: c0d0 543e 5f8a 3a3e d05b 093d 00be f53d
00000170: 7eb9 013e 8595 543d 3931 0c3c 5c18 ce3d
00000180: 51a8 7fbd da8d 3dbd ecff 88bd 6576 783d
00000190: f7b5 2c3e c9f1 833a 2032 07bc 5f9b 1a3e
000001a0: aacb 35be ede0 4d3e d8e2 223e 88cc 093e
000001b0: eb00 b4bd 160d 65bc 456d cabc 03f2 bebd
000001c0: b131 a43d 517d cb3b d4f0 993d a1f2 2e3e
000001d0: 13f3 2b3d 9380 bb3d 9020 b23d ea9b 29bd
000001e0: 3d12 9dbc 209a 09be d103 b5bd 720f bfbd
000001f0: e799 6fbd 938d 6d3e 9e18 0dbd 2901 14bd
00000200: e372 593e 1eb0 883d a625 a1bd 81c3 7c3c
00000210: d2b7 81be dacf 6abe e369 3fbe 8abb ae3d
00000220: dec7 823e 5ffe 413e 5d48 8b3d b602 c0bd
00000230: 714c 87bc aac8 8bbd 8e59 933d 4ab5 edbc
00000240: 7135 1ebe de99 02be c413 cdbc cd54 aa3d
00000250: 3efb ca3e 7608 49be 976b c1bd abc2 8dbe
00000260: 8d74 093e d77b f93d 2e43 0c3e 7eca 063e
00000270: 0dff 013e c9c9 1dbd 1967 10be 88ce adbd
00000280: 41dd bcbe 66d9 b1bd 0ab3 c83d 3ed8 4b3d
00000290: 944e d33e c532 d3bd f870 26be d47b c33e
000002a0: 4de5 86bd 7ebc 8fbe 36bd 98bc e56c 123e
000002b0: 792e 04be e1c4 173d ff09 7f3d 0b21 46bd
000002c0: 4970 55bd f904 7dbe 3449 f7bc 4054 403e
000002d0: da2f bbbd 5dbc 513e 3886 f6bd 0d3e 833e
000002e0: 53cc 6f3e 9557 18be 4004 1b3e a48a 613e
000002f0: 9b66 be3e 1392 dd3d 3926 c6bd 0a33 de3b
00000300: a96b b53d 4384 4c3e acc5 45be 6114 2ebe
00000310: 3f7c 433e a0a7 80bd 5dd7 6cbe 7c47 df3b
00000320: e91d 933e a8c6 24bc ffee 803d c05c 513e
00000330: 4f16 fb3d df03 763e f1ec df3d 1e5d 9dbd
00000340: 3ffc d83d 8a6a b03d 20f5 05bc ec3b 5ebe
00000350: 6539 823d 247e cc3d 4c51 ad3d 5156 413e
00000360: 2add 46bd 248b 0c3d 84d1 173e e40e 06be
00000370: fd16 ca3d 0c91 7bbe ff3b 5cbd 8544 b9bd
00000380: 75df 9d3d f57b 5cbe 092b 733e 78ec 733e
00000390: 4703 083d 3a4c 073d da75 813e e9fe 043d
000003a0: ce34 97bd 4927 a13d c426 1b3e afa7 9e3d
000003b0: 33e9 853e 1d99 77be 1ac9 05be 7d38 e03d
000003c0: 7b44 86be 23cd 473e be5f 24be 7685 be3c
000003d0: f0d6 b13d a4e7 1c3e c144 d03d 8fc6 bf3c
000003e0: 79fc efbd 336f 8bbd d380 dc3d 9384 253e
000003f0: ae70 bdb6 efbc de3d 261a 32bc 6bd0 803d
0.011422032 0.095130466 -0.20058236 0.0950894 -0.039206423 0.055139795 0.04968773 0.02168838
-0.08443582 0.024575574 -0.27197215 0.19712076 0.03568227 -0.057061702 0.040907178 -0.051224183
-0.19958723 0.13680917 -0.25303206 0.08293017 -0.062202495 0.057468943 -0.08874811 -0.10156104
-0.109926365 0.12899072 0.09936941 0.041449055 0.016858134 -0.28880554 0.16798267 -0.17250241
-0.0075738234 -0.13453381 -0.18465167 -0.124758214 0.15302761 -0.10001323 -0.014450681 0.0025553638
0.27290413 -0.21008095 0.20106074 -0.012852248 0.18427856 -0.12508172 0.14299476 0.06153556
0.062171243 -0.19546841 -0.14317259 -0.21723816 -0.11578046 0.011098059 0.12944141 -0.06933189
0.18834303 0.1834515 0.07420306 0.2983859 -0.10027377 -0.09199114 -0.28304794 0.00522633
0.07522923 0.041549798 -0.08665692 -0.0136220865 0.08278859 0.23017263 -0.15711315 0.19608666
-0.2068 0.068231896 0.22069533 -0.1610591 -0.19570456 -0.0009132915 -0.02306782 -0.059719946
-0.24598062 -0.21590003 -0.16215391 0.20555606 0.15080044 0.06948753 -0.01838829 -0.22120945
0.20782757 0.18216847 0.033534825 0.1199913 0.12668416 0.051900405 0.0085566575 0.1006324
-0.06241638 -0.04627786 -0.06689438 0.060659785 0.16866289 0.0010066564 -0.008251697 0.15098332
-0.17753473 0.20105334 0.15906847 0.13456929 -0.087892376 -0.013980171 -0.024710307 -0.09323504
0.080172904 0.0062100072 0.075166374 0.17084743 0.04197986 0.09155383 0.08697617 -0.041408457
-0.019173736 -0.134377 -0.088386185 -0.09329118 -0.058496382 0.23198538 -0.034447305 -0.03613392
0.21235232 0.06674217 -0.07868509 0.015427471 -0.25335556 -0.22930852 -0.18692736 0.08531864
0.25543112 0.18944691 0.068009116 -0.09375517 -0.016515942 -0.06825383 0.071948156 -0.02901711
-0.15450074 -0.12754008 -0.025033839 0.08316956 0.39644808 -0.19632134 -0.09444349 -0.27687582
0.13423367 0.12181824 0.13697502 0.13163182 0.1269495 -0.038522515 -0.14101829 -0.08486658
-0.36887553 -0.086840436 0.09799774 0.04976677 0.41270888 -0.10312418 -0.16254032 0.3818041
-0.065867044 -0.28073496 -0.01864491 0.14299352 -0.12908353 0.037052993 0.062265392 -0.048371356
-0.052109037 -0.24708928 -0.030186273 0.18782139 -0.09139986 0.20482011 -0.12037319 0.25633278
0.23417787 -0.1487716 0.1513834 0.22025543 0.37187657 0.10818877 -0.09675259 0.0067809867
0.08858425 0.19972329 -0.19313687 -0.16999961 0.19090365 -0.06281972 -0.2312903 0.0068139415
0.28733757 -0.010057129 0.06295585 0.20445538 0.122601144 0.24024914 0.10933865 -0.07683776
0.10594987 0.08614071 -0.008176118 -0.21702546 0.063586034 0.09984997 0.08462772 0.18880583
-0.048550762 0.034312382 0.14826018 -0.13091618 0.09867666 -0.2456705 -0.053768154 -0.09046272
0.07708637 -0.21531661 0.23746885 0.23820674 0.03320625 0.03303168 0.25285226 0.032469664
-0.073831186 0.07868821 0.15151507 0.07746827 0.2615448 -0.24179502 -0.13064995 0.10948274
-0.2622412 0.19511847 -0.16052148 0.023256999 0.08683574 0.15322739 0.10169364 0.02341011
-0.11718077 -0.06808319 0.10766759 0.16163854 -5.6457566e-06 0.1087588 -0.010870492 0.062897526

fc2e.bias f4 [32]
00000000: 4cbc 04be 7be2 bebd aabc 78bd 259c ebbd
00000010: f13d a43d be65 8a3c d2f2 cf3d 2f13 8c3b
00000020: 33d4 09be 5d8f 93bd cd07 c2bd 0d2c cc3c
00000030: 2f2d 73bc 6517 fb3d bf95 123d bef6 163e
00000040: 858d 003e 14b7 68be 14e9 0b3e 780a 83bd
00000050: cffe 0bbe 8a7a d6bd 9c9c 673e d735 e13d
00000060: 76b6 473d 2b13 243d 1da9 233d f5e0 40bd
00000070: bba8 743d ebc0 b73d 8f0a 99bd ebfb 093d
-0.12962455 -0.093205415 -0.0607268 -0.115043916 0.08019627 0.016894218 0.10153736 0.004274748
-0.13459854 -0.07205079 -0.09474144 0.024923349 -0.014842316 0.122603215 0.03578734 0.14742562
0.12553985 -0.22726089 0.13663131 -0.06398481 -0.1367142 -0.10472591 0.22618335 0.10996597
0.048757993 0.040057342 0.0399562 -0.047089536 0.059731226 0.08972343 -0.07472717 0.033687513

fc2f.weight f4 [32, 32]
00000000: b881 503e ca7f 073e 070f 5ebd 72c6 04be
00000010: ffd7 b4bd 22e7 14be 70e2 5a3e d371 f8bd
00000020: be74 233e 01a3 0c3e 4e35 bf3d 3e57 30be
00000030: 511d 7b3d 6d14 0fbe f4ca 473e 5e6b 773c
00000040: a115 acbd 3022 e03b 5ac1 62be 3354 013e
00000050: c482 0ebb d8c8 873b 2f39 75be bd60 a13c
00000060: cb0c 4f3c ea49 d53e 7a9f 1b3e 40f2 373e
00000070: d1cf 8c3d 878e 76be 9962 36be d556 72be
00000080: 6e50 643e 64cc cc3d 937c ffbc 42b5 36bd
00000090: cbbe b9be 741f e93d c66e f1bd 2493 d03d
000000a0: a128 ee3d d185 cb3d a197 7c3c 7b7c 77be
000000b0: 5d62 32be 5e11 91bc 0ba3 88be f729 b8be
000000c0: 9b63 42be dd68 633c 8798 1b3d 4077 23bc
000000d0: bff2 a73e b5af 53bd 51c8 a13d 7e39 c83d
000000e0: 87a8 a53d 6391 2d3e e97c 47bd 34a1 8abd
000000f0: cc3f 08be cd63 a0bd 30b0 8abe aa32 44be
00000100: 4bc5 cc3b 381d 9b3d 6a36 43be 706f 033d
00000110: a089 893d 8b47 11be d392 8bbb f26c d23d
00000120: d139 52bd 1732 71be e09a c33c 703d 0bbe
00000130: 871d a1bd 2659 853d 40ce a63c 8484 02be
00000140: 0df3 843d ea81 a2bd e04d 9fbd c433 5b3d
00000150: 2ad9 5bbe d295 d43b 0f9c c53d 2e66 573d
00000160: 28f8 833e e12b 71bd e7bf 353e db87 86bd
00000170: da26 053e fe38 bc3d 6cc5 35be 9823 023e
00000180: 55f6 1cbd 07ab a83e ed7a 763e 5508 72bd
00000190: 0ecb 813d 3842 3e3e 3f45 d63d 0d0e 0e3d
000001a0: 79c0 a33e 3f7d 2d3e 02ef 373e b8fc 68be
000001b0: ddc4 0cbe 766a 30bd f910 cf3b 1706 78bd
000001c0: 5e1c 233d d8b5 953e c283 843c d3e1 e7bd
000001d0: 53f6 423d 7537 623d e4f1 a13d 5989 393e
000001e0: 9d25 17be 41ea 94be e10d 0bbe c691 383e
000001f0: 8531 793e b631 b93d 9b4c 3aba 663c c9bd
00000200: a920 693e d524 eabd 91cd dbbe 9865 c7bd
00000210: b6b0 d6be 17fe 013e 6f1f 923e 653e a8be
00000220: 1dcf 5abe 2a51 563d fcae cc3d 3120 b13d
00000230: a907 363e 980e bebe 5daa 513e b999 98be
00000240: 72c5 51be 275a 713e 1b1d c0bd a2cd 89be
00000250: 878b 4d3d 343b ed3e eb5e 57be 4050 d0bd
00000260: 5a27 b13e f1e8 ba3e 0431 3ebe 5d69 e43d
00000270: fb54 3dbd 4b27 14be 5887 85be b9e0 07be
00000280: d1e2 0c3e b335 b5be f235 b03d 3903 57bd
00000290: 97fd 793e 53bc bfbd 801f 193e 221a 1bbe
000002a0: c46e 4cbe 9032 05be ccab debd b465 753e
000002b0: 85a5 5d3e b06c 0fbe 2f57 9f3d fbfa 143e
000002c0: ca72 2cbe b2d5 57be 701d 773b 6ebb 833d
000002d0: f75b 763d c055 be3d 9b73 063e 0ede 3c3d
000002e0: e071 66bd 0075 113e 0821 91bc 4e91 1dbd
000002f0: da40 5dbe 0e79 283e 9c7b 7f3d bdac 263c
00000300: 9953 493e bbb5 d6bc 10c4 4ebd 800b 683e
00000310: 2551 7bbe fe0a eab8 e2d1 13bd 6da7 e43d
00000320: 3336 61bd 9b27 34bd 36d2 86bd 29d8 a63d
00000330: 9687 0dbe 5071 92bd c92e 41bd 023e 003e
00000340: c9b2 aabd 73ef 1c3e d0d4 1f3e a332 23be
00000350: 8653 e4bd 6ce4 3d3e 4e69 28be 83f9 b1be
00000360: c295 113d 1a7f f8bc 83eb 90bd 655c d4bd
00000370: 6ce6 c33d 9c9d 10bd 732f 89bd df64 03bd
00000380: 4da9 6fbd 0fef 1abe c386 b13d 96d1 08be
00000390: f336 573d 7608 0f3d 90d2 a03c 723a 35be
000003a0: 8d79 8a3d e113 253d c9e3 d6bc f577 073e
000003b0: baf2 d13d 6324 113e 5d84 b7bd b2e9 35bd
000003c0: ab60 96bd 4c61 ba3c 6328 c7bd 822e 1a3e
000003d0: 72f0 003e a1af 4bbd d223 d13d ca37 743d
000003e0: 3702 e1bd 2590 043e ec5e ba3d 16aa d83c
000003f0: 3529 533c ecce 223d 2804 813e f51f 043e
0.20361984 0.13232341 -0.05421355 -0.12966326 -0.088302605 -0.14541295 0.21375442 -0.12131085
0.15962502 0.13734056 0.09336339 -0.1722078 0.061307255 -0.13972636 0.19511014 0.015101282
-0.08402563 0.006840013 -0.2214407 0.12629776 -0.0021745423 0.0041438155 -0.23947595 0.019699449
0.012637327 0.41657954 0.15197554 0.17963505 0.06875575 -0.24077807 -0.1781105 -0.23665936
0.22296306 0.09999922 -0.031187331 -0.044606455 -0.36278376 0.11382952 -0.117887065 0.10184315
0.11628843 0.09937633 0.0154170105 -0.2416858 -0.17420335 -0.017708477 -0.26686892 -0.35969517
-0.18983309 0.013879982 0.03798726 -0.009977162 0.32802388 -0.05168124 0.078995354 0.09776591
0.08088785 0.16949992 -0.048703108 -0.06769028 -0.13305587 -0.078315355 -0.27087545 -0.19159952
0.006249105 0.075739324 -0.19063726 0.032088697 0.06715703 -0.14187448 -0.004259446 0.10274686
-0.05132467 -0.23554264 0.023877561 -0.13597655 -0.0786696 0.06511144 0.02036202 -0.12745863
0.06491671 -0.079349354 -0.07778525 0.053516164 -0.2146956 0.0064875865 0.096489064 0.05258768
0.25775266 -0.058879737 0.17748986 -0.06568881 0.13003102 0.09190558 -0.17751092 0.1270889
-0.038320858 0.32942984 0.2407033 -0.059089977 0.06337558 0.18579948 0.104624264 0.03468137
0.31982782 0.16942309 0.17962268 -0.22752655 -0.13746972 -0.04307028 0.006319162 -0.060552683
0.039821975 0.29240298 0.016176108 -0.113223694 0.047598194 0.05522867 0.07907465 0.181188
-0.14760442 -0.29084972 -0.13579513 0.18024358 0.24335296 0.09042685 -0.0007106752 -0.09825973
0.22766365 -0.114328064 -0.42930272 -0.09736174 -0.41931695 0.12694584 0.28539607 -0.32860103
-0.2136807 0.052323498 0.09994313 0.08648718 0.1777636 -0.3712051 0.20475145 -0.2980478
-0.20485476 0.23569547 -0.093805514 -0.26914698 0.05018189 0.4633423 -0.21032302 -0.101715565
0.34600335 0.36505845 -0.18573385 0.11152909 -0.04622362 -0.14468114 -0.26079822 -0.13269319
0.13758399 -0.35392532 0.08604039 -0.052493308 0.24413143 -0.09362092 0.14953423 -0.15146688
-0.19964129 -0.1300757 -0.108726114 0.23964578 0.21645172 -0.14006305 0.07780301 0.14548866
-0.16840664 -0.21077612 0.0037706755 0.06432234 0.0601463 0.09293699 0.13130037 0.046110205
-0.056260943 0.14204788 -0.017715946 -0.03846865 -0.2160677 0.16452429 0.062373742 0.01017302
0.19660796 -0.026209703 -0.05047995 0.22660637 -0.24542673 -0.00011160037 -0.03608883 0.111647464
-0.05498333 -0.043983083 -0.06583063 0.08146698 -0.13821253 -0.07150519 -0.04716376 0.12523654
-0.08334882 0.15325718 0.15608525 -0.15937285 -0.11148743 0.18544167 -0.1644642 -0.34760675
0.03554321 -0.030334044 -0.0707617 -0.10369185 0.09565434 -0.035306558 -0.06698503 -0.03207862
-0.058511067 -0.15130256 0.08668282 -0.133612 0.052542638 0.03492018 0.019631654 -0.17698076
0.06761465 0.04030216 -0.026231663 0.13229354 0.102513745 0.14174037 -0.08960793 -0.044412322
-0.07342657 0.022751473 -0.097245 0.15056804 0.12591723 -0.04972804 0.1021191 0.059623517
-0.109867506 0.12945612 0.09100136 0.02644829 0.0128882425 0.039748117 0.25198483 0.12902816
