model_l1_l2.pth (torch, 113654 bytes, 54 tensors)

fc1.weight f4 [32, 1]
00000000: c757 e23c 0ec4 a53d 3552 a03f 9703 9a3c
00000010: 1824 583f 6e4e 3fbf 3f2a d63e 5cc9 cb40
00000020: 5991 67bd f317 71bd 8d09 abbd f012 fd3e
00000030: c372 b93d 6626 2a3d cc68 373f e392 4e3d
00000040: f310 66bd e79d 9bbe e547 5fbe eb49 0a3f
00000050: 10b6 9bbf d20b 423d 68d2 b6be a16c 32bf
00000060: d125 49bf a0a9 013f aa72 32bd 1142 87be
00000070: 4713 13bf 66ff c83e 1b89 e23e 740e 5e3d
0.027629746 0.08094035 1.2525088 0.01880054 0.84430075 -0.7472905 0.41829106 6.36833
-0.0565351 -0.05886073 -0.08351431 0.4942851 0.09055092 0.041540526 0.7164428 0.05043305
-0.056168508 -0.30393907 -0.2180477 0.5401904 -1.2164936 0.047374554 -0.35707402 -0.69697005
-0.7857333 0.5064945 -0.043566383 -0.26417592 -0.5745129 0.39257354 0.44245228 0.054213002

fc1.bias f4 [32]
00000000: 7b26 bcbf 34cb 97bf 3762 b7bd af77 febf
00000010: 9fee 6dbe 0e5a a53f 78c1 de3f 09d5 843e
00000020: 52ea 9abe 43b8 30be e2da 0b3f 0b68 4cbf
00000030: 5d16 54bf 4a08 d9bf 8ac9 85bf 4b48 623f
00000040: bfe8 57bf d9ed 30c0 e80d 9e3f 19e0 66bf
00000050: 6686 e93e 3778 08c0 419a 51c0 08ad 2d3f
00000060: 1e04 a73f e60e 85bf 204d 0b40 e631 ea3f
00000070: 7aa1 45bf 6632 abbf c7fa 7040 9637 70bf
-1.4699243 -1.1858888 -0.0895428 -1.9880275 -0.23235558 1.2918108 1.7402792 0.25943783
-0.30256897 -0.1725779 0.54630864 -0.79846257 -0.82846624 -1.6955655 -1.045213 0.8839156
-0.8433952 -2.764517 1.2347994 -0.90185696 0.4561035 -2.1323373 -3.27504 0.6784215
1.3048131 -1.0395172 2.1765823 1.8296478 -0.7719952 -1.3374755 3.7653062 -0.9383482

fc2.weight f4 [32, 32]
00000000: 906f 05be a570 35bd 4e9a 973c 3a39 50bd
00000010: cd96 2cbe 037b 203f ca6c d2bd 960b 443d
00000020: 6d63 263e 557c 113d 855e fd3e 1ebf 02bf
00000030: 8613 acbd 1844 61bd ccdd 21bf efea 9e3d
00000040: effa c0bd f40e efbc 9591 a43e 158c f7be
00000050: ec39 5c3e 88fa 6abe c682 b5bd 8a2c e93e
00000060: d7dc d83e 6d36 0bbf caa7 083e b8a2 d63e
00000070: c04a eebd 6401 0fbf f186 c23d 795f 5cbd
00000080: 8f9a a6be 0371 afbe 7fc6 ecbb bd64 c3be
00000090: 77fe 9b3c 41a7 8b3e e41a 7e3d 2f42 d5bd
000000a0: 99e8 af3e f26a 923e bab6 c83e e6d1 28be
000000b0: 3a10 7cbe 4bd8 7bbe 4808 bcbe cc5c 3dbe
000000c0: 3551 223e b898 ebbc a2d3 1f3f add8 b1be
000000d0: 3cab 233e b9cf 94be 8b79 823e 0788 843e
000000e0: f10b 983e 4dc7 12bf 542f 803e 8caa 183f
000000f0: 6c7d 12bd 0416 d4be 414b 3ebe 5e86 8cbd
00000100: c6b4 68bf 775f 0abf 1621 3b3d c3a5 39bf
00000110: 2896 83bd 03e2 b3bd cd14 b5bc 2ada ed3d
00000120: 4837 893e c4ea 6c3e dcf1 1b3d 1d1f 53bd
00000130: 8dbd a4be 1ef1 8bbf 71be c3bd 8351 f7bd
00000140: 28d7 a93e 93db ba3e f4e8 2f3e f062 b83d
00000150: 386f 65bc d3e1 87bf 420e e33d a643 c7bd
00000160: 5eab 2fbd 5c55 08be 1b95 993f 0025 313e
00000170: 6b1d 38bd 516a 0dbe 326c 67be 636b 24bf
00000180: 463c 3c3f c304 483f 3222 92bd dc93 153f
00000190: 35e1 2d3e 9ce8 d2bc a0ed 37bd 3c74 303e
000001a0: 8c34 5b3d 7f90 54be 8aef 6ebe ca3b 593e
000001b0: f974 933e 40ce 4f3f daec 27bd 6237 f5bd
000001c0: acc0 973b 19f4 1f3e 619c 87be 5ddc 973d
000001d0: a95a 52be 8b01 853f d1e1 863d b6c4 25bd
000001e0: 30ff 51be 3a98 463e 16f1 7ebf d804 8bbc
000001f0: b14b e6bd cda3 553e d131 093d db0a 1b3f
00000200: 42b6 0cbf 51d0 e5be 496d 28be 46fa e7be
00000210: be97 51bd 2d03 41bc d4c2 71be 3155 393e
00000220: 0210 4f3e a311 893e 4a1c 053e 4464 41bc
00000230: 0039 cdbe 9a6c c9be 9992 1ebd 9ae3 2c3b
00000240: 15cd 9c3e 212a 873e 5799 1d3d 8ad6 013e
00000250: 218a 683d 63cc 0ebf 268b 9c3e 7350 f0bd
00000260: e9d2 2c3e f78b 92bb 8a10 1f3f 623d ffbd
00000270: 8054 efbc c3d2 52bc c36b 51be e0e2 1abf
00000280: b307 c23e a104 513e 27fc 25be efae 193f
00000290: aaf7 733d 165d 96bd 4415 45be 1a26 33bd
000002a0: ea6e 1e3e be89 f53d a92f eabd b079 fbbd
000002b0: 47f3 18be c506 353f dedc 553d 3e08 0bbd
000002c0: 6644 483e 85c1 a43d ab90 4ebe 822b 98bd
000002d0: 61cb 903d c172 233f 09ab 693c 05cc a33d
000002e0: 8793 03be d720 233e 655d 23bf ca16 5cbe
000002f0: 472e 563e 4a27 c33c e2f1 0fbe f97b 873e
00000300: 8dcf d1bd 0354 eb3d 2e49 163e 096a a23c
00000310: d00a 5cba 645c bb3d eb6d a73e 9f78 9a3d
00000320: d88e a6bd 24a3 21be 1f92 8bbe 6a41 4b3e
00000330: e588 123d 2cb8 ebbb cf13 cd3d c89d ca3e
00000340: ef93 58be 7016 d8be 067c 1c3e 9e42 073d
00000350: 1d7c 123d b0ba 23bc 2eca 6ebe 98bd 633c
00000360: 23f7 77bd 19bc 07be 4ddf 823e 02e6 83bd
00000370: dcb7 3bbe c74d fabd 21f5 4c3e a0fe 6b3d
00000380: 8aa6 64bf 8961 f9bd 4840 613e cbbf f4bf
00000390: 50fb 353e 664b 08be f0fa d53e 00b3 a83e
000003a0: e44d f1bd 8385 a3be eda3 59be 5cc7 863e
000003b0: 1c6a 8e3e 4ecb 81bf 281e 3b3e 9a70 dc3e
000003c0: 7222 4fbe b608 d3be ea45 a0be f26d 9d3e
000003d0: f2b7 22be 7b2f 0fc0 3ef8 aabe 9cf9 25be
000003e0: 12b9 48be ba3e c53d 505f 0740 fa88 13be
000003f0: feac 0bbe 8202 cd3d 765c 553e b19d f6be
-0.13030839 -0.04429688 0.018506195 -0.050835826 -0.16854401 0.626877 -0.10274656 0.04786261
0.16248865 0.035518963 0.49486175 -0.5107287 -0.08402161 -0.05499658 -0.6322906 0.07759654
-0.09422862 -0.029181935 0.3214232 -0.48349062 0.2150647 -0.22947133 -0.08862834 0.45541793
0.42355987 -0.5437992 0.13345256 0.4192102 -0.11635351 -0.55861497 0.09498394 -0.053801987
-0.32539794 -0.3426591 -0.007225811 -0.38162795 0.019042237 0.27276042 0.062037364 -0.10413014
0.34357145 0.28597218 0.3920191 -0.1648632 -0.24615565 -0.24594228 -0.36725068 -0.1849243
0.1585129 -0.028759345 0.624323 -0.34735623 0.1598329 -0.2906473 0.25483355 0.2588503
0.2969661 -0.5733536 0.25036108 0.59635234 -0.035764143 -0.41423047 -0.18583395 -0.06861566
-0.9090084 -0.5405192 0.04568585 -0.7251856 -0.064251244 -0.08783343 -0.022104645 0.11613877
0.2679999 0.23136431 0.038072452 -0.051543344 -0.32175866 -1.0932958 -0.09557808 -0.12076094
0.33171964 0.36495647 0.17178708 0.09003246 -0.014003567 -1.0615791 0.11086704 -0.097297
-0.042888038 -0.13313812 1.1998628 0.1729927 -0.04494993 -0.13810088 -0.22599867 -0.6422636
0.7352947 0.78132266 -0.071354285 0.5842874 0.16980441 -0.025745682 -0.04490435 0.1723184
0.05351691 -0.20758246 -0.23333564 0.21214214 0.2880018 0.8117409 -0.040997364 -0.11973454
0.0046311226 0.1562046 -0.26486495 0.07415078 -0.20542397 1.0391096 0.0658604 -0.0404708
-0.20507503 0.19394007 -0.9958662 -0.016970083 -0.11244906 0.20863266 0.033494774 0.6056344
-0.54965603 -0.44885495 -0.16447939 -0.4530813 -0.051170103 -0.011780542 -0.23609477 0.18098904
0.2022095 0.26771268 0.12999073 -0.01180369 -0.4008255 -0.3934067 -0.038714025 0.0026380778
0.30625215 0.2639933 0.038476314 0.12679496 0.056772355 -0.5578062 0.30574912 -0.117340945
0.16877331 -0.0044722515 0.6213461 -0.1246288 -0.029215097 -0.012867632 -0.20451264 -0.60502434
0.378965 0.20411922 -0.1620947 0.6003255 0.059562363 -0.073419735 -0.19246393 -0.04373751
0.15471998 0.11989163 -0.11434872 -0.122790694 -0.14936553 0.70713454 0.05221259 -0.033943407
0.19557342 0.080447234 -0.20172374 -0.074301735 0.070700414 0.63846976 0.014261969 0.07997898
-0.12849246 0.15930496 -0.63814384 -0.21493068 0.20916091 0.023822445 -0.14057115 0.2646177
-0.10244665 0.11490633 0.14676353 0.019825952 -0.0008393945 0.091484815 0.32701048 0.07542538
-0.08132714 -0.1578489 -0.2725992 0.19849172 0.035775084 -0.007193586 0.10013544 0.39573503
-0.21150182 -0.42204618 0.15281686 0.033022515 0.035762895 -0.00999324 -0.23319313 0.013900183
-0.060538422 -0.13255347 0.2556099 -0.06440355 -0.18331856 -0.12221866 0.20015384 0.057615876
-0.8931662 -0.121768065 0.21997178 -1.912103 0.1777165 -0.13310012 0.41793013 0.32949066
-0.117824346 -0.319378 -0.21253939 0.26323974 0.2781533 -1.0140169 0.18273222 0.43054658
-0.20227984 -0.41217583 -0.3130334 0.30747944 -0.15890482 -2.237273 -0.3339252 -0.162085
-0.19601849 0.09631105 2.1151924 -0.14407721 -0.1364021 0.10010244 0.20836052 -0.48167184

fc2.bias f4 [32]
00000000: ed51 f23d 2bdb 073c 4152 adbe 7fc8 2b3e
00000010: e26a 86bc d715 ff3c 1372 863e 42fb d83e
00000020: c953 683e 1985 83be 02f5 763d a639 3b3e
00000030: b92b acbd c173 073e 7946 c4bd 5a61 e5bd
00000040: e375 193e fc25 bb3e 7d6d 9d3d 2e12 4bbe
00000050: fca8 35be 2c7e 47bd 4316 db3c 2caa 4d3e
00000060: 560d a5bd 3e04 87bc bd9d 1bbe e50f 86be
00000070: 549e 663e ffc5 463d c8a3 863d 9141 ab3d
0.11832032 0.008292 -0.33851817 0.16775702 -0.016408388 0.031138344 0.26258907 0.42379194
0.22688212 -0.25687483 0.06029225 0.1828371 -0.08406777 0.1322775 -0.09583754 -0.11200209
0.14986376 0.36552417 0.07686899 -0.19831154 -0.17740244 -0.04870431 0.026744014 0.20084447
-0.08059184 -0.016481515 -0.15196891 -0.26184002 0.22521335 0.048528668 0.065742075 0.08362115

fc2a.weight f4 [32, 32]
00000000: d70c 91be b302 04be f4de 01bd 9a7d 2b3e
00000010: a08f ef3d 86e6 693e b5b3 a5bd 624d 87bf
00000020: 25d3 a83d 7ae3 4b3f 26bc f63d 4647 003e
00000030: 6a4d a93d ddee 3ebd 0256 fe3e bfc5 163d
00000040: 2f7b 5fbd 4ab7 cc3d 01a7 663d f271 cd3d
00000050: 4571 f0ba 0ef8 7cbb 422a 98be c0d9 e03c
00000060: f6ff d53c f77a aa3e 1249 a73e 84a2 343d
00000070: ecb2 61be 8209 18be ebad 3dbe 1945 b1be
00000080: 17b9 dd3d 04e1 d93d 1fe9 c4bc 8080 1f3d
00000090: 747a a8bd ccba abbe 95f4 babd 44af 173f
000000a0: c9d7 103e 2404 eebe 7703 5f3e 8812 0d3e
000000b0: d3ba 1ebd c853 9dbd c38e cfbe ac18 91bd
000000c0: 3bcc 783d 20ed 33be 7536 ba3c 2bcd 48be
000000d0: 0f2b 0b3e c6bb f13d caec 133e ef22 383e
000000e0: eef5 8dbc f27a 90be 5508 3ebf 1eda 04bd
000000f0: e0fc f63c 13c8 a43e c794 07be ec15 033f
00000100: 2681 dc3e 7caa a03e 12b2 ee3e 56c6 bcbe
00000110: a6b3 c23e 580d 58be cd32 61be 3e15 c93d
00000120: 3403 6dbe 1154 803e 970a 433f 9ef7 2fbe
00000130: 6ca5 593f ddff 22be 4e58 a53e b8f6 63be
00000140: 3861 07ba 422d 81be 3419 26bf 6ff4 e03d
00000150: b8e9 08bd 265a 2e3f 3a9a 9b3e 360e cdbd
00000160: edd5 2abf 6225 9fbe a40b 8cbe f07e 0cbe
00000170: 2087 85be d8fd f03e f999 69be bdcf b43e
00000180: 4143 bd3e ae76 f03e 1d62 de3e d6d8 d7be
00000190: 63dc 8d3e 4780 f9be 05b1 84be 7c2c 183e
000001a0: e96f f8be 0459 88bc 5ff7 753f fe40 a5be
000001b0: 4030 3e3f d140 6bbe 8fc7 46be cdb2 4cbe
000001c0: 7862 abbe a073 13be 5a63 43bf 632a 373e
000001d0: c691 7b3d 0cab 013f 905a 953e d625 cc3d
000001e0: 9bde 47bf a202 ddbe 7cb8 87be fde2 e2be
000001f0: f2bc 82be c746 033f 6e4d a0be ef93 733e
00000200: 4a7f 443e f065 3e3d c806 6abe 63bf ef3c
00000210: 41d9 e8bd 1390 d4bd 1344 a23d d2c9 5a3e
00000220: 53e6 843e f8c8 46be dc09 4abe 36f1 6b3e
00000230: 8da6 d8bd 7edc 18be 6036 34bf 75aa 08bd
00000240: f164 a93d 0516 073d 206b ad3e 3fcc d63c
00000250: dd1c 093c b1f9 c9bd 2543 19be 7e15 2a3f
00000260: 323b e2bd cb31 81be 0f7f 65be a6c2 9ebe
00000270: 57fd 6f3e 61c7 7cbe d155 38bd 06e8 173e
00000280: ccf1 a83d ac8b a73e ae24 cd3f 398e ddbe
00000290: 6db3 2a3f 4c7b 81be 2e18 bfbd 3eb1 b13e
000002a0: a767 b8be 2c44 fbbd 1d48 5f3e 8273 b03b
000002b0: ee18 cf3e a489 01be 0ff7 dcbd 4d8e 81bd
000002c0: a04b 16c0 52f9 42be c84f af3b d71b 483f
000002d0: da8f 153f ab3c 4c3e 1a41 893d 44a2 d33c
000002e0: 9b5a 65be 3c70 ecbd a1ad c63c 090b 963e
000002f0: ab30 1dbe 32f6 a93e 326e 04bf f02a a93d
00000300: e1e7 373e e149 813e 2b99 3c3e 7340 853d
00000310: 5f3c c33e a56f 073e 7bba 43be 38c4 72bd
00000320: f84a 2bbe 99e4 793e e0d0 9d3e 9788 89be
00000330: 64a1 643e bf7a 50be e742 313f 9797 d2bd
00000340: 0c3c e33d 852f 1ebe 67ec c0bd 2c15 4c3e
00000350: 2b1f 4d3e a361 073f 3c0f 713e 4af9 07bf
00000360: b3df b0be 41d8 b4bd 62dc 03be 0f48 833e
00000370: 7a50 06bf f4f5 923e 77a9 acbd c485 423d
00000380: ec12 2f3e d825 0d3e 5a9b b6be 63e3 38bd
00000390: ac1a 4dbe ad40 9fbe 67be 32be 86e1 153f
000003a0: 6320 443e 19b6 87be a708 14be 5edf 25be
000003b0: 8405 01be f458 88be 7fc2 b7be 009d 79be
000003c0: 0daf 703d 18a7 a5be 5594 37bd 4072 babe
000003d0: 6394 85bd 5b5b 0dbe ffd9 4ebd 2cbd 643e
000003e0: b747 f2bd f5bb 84bd 4101 afbe a1b2 8ebd
000003f0: 0b35 913e 55c9 313e bc59 57be ecb1 713e
-0.2833011 -0.12891655 -0.031706765 0.16747132 0.11697316 0.22841844 -0.08090917 -1.057049
0.082433976 0.79643977 0.12047605 0.12527189 0.08266719 -0.046614517 0.49674994 0.03680968
-0.054560836 0.09995897 0.05631161 0.10031499 -0.0018344304 -0.00386 -0.2971974 0.027447581
0.026123028 0.3329694 0.32672936 0.0441003 -0.2204091 -0.14847377 -0.18523376 -0.3462303
0.10826319 0.106386214 -0.024036942 0.038940907 -0.08226481 -0.33540952 -0.091286816 0.5925181
0.14144816 -0.46487534 0.21778665 0.137766 -0.03875239 -0.07681996 -0.40538606 -0.07084784
0.060741644 -0.17570925 0.022731045 -0.19609515 0.13590644 0.11803393 0.14445797 0.17982076
-0.017329182 -0.282188 -0.74231464 -0.032434575 0.030149877 0.32183895 -0.13240348 0.51205325
0.43067282 0.3138007 0.46620232 -0.36870068 0.38027686 -0.2109884 -0.21992035 0.09818505
-0.23145753 0.25064138 0.76188034 -0.17184302 0.8501804 -0.15917917 0.32293934 -0.22262084
-0.0005164328 -0.2522984 -0.64882207 0.10984122 -0.033426017 0.68106306 0.30391103 -0.10012476
-0.66732675 -0.31083208 -0.2735263 -0.13720298 -0.26079655 0.47068667 -0.22812642 0.35314742
0.36965373 0.46965545 0.4343423 -0.4215762 0.27707204 -0.4873068 -0.25916305 0.1486072
-0.4852288 -0.016644008 0.96080583 -0.32276148 0.74292374 -0.22973944 -0.19412063 -0.19990082
-0.33473563 -0.14399576 -0.76323473 0.17887263 0.061418317 0.5065162 0.29170656 0.09968154
-0.78074044 -0.4316607 -0.26507938 -0.44313803 -0.2553478 0.5127987 -0.31309074 0.23786901
0.19189182 0.046483934 -0.2285415 0.029266065 -0.11369563 -0.103790425 0.079231404 0.21366051
0.25956973 -0.19412601 -0.19730324 0.23041233 -0.10578642 -0.14927861 -0.7039547 -0.033365685
0.08271206 0.032979984 0.33870792 0.026220439 0.008368698 -0.09862078 -0.1496702 0.66439044
-0.11046447 -0.25233302 -0.2241175 -0.3100788 0.23436485 -0.24685432 -0.045003716 0.14834604
0.08249244 0.3272375 1.6026819 -0.4327257 0.6668003 -0.2528938 -0.09330784 0.34705538
-0.3601658 -0.12268862 0.21804853 0.0053848634 0.40448707 -0.12650162 -0.1078931 -0.0632597
-2.3483658 -0.1904042 0.005350087 0.7816748 0.58422625 0.19945018 0.0670187 0.02583421
-0.22397844 -0.115448445 0.024252715 0.29305294 -0.15350597 0.33195645 -0.51730645 0.08260143
0.17959549 0.25251678 0.18417804 0.06506433 0.38131997 0.13226183 -0.19114105 -0.05926916
-0.16727817 0.2440361 0.3082342 -0.26862022 0.2232719 -0.20359324 0.6924271 -0.1028282
0.110954374 -0.15447815 -0.0942009 0.19929951 0.20031421 0.52883357 0.23540968 -0.5311476
-0.3454567 -0.0883031 -0.12877038 0.25640914 -0.5246655 0.28703272 -0.0843076 0.04749085
0.17097062 0.13783967 -0.356654 -0.045138728 -0.20029706 -0.3110403 -0.17455445 0.58547246
0.1915298 -0.26506117 -0.14456426 -0.16198489 -0.1259976 -0.26630366 -0.35890576 -0.24376297
0.05876069 -0.32354045 -0.044819195 -0.3641529 -0.06522443 -0.1380438 -0.050500866 0.22337788
-0.11830085 -0.064811625 -0.34180644 -0.069676645 0.2836078 0.17361958 -0.21030325 0.23603028

fc2a.bias f4 [32]
00000000: d64e 8dbd 835f 60bd 4ebc 6dbd b35d 20bd
00000010: 63a2 923e 18ad abbd 2790 b03c fd35 83be
00000020: 4e1f 693e 3855 623d 8570 9a3d 62f9 4abe
00000030: 8be3 ab3e 015a ecbd 5dea ce3b 32e1 103e
00000040: f96f 0d3e e2a7 debd 4d97 37be a453 803e
00000050: a077 7dbe 037a 1f3e 427b 133d 4e16 c53d
00000060: 4176 01be 39a9 a1bc 1f31 023e d220 31be
00000070: 51c9 23b9 f248 0f3e c814 9abe cb8c 8cbe
-0.068998024 -0.054778587 -0.05804091 -0.03915186 0.28639516 -0.083826244 0.021553112 -0.25627127
0.22765848 0.055257052 0.07540993 -0.19821694 0.3357204 -0.115406044 0.0063145594 0.14148405
0.13812245 -0.10871865 -0.1792881 0.25063813 -0.24752665 0.15573888 0.03600622 0.09623395
-0.12642767 -0.019734012 0.1271405 -0.17297676 -0.00015619888 0.1399267 -0.3009398 -0.27451167

fc2b.weight f4 [32, 32]
00000000: e252 0d3f e7e7 7abe 4097 a33d 0d67 8c3c
00000010: 9717 19be da33 633d a424 303d 6e97 32bf
00000020: fa8b 0b3e 1f54 763e 6c18 7fbd 5f5c 133e
00000030: 02ac 0e3f ddf8 8fbd d030 673d 85e4 f8be
00000040: 1e36 7e3e 7d09 3dbe 5cdc b33b afef 653e
00000050: 1ca8 58be f42f 213f ff28 18be ae49 f23d
00000060: f70d 32bf 5af2 fa3e e0ff 06be ae74 afbd
00000070: bb91 50be cbd4 c23e 8dea 0bbd aa27 d3be
00000080: d3ac 17be 64af f93d c8d0 183e 617e 073e
00000090: 5221 863e a868 18bd 0c5e 353e 915b 71be
000000a0: e9b3 76be 70a3 5cbd fdc0 b73c 240a debe
000000b0: bc72 313e 452a 34be 9d78 413e afb0 af3e
000000c0: 0701 023e 21a9 263e fe51 d0bd e9c8 9e3d
000000d0: 67f7 45bd 27e7 8abd 6911 1d3e f3c6 923e
000000e0: 3374 e4bd 1942 efbd a1a6 b0bd f2ec d6bc
000000f0: 7eb8 633d f65a cc3e e97d 10be fd24 febd
00000100: 6d0e 81be 9f09 1a3e 2906 17bf 1139 75be
00000110: 7537 623d 5a66 f5bd 3d20 b5be 82ab eabd
00000120: 4870 423e e52c 963e 78aa 303e fb7f 753e
00000130: 3b8d 81ba 80f7 ddbd 5908 043e 7795 333e
00000140: 6abc 413e 6bb8 d43d 2cce 3cbe 7500 893e
00000150: 4676 59bd 8a97 973d 9d51 a53d a14a a33e
00000160: e482 793d f0d1 c43d 6661 c9bd 5482 b33c
00000170: 6e52 47be e7f2 7a3d 293b 4bbe b1cb f7bd
00000180: 6567 28bf dfc6 673e 8836 f8bd ad08 fc3c
00000190: 89df 55be bb9e 9e3d 9994 ff3c 6b33 4d3e
000001a0: a4d2 afbe adf2 c0be 0d50 633c fe69 9abe
000001b0: 0a40 f3be a8c3 36be 678e 93be f9b3 c33e
000001c0: ac97 19bd 0da7 503e b410 133e eced 3b3d
000001d0: 4436 653e eae0 2ebe 65bb f7bc ca21 68bd
000001e0: aca0 d33e baae fdbe a591 6fbd 6471 613e
000001f0: 1880 4abd f3bd 923e f7e3 69bd e8fa d9bd
00000200: dc58 9e3e d9a4 d73c 41f1 143e 5525 f8bd
00000210: ecd5 cabe 4234 a23c 0ddb 153e 169d 6b3e
00000220: 94e0 623e 3e04 423e a647 8c3e 8c79 8d3d
00000230: 8619 16bd 421a 81bd 9b21 3ebe cd46 1fbe
00000240: 96ae 223c cb3c 7abd 0929 553e bedd 68be
00000250: 6e02 9d3c 14d0 dcbd 2f8e a03d 3611 8abe
00000260: cca7 e5bd be98 833d d4be 96bc 1a56 093c
00000270: a3d0 f23d 9f12 fabc dfdf 573e 2146 283e
00000280: 4c2f aabf 185d d33e 316a 893d 640b fdbb
00000290: 6cc7 fd3c 5595 7c3e 9980 a93e e425 2d3e
000002a0: d7a9 00be 660d a9bd 3a59 32bd 4dc8 68bf
000002b0: f5e1 13be 9f80 d13d b205 3cbe 32b7 f63e
000002c0: 2b01 823c 8dc2 ac3d 8068 8cbd a081 3abe
000002d0: b561 963d 551a bfbd 6a78 97be e22c 2c3e
000002e0: af41 f23e 2282 1abf d983 153e 1281 963e
000002f0: ca7f 59bc 5571 2b3e dd53 12be b43c 373e
00000300: dd40 483f 90dc afbe fa19 573e 36b6 6bbc
00000310: 553f 5ebe 4758 81be 7a06 73bd f15c 2fbd
00000320: 8b30 1c3e 037d a13d 4b21 933d 6875 233e
00000330: 9995 843e dd9b 023e f954 d9bd 7299 c4be
00000340: b92f 8dbc 77a4 943c f5f0 1f3d 9c8b 88bd
00000350: c256 203e 5559 19bd 138c fd3b 87de 513e
00000360: 262b fcbe 029e f63e 5f7a bdbd 98a0 5dbe
00000370: 3215 fd3c 7c63 603d efa1 563d 35b6 633a
00000380: a3ff 63bc 2add f9bd 1099 953d 4ad3 473d
00000390: 305e c63d 7aed 3a3e f704 53bc a2a4 7b3d
000003a0: 32b4 00be bbb4 50be 3cba 15be d12b 10bd
000003b0: a517 853e 842a 2d3d 5ac6 67bd c344 283e
000003c0: 2189 5dbe e766 dd3e 1149 60bd f143 99bd
000003d0: 5433 0abe 9ec4 d33c b58b 4cbe 7da7 0a3c
000003e0: 1265 e93d 392b b53c 5266 f43e df87 4a3f
000003f0: 642a ebbc a3f4 c1bd ee28 d93d 1c09 2dbe
0.55204594 -0.24502526 0.07987833 0.017138982 -0.14950405 0.05546937 0.043003693 -0.69762313
0.13627616 0.24055527 -0.06227915 0.14390706 0.55731213 -0.07029889 0.056443036 -0.48611847
0.24825332 -0.1846065 0.0054889154 0.22454713 -0.21157879 0.62963796 -0.14859389 0.118304595
-0.6955256 0.49013025 -0.13183546 -0.08567177 -0.20368092 0.38052973 -0.034159232 -0.412412
-0.14812021 0.12191656 0.14923394 0.13231803 0.26197296 -0.037209183 0.17711657 -0.23570086
-0.24092068 -0.053866804 0.022430891 -0.43367112 0.17328924 -0.1759425 0.18893667 0.34314486
0.12695704 0.16275455 -0.10171889 0.07753164 -0.048331644 -0.0678237 0.15338673 0.2866741
-0.11154976 -0.11682529 -0.08625532 -0.026236031 0.055595867 0.39913148 -0.14110531 -0.12409399
-0.25206318 0.15042733 -0.58993775 -0.2394755 0.05522867 -0.11982413 -0.35376158 -0.11458494
0.18988144 0.29331127 0.17252529 0.23974602 -0.0009884009 -0.108382225 0.1289381 0.17537485
0.1891953 0.103867374 -0.18438023 0.2675816 -0.05309131 0.07401951 0.08072207 0.31892875
0.060915843 0.09610355 -0.098330304 0.021912731 -0.19465038 0.061266806 -0.19846787 -0.12099398
-0.6578277 0.22634457 -0.12119776 0.030765856 -0.20886053 0.07745119 0.031198787 0.20039146
-0.34340394 -0.37685147 0.013874066 -0.3015899 -0.47509795 -0.17848074 -0.28819582 0.38223246
-0.03749816 0.20376225 0.1436184 0.045881197 0.22383982 -0.17077985 -0.030240724 -0.05667285
0.4133352 -0.49547368 -0.058488507 0.22015911 -0.049438566 0.28660545 -0.05710217 -0.1064356
0.3092717 0.026323723 0.14545156 -0.121164955 -0.39616334 0.01980031 0.14634342 0.23009142
0.22155982 0.18946931 0.27398413 0.06907949 -0.036645435 -0.063038364 -0.18567507 -0.15554352
0.00992932 -0.061093133 0.20816435 -0.22740838 0.019166198 -0.10781875 0.07839619 -0.26966256
-0.11213645 0.06425618 -0.01840154 0.008382345 0.118562005 -0.030526457 0.21081494 0.16433002
-1.3295684 0.41281962 0.067097075 -0.007722305 0.03097888 0.2466634 0.33105925 0.16908985
-0.12564789 -0.08254509 -0.043542124 -0.90930635 -0.14441665 0.10229611 -0.18361548 0.48186642
0.015869698 0.08435545 -0.06855869 -0.1821351 0.07342855 -0.09331194 -0.29584056 0.16813996
0.47315738 -0.60354817 0.14601077 0.29395348 -0.013275096 0.16742451 -0.14289804 0.1789425
0.78223974 -0.34347963 0.21006003 -0.014386704 -0.21703847 -0.25262663 -0.05933235 -0.042813245
0.15252893 0.07885172 0.071840845 0.15962756 0.25895384 0.1275477 -0.106119104 -0.3839832
-0.01723467 0.01814483 0.039048154 -0.066672534 0.15658095 -0.03743871 0.0077376454 0.20495044
-0.4925167 0.48167425 -0.09251856 -0.21643293 0.030893896 0.054782376 0.052400526 0.0008686514
-0.013915929 -0.12200387 0.07304585 0.048785485 0.096859336 0.18254653 -0.012879602 0.061436303
-0.12568739 -0.20381443 -0.14621824 -0.035198037 0.25994602 0.042276874 -0.056585647 0.1643248
-0.21634342 0.4324257 -0.05475718 -0.07483662 -0.13496143 0.02585059 -0.19975169 0.008462784
0.11396231 0.022115337 0.47734314 0.7911357 -0.028706737 -0.09470489 0.1060351 -0.16898006

fc2b.bias f4 [32]
00000000: de95 ca3e adf6 ec3e 93cf 253e d31a 3f3d
00000010: f410 b0be ef36 4c3e 93ae 12be 0cd9 55be
00000020: 0611 843d 0c6a a8bd 758c 9c3d 192b 55be
00000030: 0e07 543e 58c1 8a3e 0922 ac3e 5f8e 9a3e
00000040: 8d5e 2fbe b4be 02bd d3b5 88be a9b9 d13e
00000050: dfaf c83d 5e97 15bd e5a4 0ebe 986f ef3d
00000060: cb80 17be db8d a43d 23d7 7ebe 448b a83d
00000070: 1df9 f83c 31af 27be 3075 923d 9850 13bb
0.39567465 0.4628195 0.16192465 0.04665644 -0.34387934 0.1994283 -0.14324407 -0.20883578
0.064485595 -0.08223352 0.076439776 -0.20817222 0.20705816 0.27100635 0.33619717 0.30186746
-0.17125912 -0.03192015 -0.2670122 0.4096196 0.0979917 -0.036521308 -0.1393009 0.11691207
-0.14795224 0.08034869 -0.24886756 0.08229688 0.030392224 -0.16375424 0.07151258 -0.0022478458

fc2c.weight f4 [32, 32]
00000000: 572f a23e ccd0 01be e3d5 0b3b 2bfa 56be
00000010: adee c43d 700a 823e ec4e 113e ce52 e23c
00000020: 543b f1bd 392f 2bbe a82b e2bd bcce 8a3d
00000030: 1c55 1c3d b47a 37be 3bcd 813e a76a 49be
00000040: 83d7 e8be 5e0b 053f 61e0 e73e c276 bdbe
00000050: 460b 6cbd 8abe 483f 32b5 e7bd e501 3d3e
00000060: e0cc 823c 1b96 353e 8d04 203a 4247 743d
00000070: 51e3 c53e c2ec 993d 99a1 5ebf 6eee f03d
00000080: a9f7 f8bc 8d93 03bd 34fa a9bd 2f27 95bd
00000090: d69d 023e 4203 0abe c8a4 d2bd b17a 6abd
000000a0: d23e 9bbe 76ac bfbe 0355 86be 551f 64bc
000000b0: a134 58bc 92fe a3be 35dd a6be 2024 09be
000000c0: 24d9 0a3f 9595 9a3e 20f4 713e 3b07 443d
000000d0: 00e0 aa3d cb93 2c3e 3d2a 183e 7f1a febd
000000e0: 9887 b13d 30bf 09bf 4e6d 0ebf 05ce 4f3e
000000f0: 675b 5bba d225 003d 74bc 703b b661 d8bd
00000100: f30c 693d 1baf 663e a405 c1bd 1ebe a73c
00000110: 3764 88be 2a83 adbd 8725 d43d 4da5 32bd
00000120: f92a 553d f2ce f13d ec03 aebc 043d 243d
00000130: 4d8e d8bc 7374 b7bd 84b4 053f 05a5 333e
00000140: 5a9d 553e dbf8 98be 328c 403e 9725 8a3e
00000150: ce65 19be 22ef a2bd a896 b4be 41a2 a6bd
00000160: f639 8dbd 294b 87bc 5f00 9e3d 313a 133e
00000170: 7ef0 c23e c419 873e 260d d93d 26b9 743e
00000180: 4f82 963e db9d 0f3d 3d42 443e ca61 903a
00000190: 7a7a 6fbd 6273 e33d 19bf ba3c 9194 a5be
000001a0: 9a74 0dbe ee10 87be 98e8 90be ad36 4bbf
000001b0: 7a34 173d c646 43be d2ac 273f de76 573d
000001c0: f6ec 113a f12d 2b3e d690 29bd 7bd9 75bd
000001d0: 4530 9fbc d095 8c3f 2f39 333e 286b 14bd
000001e0: 2367 38be 6865 863c b293 053e 3317 4c3e
000001f0: bb7a 653e 30ef 9f3e ba37 38be 0dd5 833e
00000200: 6bbc 8c3e 17b7 5a3e bb65 b93e f098 133f
00000210: 505c c4bd d763 e63d 7bd4 b5be 6262 07be
00000220: 1e83 0a3e 1107 9fbe c63d 09bf 5a9b 78be
00000230: a57a e3be 4bb8 95bd 7bb4 c83e 65e5 563f
00000240: 5dc6 17bd 50a1 68be f21a 92be 56f8 a63e
00000250: efac e2be 44ee 943d 5fc8 a4be 7d86 7a3e
00000260: 08c4 65bd 050e 89bd 139b 6fbe 4177 423e
00000270: 2202 513c 3e43 a43e 95c1 a2bd e9cb 85be
00000280: 70e3 b6bd d000 febc 75d6 e83e 5511 d1bc
00000290: 14bf 0abf bc2c 033e 8d33 30bf 3f33 74bd
000002a0: 3868 583f 64cd 4dbe 3169 e0bd 818b 54be
000002b0: f015 b9be 8156 8c3e b07a 263e 2b06 b53e
000002c0: 572e 4ebe 5c0c 03be 4fcf aabe 696a 2d3e
000002d0: ced2 57be 9644 45be d14a d5bb 5bf0 d53e
000002e0: f045 81be 125a 5ebe 604c 91be 56f4 133e
000002f0: e71d 843e 2de0 4c3c edfc 2abe 2624 adbb
00000300: 244c 113f 240e 853d 37a6 dbbd c426 8abd
00000310: 6a0b 493e ed1a 0dbe 5c10 e23d 82c8 7ebd
00000320: 2ee6 e43d 00f5 a9be e1d7 9cbd 3a20 03bf
00000330: 42cb 41bd 3e7f 973d 9d35 13be e389 05be
00000340: 2977 96be 44fe 023e a3a6 aa3d 4d04 a2bd
00000350: 21ac 85be 6dd9 c5be fe12 2f3f 798a 02be
00000360: 4abe a7bd 4f1a debd cea7 03bf fe00 ae3e
00000370: 6b7f 3ebe e6cd 8e3e c7a7 8cbd 9c6c e53d
00000380: 3b4b f2bd 56a2 2cbc 5367 723e 9c43 bd3d
00000390: dd2f a3be 39ee ef3d b471 cebe 6ce5 933d
000003a0: 3a2b 70bd 4fd0 163e f229 823e 65d9 48be
000003b0: bd89 c1be 6759 c9bd 63bd 9e3d 4e57 9e3e
000003c0: d791 d8bd 584b 68be be82 ee3e 9f32 803d
000003d0: 0d99 09be 81e4 30be faad 49be 6f4c 973e
000003e0: 8ca5 083d d4e2 04bf a17e 9abe d0f0 30be
000003f0: 132d d13e c40a 1abe 09db e9be ff87 023c
0.31676742 -0.12677306 0.0021337203 -0.20993869 0.09615836 0.25398588 0.14190263 0.027627375
-0.11778894 -0.16717233 -0.11043483 0.06777713 0.038167104 -0.17917901 0.2535189 -0.19669591
-0.45476922 0.5197047 0.45288375 -0.37004668 -0.05762794 0.7841574 -0.11313857 0.18457754
0.015966833 0.17733042 0.0006104194 0.05963827 0.3864999 0.07515861 -0.8696533 0.11764227
-0.030391531 -0.032123137 -0.082996756 -0.07282864 0.12755522 -0.13477805 -0.10285336 -0.057245914
-0.30321366 -0.37436265 -0.26236734 -0.013923486 -0.013196141 -0.3203016 -0.32590643 -0.13392687
0.5423758 0.30192247 0.23628283 0.047858458 0.08343506 0.16853254 0.14859863 -0.124073975
0.086684406 -0.53807354 -0.55635536 0.20293434 -0.0008367807 0.03128607 0.003673342 -0.10565512
0.056897115 0.22527735 -0.09424904 0.020476397 -0.26638958 -0.08472283 0.1035872 -0.043614674
0.052042935 0.1180705 -0.021242104 0.04009725 -0.026435042 -0.08957758 0.5222857 0.17543419
0.20860806 -0.29877362 0.1880348 0.26981804 -0.14980242 -0.07955767 -0.35271192 -0.08136416
-0.06895821 -0.016515331 0.077149145 0.14377667 0.38074106 0.26386845 0.10598211 0.23898754
0.29396293 0.035062652 0.19165893 0.0011015472 -0.058466412 0.11105992 0.0227962 -0.3233991
-0.13814011 -0.26380104 -0.28302455 -0.79380304 0.03691528 -0.19069967 0.6549808 0.052603595
0.0005566621 0.16716744 -0.041397892 -0.06002186 -0.019432196 1.0983219 0.17502283 -0.036235005
-0.18008094 0.016405776 0.13044623 0.19930725 0.22410099 0.31237173 -0.17990008 0.25748482
0.27487502 0.21358906 0.36210427 0.5765524 -0.0958792 0.11249512 -0.35513672 -0.13221124
0.1352658 -0.3106008 -0.53609884 -0.24278012 -0.44429508 -0.07310542 0.39200196 0.8394378
-0.03705441 -0.22717786 -0.28536183 0.3261134 -0.44272563 0.07272008 -0.3218412 0.24465366
-0.056095153 -0.06692127 -0.23399 0.18990804 0.012756856 0.32082552 -0.07947079 -0.26132134
-0.08930099 -0.031006247 0.45476118 -0.02552096 -0.5419781 0.12810034 -0.6882866 -0.059619185
0.84534025 -0.20097882 -0.10957564 -0.20756342 -0.3614955 0.27409747 0.16257739 0.35356268
-0.20134865 -0.12797683 -0.3336129 0.16935124 -0.2107651 -0.19264445 -0.006509163 0.4178494
-0.2524867 -0.21714047 -0.28378582 0.14448676 0.25804064 0.01250462 -0.16698046 -0.0052838502
0.56756806 0.06496838 -0.10725062 -0.06745675 0.1963326 -0.13779803 0.110382766 -0.062202938
0.11176716 -0.33194733 -0.07658363 -0.5122105 -0.047312982 0.073973164 -0.1437592 -0.13040881
-0.29387787 0.12792307 0.08332565 -0.079109766 -0.26107886 -0.38642445 0.68388355 -0.12748136
-0.08190592 -0.10844862 -0.51427925 0.33985132 -0.18603294 0.27891463 -0.068679385 0.11202356
-0.11830755 -0.010536751 0.23672228 0.09241411 -0.31872454 0.11715359 -0.40321124 0.07221493
-0.058634974 0.14727901 0.25422627 -0.1961418 -0.37800398 -0.09831505 0.077509664 0.30925983
-0.10574692 -0.22684991 0.46584123 0.06259655 -0.1343729 -0.17274667 -0.19695273 0.29550502
0.033361003 -0.5190861 -0.30174735 -0.17279363 0.408547 -0.1504317 -0.45674923 0.007966994

fc2c.bias f4 [32]
00000000: d920 da3d cc7e 003e 965d a13e cbda 973d
00000010: c667 b43e 7d70 a8bc 2cd5 78bd cbe6 253e
00000020: da4b 563e c771 4abe 53ee b7bd f3ac 993e
00000030: bb49 07be 9202 ebbe 759d b3bd ea6e 97be
00000040: 076e 6d3e 84ba 123d e3ef f6be 8d37 14bd
00000050: d59c cfbd de61 a83c 25b4 87be 2ccd 643d
00000060: 7d8c c93c 0d80 233e 1887 9d3e 307b 43be
00000070: fa73 433e c019 013e 86d1 54bd 0a70 5a3e
0.106507964 0.12548369 0.31516713 0.07414778 0.35235423 -0.020561451 -0.06075017 0.16201322
0.20927373 -0.19769965 -0.089810036 0.30014762 -0.1321172 -0.45900398 -0.08770267 -0.29576808
0.23186503 0.035822406 -0.48229894 -0.03618579 -0.10137335 0.02055448 -0.26504627 0.05585973
0.024603123 0.15966816 0.3076713 -0.19089961 0.1908721 0.12607479 -0.05195763 0.21331802

fc2d.weight f4 [32, 32]
00000000: 9745 26be 74e3 353e dcf8 8dbe a4f0 893d
00000010: 25f1 a5bd f3a7 aebd 405b 8f3e d377 b6be
00000020: 4308 053e 981c 913e 73aa 44be 9947 85bd
00000030: 7a69 003e 3a3e d53d d07f 4c3c 5e44 e4bd
00000040: b522 e0bc f1dd d5be cf3d 153e e49a c6be
00000050: 327a 263d d718 173c 4cd9 81be 19b9 573e
00000060: 6a77 523e 9de6 8d3d a7e3 813e 2536 80be
00000070: 053a 303b 92cf 553e 9f97 ab3e c551 65be
00000080: f3c8 723f debd 59bd 60a4 bebc 83ec 3ebe
00000090: 8e93 863d 77e7 bb3c feb5 2bbd f299 3c3e
000000a0: 5fc1 5abe f00d 4f3e 1b61 ac3e e6ea 78bf
000000b0: ba74 55bf 3158 efbe eda9 503f 7508 343f
000000c0: 61e8 953e f78f efbc 56c2 40be 8c23 443d
000000d0: 4bd7 0b3d 4f20 c1be a26c 243e 98e4 4c3e
000000e0: 0636 573e 457d 3ebe 3fd4 893d 0136 f83d
000000f0: 85c1 7bbe 2eff f3bd e123 633d a085 89bc
00000100: 75be 39bf c92a 123e 41f9 d4be a239 1fbf
00000110: 956d 60be db71 343e 9eb9 40be 3988 1cbe
00000120: e9b3 69bf 49c8 b23b da08 2d3e 82b8 293d
00000130: 455c dc3d de22 47be 6510 67be c348 6dbe
00000140: 224c c9bd 23cc bdbe 9a99 0b3e 3623 cbbc
00000150: ee66 c23d 6e72 eabe d11c b83e 3ed8 d8be
00000160: d090 d7bd 3f85 c2bd ce48 b93c 09b4 1bbf
00000170: 4b62 09bf 2ee7 01be 2557 92bd 7bfa 38bf
00000180: 898f 083e 6faa 983c 7b8f 66bd 0eee db3d
00000190: 4e22 383e 4340 f83d 69e0 8abe 568d 023d
000001a0: 216d e63e 8d41 ad3e 950e a83e 3693 2ebe
000001b0: fde9 d73d a2ba 4d3e bf57 26be 0bc9 9b3e
000001c0: 4928 69bd 4155 cdbe 307a 10be 22a4 bcbd
000001d0: 282e 5fbd 9bd7 1cbe a9bc a43e 98a7 ae3d
000001e0: e390 2bbd d3bc 1fbe 3320 06be 19dd b33c
000001f0: 8db4 72be f08e b0be 3fe5 8f3e 6948 e9be
00000200: c1a3 b83e 0efd 47be 3809 d5bd d88e 973d
00000210: 61d1 6ebd 8e0c 2f3e 3fc5 103e dc1d 063f
00000220: 134c 94be d425 a73e 9d23 173f d462 d1be
00000230: dec6 a8be b14c 5f3d c31a d33e 861f 913e
00000240: d246 323e 74b0 be3e c164 67bd 15ae 433d
00000250: df53 88be 1389 abbe 527b 843c 63b5 a6bd
00000260: 8040 fc3d de9d 6b39 1fbc 9fbd 623d 293f
00000270: b32d d33c 8bf5 bcbe e49b 61be c27e 70be
00000280: 6dfa f33e fa45 0b3d ef98 243e bc59 143e
00000290: bd13 563e f612 db3d 11d1 65be d497 eb3d
000002a0: 6c19 f13e 4391 9b3d aea3 6b3e 8207 2ebe
000002b0: 8f27 49be 9fc4 b63d c965 b9bd 85ec 1b3f
000002c0: 1dc7 64be e32c b43e c38b d7be ad50 9c3d
000002d0: 1148 54be c876 08bf f57b 213d 1afa f43d
000002e0: 3854 e6bc 5c64 563b db30 f33e 3e3f 073f
000002f0: fa0d 86be 5559 e1be 23a0 0e3e 957d 71be
00000300: 7adc 313e 5d4f d4bc 6bda c83e 034c 3ebd
00000310: ef75 11be cd15 0cbe 2012 3dbf efe9 333e
00000320: 6894 273e 9e5d 52be 5b4e b7be 163e 813e
00000330: f7fa 123e b62b 31be e163 e0bd 9495 d63e
00000340: dd60 6a3e 6b43 d13d fdb7 3cbd af71 a33e
00000350: de12 92be d062 ee3e 628f b83e aa71 b3be
00000360: a0d6 cdbe 5365 7d3e 895d 633e 1aa7 073f
00000370: 8982 2ebe 683a 84be cac2 6f3d fc57 493c
00000380: 8338 663d 4c69 343e 14dc 8fbe 9eb9 5f3e
00000390: 7e70 66be 3226 ab3d 648a 39bd ceb0 26be
000003a0: 853e 5f3e bf3b f03c b18b 2e3e f1b2 503e
000003b0: 6dab c43d 45f7 9a3e 063e 6fbd f430 143e
000003c0: 5134 08be 576c 5fbe f409 823d cc3a 1b3e
000003d0: 4d04 c7bd 813f f6be ebad 4c3e aea0 6abd
000003e0: 845f 6d3e 59b0 91be b030 20be a673 093e
000003f0: 795b efbe 7dc9 6bbe bf6f 313e cd15 28bf
-0.16237484 0.17762548 -0.27728927 0.06735352 -0.08102635 -0.085281275 0.27999306 -0.35638294
0.12991433 0.28342128 -0.19205646 -0.06507797 0.12540236 0.104122594 0.012481645 -0.111458525
-0.0273603 -0.4177089 0.1457436 -0.38790047 0.04064388 0.009222231 -0.25361097 0.21066703
0.20553365 0.069287516 0.25368997 -0.2504131 0.002689005 0.20879963 0.33514115 -0.22394474
0.94837874 -0.053159587 -0.02327174 -0.1864491 0.065711126 0.02293752 -0.04192161 0.184181
-0.21362828 0.2022016 0.33667836 -0.97233427 -0.83381236 -0.46746972 0.81509286 0.70325404
0.29278854 -0.029243452 -0.18824133 0.047885463 0.034140866 -0.37719962 0.16057065 0.20009077
0.21016702 -0.18602474 0.06729936 0.121196754 -0.2458554 -0.11913906 0.05545414 -0.01678735
-0.7255624 0.14274134 -0.41596416 -0.62197316 -0.21916802 0.17621557 -0.18820807 -0.1528634
-0.91290146 0.0054560048 0.16897908 0.041435726 0.107597865 -0.19446895 -0.22564848 -0.23172288
-0.09828974 -0.37069806 0.13632813 -0.024797063 0.094922885 -0.45790428 0.35959485 -0.4235248
-0.10525668 -0.09498071 0.022617724 -0.60821587 -0.5366561 -0.12685844 -0.07145528 -0.722572
0.13336004 0.018635957 -0.056289177 0.10738765 0.17981836 0.12121632 -0.27124336 0.03187307
0.45005134 0.33839074 0.32823625 -0.17048344 0.105426766 0.20090726 -0.1624441 0.3042682
-0.056923185 -0.40104106 -0.14109111 -0.09210993 -0.054487377 -0.15316622 0.32175186 0.0852806
-0.04188622 -0.15599374 -0.1309822 0.021956014 -0.23701687 -0.34484053 0.28104588 -0.45563057
0.36062434 -0.19530126 -0.10402149 0.07400292 -0.058305148 0.17094633 0.14137743 0.5238931
-0.2896429 0.32646048 0.59038717 -0.40895712 -0.32964224 0.054516498 0.41231355 0.28344363
0.17409828 0.37243998 -0.05649257 0.04777344 -0.2662649 -0.33503017 0.016172085 -0.081400655
0.1231699 0.00022470157 -0.07799553 0.6610929 0.025778627 -0.36906084 -0.22032124 -0.23485854
0.47651997 0.03400228 0.16073965 0.14487356 0.20905967 0.10696976 -0.22443034 0.11503568
0.47089708 0.07596066 0.23011658 -0.16995052 -0.19643997 0.08924221 -0.09052617 0.60907775
-0.2234158 0.35190496 -0.42098817 0.07632575 -0.20730616 -0.53306246 0.039424855 0.119617656
-0.02811633 0.0032713627 0.4749821 0.52830875 -0.26182538 -0.44013467 0.13928275 -0.23583062
0.17369261 -0.02591675 0.3922914 -0.04645921 -0.14205144 -0.13680191 -0.7385578 0.17569707
0.16365206 -0.20543525 -0.35801968 0.2524268 0.14353548 -0.1730183 -0.109565504 0.41910994
0.22888513 0.10217937 -0.046073902 0.3192267 -0.2853002 0.46559763 0.36046892 -0.35047656
-0.40202808 0.24745683 0.2220365 0.5298935 -0.17041983 -0.2582581 0.058535375 0.0122890435
0.056206238 0.17618293 -0.28097594 0.21848151 -0.2250385 0.083568946 -0.045297995 -0.16278383
0.21801193 0.029325364 0.17045476 0.2038076 0.096030094 0.30266777 -0.05840876 0.14471799
-0.13301207 -0.21818672 0.06349555 0.15159148 -0.09717617 -0.48095325 0.1998822 -0.057282142
0.23180968 -0.28454855 -0.15643573 0.13423023 -0.46749476 -0.2302608 0.17327784 -0.65658265

fc2d.bias f4 [32]
00000000: b749 05be 7f3d 993e 891b 81be 17be 54be
00000010: f4af 0cbe 36e4 0e3e a5b0 0fbe a1de 8c3c
00000020: d5f9 8bbe a901 263d 77b9 bfbd 7158 373d
00000030: 9a93 923d 5985 b6ba b291 dabc f2f5 893b
00000040: e731 98be 7954 3dbd 113e be3c 1c8c 32be
00000050: 69f8 85bc 4a86 2b3e 620c cf3b f951 043e
00000060: d489 9b3d e9b7 4b3e 525d f9bd 735a d9bd
00000070: d04b 0c3e d469 6a3d b7ed 7bbe 0f12 10bd
-0.13016401 0.2992973 -0.2521632 -0.20775639 -0.13738996 0.13954243 -0.14032228 0.017196001
-0.27339044 0.040528927 -0.093615465 0.04476208 0.07157059 -0.0013925239 -0.026680801 0.004210227
-0.29725572 -0.046223138 0.023222955 -0.1743626 -0.016353803 0.16750446 0.006318615 0.12921895
0.07594648 0.19894375 -0.121760026 -0.10612955 0.13700795 0.05722983 -0.246024 -0.035173472

fc2e.weight f4 [32, 32]
00000000: 0d9e 2e3e b6b9 063e 2af1 e83d 0f01 cf3e
00000010: f660 01be 6b9a 88be 6f4a 843e c2f7 043f
00000020: 3dd2 51be 7ecb 7e3e 201c 303d b1a0 a43b
00000030: 0081 b53d 2ece 0cbe ed36 33be 4b6b a23e
00000040: 2d06 e13d 60af 883e 3fec 66bd 17b8 503d
00000050: 82d9 c8bd 23bf e3bd e399 acbe c9a4 1a3f
00000060: 7f1b 113f b90b 01bf 5716 0f3f 5564 39be
00000070: 6e71 7cbe 7374 403e 5878 413f 2695 7dbd
00000080: 5054 c93e 47a4 1f3d be03 21bc 781d 1a3e
00000090: c607 4c3e 9723 49bf 7ac9 8a3e cf7d 9cbe
000000a0: 0804 673f cd66 0f3e fc65 80bd 98d8 a83e
000000b0: 190c 51bd 9ed8 40be 1fe0 ba3e d0a4 ef3e
000000c0: 3fcb 553f 67b1 183f 79b6 ec3c 2b05 e5be
000000d0: cb0e 823d 7eac ccbe 6d2c 0e3f 3821 2b3e
000000e0: 9cb3 b8be a5aa dd3d 9f32 30be a261 a23e
000000f0: ddef 5fbf d1c9 303e 5565 b23c cf5a 8a3d
00000100: 874a 843e ab1e 41be ea72 95be ea3f 99be
00000110: cb00 8fbf a9d3 3e3c c83c 003e 0e31 7cbe
00000120: 4afa 36bf e615 19bf 10e2 07be 4d74 e2bd
00000130: 3c4b e0bb 4169 25be 1bcc 9c3f 2ac7 98bf
00000140: dee2 f0be ad1f 94be bac8 663e 5736 ad3e
00000150: fda9 24be 032e 063f f508 353e 1b78 e6be
00000160: 01b1 073e 0127 a23e f2c3 1cbe 89ab a03e
00000170: 8082 8b3f cb04 99be f5c8 19be 082a e0be
00000180: 586a 2dbc bbe6 ef3e 7c64 f9bc e6e7 173e
00000190: 9731 3abe 0454 213f aef8 ca3d af3b f43e
000001a0: 4c62 5cbd 15ca 383e 597c ba3e c440 d63d
000001b0: ee12 40be df02 0bbf 92e4 fe3d 2154 59be
000001c0: 97b7 0fbe f28c e7be de02 6f3e b6fa 093e
000001d0: 6cce 99bc 849e 353e 51f7 81bf ab0d ff3d
000001e0: 4397 d3bc 99d5 153f 156c 5e3e 06f9 933e
000001f0: b13c 033f 863a d0bb f6ea 0b3e d607 313d
00000200: 0a12 12be d186 d5bc fc06 efbe ae43 6abe
00000210: 6d9c 1c3d b796 83bf 643d 68be bb0b 5bbf
00000220: 75cb 723f 2c8e f1bd 716c dbbd 5c12 42bc
00000230: ad84 32be 1fc0 863c bc43 cbbe bf88 6e3e
00000240: 2486 7f3c 127f a7be 1014 41bd 7c1b 59be
00000250: 134d a5bd 418a f8be 5fc6 bc3e 97e6 7f3e
00000260: b72b 00bf 56a6 b13e 00f4 b33d a605 1bbf
00000270: a6c5 30bf bfb7 903e 291c c0be a000 8dbb
00000280: db62 44bd b5d6 473e f9ed 293e 3158 943e
00000290: 4f5b 9b3e 5539 0c3e a996 df3e a768 973d
000002a0: c340 8bbd eeb2 5d3f c0c3 3abe 4963 033f
000002b0: b2bb 263f 5179 ff3d 5a09 dcbe d497 833f
000002c0: f209 2a3e 5b27 6e3f 15f8 2abe 78a4 87be
000002d0: 2e64 a83e 6a1e 21bf 146e 63bf 252a 053e
000002e0: 5c73 0abd fbcb 7bbd cc3c 503e 4f2d 953e
000002f0: 0650 7cbd 5ba8 293e 64e6 353e 7490 753e
00000300: eaf4 76bd e401 1d3e bb38 a0bc 058a 773e
00000310: 34c4 ae3e 8595 0bbd 92ea c03d 4e7d 583e
00000320: e6d5 14bd 9760 023f d44c 733d d599 953e
00000330: 3afa 003f 387d c1bb e3a5 b0bc 96b3 193e
00000340: 1277 3d3e 4b48 bc3e 6ef9 da3d 0fc3 b5be
00000350: d15d c0bd 78c7 673d 8816 ac3c 0c54 c8bd
00000360: be2f 3f3e 95e3 6e3e 4ff2 5fbe 5e8f 9c3e
00000370: ba0b d9bd deec 283e 2324 85be 5aab 163e
00000380: 5090 b33d 1e13 5d3c 653f 193c c387 5ebe
00000390: 5ab2 01bf acfe bb3c 53b6 a2be b7ec 88be
000003a0: 4db9 b2be ee3c 42be 2ac8 4bbe dbdc 07bd
000003b0: 28c5 99be 5102 97bd 52c8 083e b978 4bbf
000003c0: 6ce2 aebe ac60 16bf a8bd ddbd a890 a13e
000003d0: 22f4 cc3d 2648 963e 1ba3 503e 8e32 89be
000003e0: 26c6 bbbe b49d 773e db67 813d b040 14be
000003f0: 3963 e83e 5136 f7bd 1bf6 d1bc 7d88 343e
0.17052479 0.1315678 0.113741234 0.40430495 -0.12634644 -0.26680312 0.25838038 0.5194055
-0.20490356 0.24882314 0.042995572 0.0050240387 0.088624954 -0.13750526 -0.17501421 0.31722483
0.10987506 0.266963 -0.056377646 0.05095681 -0.09807111 -0.11120441 -0.33711156 0.6040769
0.5668258 -0.5040851 0.5589346 -0.1810468 -0.24652645 0.18794422 0.75574255 -0.061909817
0.39322138 0.038975026 -0.009827552 0.15050304 0.1992484 -0.7856993 0.2710684 -0.30564734
0.90240526 0.14004059 -0.06269452 0.32977748 -0.051036928 -0.18832633 0.36499116 0.4680543
0.83513254 0.59645694 0.028895603 -0.44730505 0.06350478 -0.3997535 0.5553654 0.1671189
-0.3607453 0.108235635 -0.1720681 0.31715113 -0.8747538 0.17264487 0.021776835 0.067556016
0.2583811 -0.18859355 -0.29189235 -0.29931575 -1.1172117 0.011647143 0.12523186 -0.24628088
-0.7147566 -0.5979904 -0.1326983 -0.11057339 -0.006844906 -0.16153432 1.2249788 -1.193578
-0.47048086 -0.28930417 0.22537509 0.3383052 -0.1608047 0.5241396 0.17679198 -0.45013508
0.13251115 0.31670383 -0.15309122 0.3138087 1.08992 -0.2988647 -0.15018065 -0.43782067
-0.010584436 0.4685572 -0.030443422 0.14834556 -0.1818298 0.6301882 0.09910713 0.47701785
-0.05380468 0.18045838 0.36422995 0.10461572 -0.18757221 -0.54301256 0.1244594 -0.21223499
-0.14034878 -0.4522472 0.23340937 0.13474545 -0.018775187 0.1773625 -1.01536 0.12453779
-0.025828963 0.5852905 0.21720918 0.28900927 0.5126448 -0.006354633 0.13663849 0.043220364
-0.14264694 -0.026065262 -0.46685016 -0.2287738 0.038235117 -1.028037 -0.22679669 -0.85564774
0.948417 -0.11794695 -0.10714043 -0.0118451975 -0.17433424 0.016449032 -0.39700115 0.23294352
0.015595946 -0.32714134 -0.047138274 -0.2120189 -0.08071341 -0.4854298 0.36870095 0.24990307
-0.50066704 0.34697217 0.08786774 -0.60555494 -0.6905159 0.28265187 -0.37521484 -0.004303053
-0.04794584 0.19515498 0.16594686 0.28973535 0.303431 0.13693745 0.43669632 0.07393008
-0.06799462 0.8660115 -0.18238735 0.5132337 0.6513015 0.12474311 -0.42975885 1.0280709
0.16605356 0.930288 -0.16696198 -0.26492667 0.3288893 -0.62937033 -0.8883984 0.13004358
-0.03380142 -0.061473828 0.20335692 0.2913613 -0.061599754 0.16568129 0.17763668 0.23980886
-0.060292162 0.15332752 -0.019558301 0.24173744 0.34134066 -0.03407814 0.09419741 0.2114155
-0.036336802 0.50928634 0.05939944 0.29218927 0.50381815 -0.00590482 -0.021563476 0.15009913
0.18502453 0.36773905 0.10692106 -0.3550038 -0.09392894 0.056586713 0.021006837 -0.09781656
0.18670556 0.23329003 -0.21869777 0.3057813 -0.1059794 0.16496608 -0.26004133 0.14713803
0.0876776 0.013493327 0.009353493 -0.21731476 -0.5066277 0.022948585 -0.31779727 -0.267431
-0.34906998 -0.18968555 -0.19900575 -0.03316961 -0.3003323 -0.07373489 0.13357666 -0.79481083
-0.3415712 -0.5874126 -0.1082719 0.31555676 0.10007502 0.2935192 0.2037472 -0.26796383
-0.36674613 0.24181253 0.06318637 -0.14477801 0.453882 -0.12070907 -0.025630048 0.17630191

fc2e.bias f4 [32]
00000000: 3633 fd3d e8e8 24be 518c 823d ef2b e4bc
00000010: 6ab2 12be 7920 2dbd 840c 8c3e 218e d7bc
00000020: 0cd0 bcbc 2cef 093e d7e0 383d 285d b2bd
00000030: edb9 a63d b79a d8be fe02 003e 482c 403d
00000040: 5352 6fbd 4c2b ab3e d93e 8bbd a1df c7bc
00000050: c05d ccbe 4192 89bd a864 70bd 89ca 223f
00000060: 1e1e c53c f468 08be 1718 e9bd 9b86 ce3c
00000070: 127b 2cbe 739b b4bd 5116 d93e 1b13 80be
0.12363283 -0.16104472 0.063744195 -0.02785298 -0.14325872 -0.042267296 0.273533 -0.02631289
-0.023048423 0.13470143 0.0451363 -0.087091744 0.08140931 -0.42305538 0.12501141 0.04691723
-0.05842812 0.3343147 -0.067990966 -0.024398627 -0.39915276 -0.06717349 -0.058689743 0.63590294
0.024062213 -0.13321286 -0.11381548 0.02521067 -0.16843823 -0.08818712 0.4239984 -0.25014576

fc2f.weight f4 [32, 32]
00000000: 4bac 003d 0b38 513f d982 abbe c51d 6cbf
00000010: a2ca 203f da64 9a3e 87d1 b13e 4a55 26bf
00000020: 05de f53e 4ced 09be b74a e5be e422 233f
00000030: 93aa 713f b0f3 4cbf aed3 443e bcba 043f
00000040: 3fb8 60bf d1ae c03d 3c80 503f 7e9c 09be
00000050: 2ec9 d8bc 2635 7abe f30d ba3e 913c a53d
00000060: bab3 f73e 4276 8f3e 7191 6bbe ce8c 533f
00000070: 7026 b9be 8550 fcbc 4c40 90be 53d5 22bf
00000080: e3a0 273f 6473 c33e 5ad4 c1be beed 053e
00000090: 3ef4 eabd 677c e13e 8dd1 3fbe f20b 8ebf
000000a0: 4492 bc3e 8533 36bf 28cd 12be 1656 9cbd
000000b0: 8a06 373e 2574 36be e610 eb3d ef73 73be
000000c0: 1bca 87bf d4fa dc3c f020 2a3e c4e5 7b3d
000000d0: e915 0abc ea77 023e da1f 453f e2d9 f53d
000000e0: 6195 183f ac8c be3e 062f 8b3c a80f a3bd
000000f0: 7ae4 873e 9b1c 853e 6553 f0be 3038 08bf
00000100: 6679 c83d 78cc 1d3e 555a a53b a51b a9bd
00000110: ecc3 80be 3ed8 0fbf 27a3 b1be d418 2ebe
00000120: 7173 0dbd 0cb9 79be 0b81 b43e 562c 133d
00000130: d5b8 c33e 8701 173e 7887 80be 33a6 cebe
00000140: 7ef5 8fbd 1fe9 033e 071d 483e 7d9b 95be
00000150: 554c c83e ddeb 8a3e 5ff2 f13e c9d8 763d
00000160: 810b 17be 9e95 ce3e 8ed6 743e eb93 153c
00000170: 6093 de3e a845 ab3e c4fb 59be fe99 4bbe
00000180: 05d4 2abd 28c9 b9be be35 483f f361 933e
00000190: f9b9 91be 32ea 013d 4d62 86be cfa9 723e
000001a0: a73d c03e 8af7 cdbd f426 dc3d dc9f 01be
000001b0: 73f3 d83d 1314 7b3e 3720 643d 97f3 bdbb
000001c0: 3249 cb3d 1dfc 02be 64d6 fabd 12e4 f33e
000001d0: 410d 6e3e 1b7d c3bc 9b15 6ebe ea0c a5bd
000001e0: 92fc bcbe c202 713d 8b7c fc3e fb2c 5fbb
000001f0: 260a 663c 0ae2 b3bd 4568 a63d cfd7 503e
00000200: 3a8e 953c 694d 56bf 57e6 213e 5254 3e3e
00000210: d14d 18be f820 4d3d 3864 54be 3eb9 273e
00000220: f59d 47bc 73e0 d9be 2a9e 053f dced e3be
00000230: b6f1 88bd cecc b63e 2ea1 f7bd 2e1a 333e
00000240: 69b7 893e b8d9 dc3c 4734 d5be a2ab 6c3f
00000250: 47c8 cfbd fff9 57bd 5716 b63d dc83 bfbd
00000260: a66d c9be a0c7 d53b 2341 9c3e 3511 593d
00000270: 5195 1abd 0ccd 513e 81a1 553e f99b 5e3e
00000280: 45dc 9bbd dfb7 98be 6a36 85bd b9ee d1bc
00000290: e971 293c 8dc8 6a3d e2b1 22be 4c69 c93d
000002a0: adaa a4be 620f 38bf a5b7 b4be 4067 8cbd
000002b0: f2a7 3b3e b566 803e 6702 eb3c 68b9 143e
000002c0: 18a2 9dbd 5dee 09be 8a99 e3bd b6f5 d93d
000002d0: 7952 f43c 7031 adbd 28d1 88be 9ce9 603e
000002e0: eea1 8cbe 0439 223e 06d5 4dbe 4104 cd3c
000002f0: 0d8d aa3e bf0b 50bd 088b ddbd a06b 1abe
00000300: 09cc 1abd 871c 4cbf 8e5a 213f 548a c23d
00000310: bc03 36be 4929 35bc 4e49 efbe 3c46 6a3f
00000320: cd02 d43c 14ec 6b3e f032 3f3f 824a 7bbe
00000330: 8c8f 12bf 8797 393f d33c 133c 9608 43bf
00000340: 32c9 403f 0d64 29be 0169 49bf 0b19 09bd
00000350: 0b17 7e3c c4ac df3d 46ab 51bf 1433 01be
00000360: b2a9 58bf cb42 e9be 2411 1f3e 6e48 00bf
00000370: 10b4 883e 796f 553c 6a69 0b3e 11f5 2a3e
00000380: 8a10 fcbe e442 d6bc 2575 cb3e 7c3c 29bd
00000390: 4430 7dbe 66a7 37bf a2bb 78be 2ded b63f
000003a0: e187 723d 15c3 88be d396 693e 68af 0dbd
000003b0: 8b79 283e f342 e43d d092 16bd d55f 26be
000003c0: a991 873f 9fdb 333e ae12 92be 33d0 ffbc
000003d0: edc4 b93d abaf b5bd 8e6d 25be ba75 1fbe
000003e0: bd59 29bf d18e c5be 95a4 3b3e ac7d 8dbd
000003f0: 79a8 393e bf27 433f ae8a ad3d 4bd8 3f3f
0.03141431 0.8172614 -0.33498266 -0.92232925 0.62809193 0.3015507 0.3473017 -0.6497389
0.4802095 -0.13469428 -0.44783565 0.63725114 0.944009 -0.8005934 0.19221374 0.51847434
-0.8778114 0.094083436 0.8144567 -0.13438603 -0.026463117 -0.24434337 0.36338767 0.08068193
0.48379308 0.2801991 -0.230047 0.82636726 -0.36162138 -0.030800113 -0.28174055 -0.63606757
0.6547987 0.38173974 -0.37857324 0.13078973 -0.11472367 0.44040224 -0.18732281 -1.1097395
0.36830342 -0.7117236 -0.14336073 -0.07633607 0.17873588 -0.17817743 0.114778325 -0.23774694
-1.0608553 0.026975073 0.16614127 0.06149842 -0.008428075 0.12741056 0.77001727 0.120044485
0.59602934 0.372167 0.016990196 -0.079619706 0.265415 0.25998387 -0.46938625 -0.53210735
0.0978878 0.1541003 0.005046169 -0.08257226 -0.25149477 -0.56189334 -0.34694788 -0.17001659
-0.03453392 -0.24386996 0.35254702 0.035930954 0.38226953 0.14746676 -0.25103354 -0.40361175
-0.07029246 0.12881897 0.19542323 -0.2922019 0.39120737 0.27133074 0.47255227 0.060265336
-0.14750482 0.40348524 0.23909971 0.009129505 0.43471813 0.3345158 -0.21287447 -0.19882962
-0.041706104 -0.36286283 0.78207004 0.28785667 -0.28462198 0.031717487 -0.26246873 0.2369759
0.37547037 -0.1005698 0.10749617 -0.12658638 0.10593309 0.24519376 0.055694785 -0.0057968604
0.0992607 -0.12791486 -0.12247923 0.4763494 0.23247243 -0.023863366 -0.2325043 -0.08059104
-0.36911446 0.05884052 0.4931377 -0.003405391 0.0140405055 -0.08783348 0.081253566 0.20394824
0.018256295 -0.8371187 0.15810524 0.18586853 -0.14873435 0.05008027 -0.20741355 0.16379258
-0.012183656 -0.42554054 0.52194464 -0.4451741 -0.06686728 0.3570313 -0.120912895 0.17490456
0.26897743 0.026959285 -0.41641447 0.9244939 -0.10145622 -0.05272865 0.0889098 -0.09351322
-0.39341468 0.0065240413 0.30518445 0.052994926 -0.037740055 0.20488375 0.2086239 0.21739186
-0.076103725 -0.29827783 -0.06504519 -0.025626527 0.0103421 0.057320166 -0.1588817 0.09834537
-0.32161465 -0.7189847 -0.3529636 -0.06855631 0.18325785 0.2507836 0.028687669 0.14523852
-0.076969326 -0.13469835 -0.111132696 0.10642569 0.029824482 -0.08456695 -0.26722074 0.21964115
-0.27467293 0.15842062 -0.20100793 0.025026442 0.33310738 -0.050792452 -0.10817534 -0.15080118
-0.03779224 -0.7973103 0.630288 0.0949904 -0.17774862 -0.011057206 -0.46735615 0.9151342
0.025880242 0.23039275 0.746871 -0.24540141 -0.57250285 0.7249684 0.00898667 -0.76184976
0.75307 -0.16542073 -0.7867585 -0.03347115 0.015508424 0.10921624 -0.8190197 -0.12617141
-0.84633934 -0.45558771 0.15533882 -0.5011052 0.26699877 0.013027065 0.13614431 0.16695048
-0.49231368 -0.026154943 0.39737812 -0.041317448 -0.24725443 -0.71739805 -0.24290326 1.429113
0.059211615 -0.26711336 0.22811441 -0.03459111 0.16452615 0.11145582 -0.036761105 -0.16247495
1.0591327 0.17564248 -0.28529876 -0.031227207 0.09070764 -0.08871397 -0.16155073 -0.15572253
-0.66152555 -0.38585523 0.18324502 -0.06908736 0.18130673 0.7623252 0.08473717 0.7493941

fc2f.bias f4 [32]
00000000: 4689 93bb bb91 a2be 1275 fd3c a4e5 3ebe
00000010: 775a f13c d9d4 a1be d7a4 433d e418 dd3d
00000020: 86fd a13d b727 4e3e 4dc0 00be 6e92 93bd
00000030: faf5 263e d9dd 00bd 654a bf3d a80b 10bd
00000040: 756a 373e 7a96 4fbb 9cc4 d13d 7e64 303e
00000050: c0ef 203e 5c49 cd3d 3fe0 d33d 3b92 143e
00000060: d551 96be 8fe5 ba3c 3dd1 a03d c589 e23d
00000070: cbd5 a23d 61cc 633e 2640 26be d59f 213e
-0.0045024483 -0.3175181 0.030939613 -0.18642288 0.029462082 -0.31607702 0.047764625 0.10795763
0.07909684 0.20132338 -0.12573357 -0.072056636 0.1630477 -0.03146157 0.093403615 -0.035167366
0.17911704 -0.0031675384 0.102425784 0.17225835 0.15716457 0.10023758 0.10345506 0.14508907
-0.29359308 0.02281454 0.07852409 0.11061434 0.07950934 0.22245933 -0.16235408 0.15783627
