model_l1_l2.pth (torch, 113654 bytes, 54 tensors)

fc1.weight f4 [32, 1]
00000000: 606f 0bbe 527e a4bf ebf9 b7bf 15d5 493f
00000010: 2cfc 3c3d c211 193d b3d9 543f 50a8 553f
00000020: 4d2c 403f 5695 c83f 17b6 613e ccfd 32be
00000030: 8747 fabe d459 f63d 6fbb 543e 8790 aebe
00000040: eba1 5a3e 89fa 303d 788b 8abf d3d5 e53f
00000050: 40ac 353f 7e89 c23f ab11 283d 2aaf 513f
00000060: 4aca 0c3f 909f 61be 4648 36bd 3757 4f3d
00000070: 1509 42be 8a93 273f 9577 353d 70ec 3d3d
-0.13616705 -1.285105 -1.4373144 0.7884076 0.046138927 0.03737045 0.8314468 0.8345995
0.750676 1.5670574 0.22042118 -0.17479628 -0.48882696 0.12028852 0.20774625 -0.3409464
0.2135083 0.04320768 -1.0823812 1.7955879 0.7096596 1.5198209 0.041032474 0.81907904
0.5499617 -0.22033525 -0.04450252 0.050620284 -0.18948777 0.654595 0.044303495 0.046368062

fc1.bias f4 [32]
00000000: 567b ad3f 3553 06bf 0bb7 773f 08d5 99bb
00000010: 1ae7 febd 13fe a1bf 705c 8dbf 7b0e b4be
00000020: 3323 ac3e 116d 0b40 369e f3bf bb1f ef3f
00000030: f682 983f 6018 1dc0 2501 c0bf 630b 18c0
00000040: 8d3d 07c0 a2ba 04c0 71c4 80c0 3c67 3d40
00000050: 028b dc3e 8ef2 1740 5cd8 e5bf b11b cfbf
00000060: 908b 0a3f 1988 8d3f 3a6b 9b3f 5e77 afbc
00000070: c57e 1840 1c1e c6bf 1da0 3dbf 1b8e 1bc0
1.3553264 -0.52470714 0.96763676 -0.0046945848 -0.12446423 -1.2655662 -1.1043835 -0.35167298
0.33620605 2.178532 -1.9032657 1.8681558 1.1914966 -2.4546127 -1.5000349 -2.375695
-2.1131318 -2.0738912 -4.0239797 2.959426 0.43074805 2.3741794 -1.7956653 -1.6180326
0.54119205 1.1057159 1.2142098 -0.021419223 2.3827374 -1.5477939 -0.7407244 -2.4305484

fc2.weight f4 [32, 32]
00000000: d298 06bd d18d 1d3e c893 dd3d 776a 1dbe
00000010: b420 b4be 62a5 1bbe 04e5 2abe 0c54 88be
00000020: 404d 26be 375d 0fbf aefb a63d 3084 133d
00000030: 1baf 1b3e a62b 72bd a131 3c3e bdd8 083f
00000040: ab38 ba3d 2f48 f83b f19e 013f 52ba 04bf
00000050: daf6 9dbe 5ddd ddbe 2d20 fe3d f4f6 b73d
00000060: 6831 71be b54f 183c 786b 1a3d 7a42 8ebe
00000070: 0ebc 7dbe d166 6f3d 7b6a 80be 4654 ba3e
00000080: 35a3 5cbe 43e5 eb3c 89a2 0b3d ce24 8bbd
00000090: f7a3 be3d f215 bbbc 4d39 ddbd 12d0 c8bd
000000a0: b949 6fbd 8f51 1dbe d1df 2a3e af62 eb3d
000000b0: 00a3 de3d b5ce 44be 1907 443e 6987 dd3c
000000c0: 499e 203e e24e 99be f8f0 b63d 7b6b 7b3d
000000d0: 5f79 03ba 7548 6abd afa8 24be f073 5fbd
000000e0: fbcf f6bd 0587 8bbd cac5 393d 25fc b8bd
000000f0: 09dd 1fbe ac6b 0fbd 33a6 163d edf7 e0be
00000100: 8ccb 103e e1b2 10be 9b67 6fbc 42fb 043e
00000110: 46cd 6f3c 40e3 c33e 2b7b 03bd 3088 2e3e
00000120: f810 11bd 327b 083e eefa 84be beca 173e
00000130: 3566 a23d 42d6 80be e215 83be 702c 29bd
00000140: 5dd0 9fbe 5b23 fb3e 92f1 25be 90ba 253e
00000150: 9f13 5f3d c540 233e c0e0 9f3e 81f5 7b3d
00000160: 21fb f43c 1b27 283e eabf 63be e199 573e
00000170: d899 0e3e bd0e 003e 10be aa3e 7596 3c3e
00000180: b7f5 60be 94ed 273e 690b 193e c65e ae3d
00000190: d421 473d 254c adbe 6ec6 68bb c0e8 0a3e
000001a0: d431 60be 008d 79be cf92 013e 1cfd 2abd
000001b0: 1808 373e d578 403e ae43 273e 16ff 5dbd
000001c0: 7ff4 9e3e 07b8 8bbe 9fa7 41bd 4091 6abe
000001d0: 78c4 42be ff33 58be a77c b1be ddb4 7ebc
000001e0: 11ba c43c 7614 04be 4acb 283d 1d93 63ba
000001f0: 07c8 babe 023d 9dbd 3753 b7be 06fa cfbe
00000200: 7893 9fbe 6caf 20be 8002 e9bd c5c3 283e
00000210: d0e1 8a3e a6d4 083e 1493 693e f3de 413e
00000220: 73cf 123d 8021 433e b2f1 013e a225 5fbe
00000230: 20b1 22be c7e1 5d3e ec2c 493e 00bc 76be
00000240: 075b 173e 9bff 873d 8ace c93d a602 7d3e
00000250: 6c7e 56bd e862 8e3c 7b60 21bd a201 913e
00000260: 2c03 1c3e 0b8f c1be e927 a7bd 8fbc f83d
00000270: 4c84 e3bc 84fa c03e 6912 2c3d b5a6 483e
00000280: 2120 c5be 3955 cb3d a165 59be a31a c6bc
00000290: 651b 2c3e b5b7 d83e 6f03 afbc e268 a63d
000002a0: a831 043b 7ffb cdbd 0f80 6c3e 10dc a7be
000002b0: 9fca 1cbe dbe4 763f 84e4 d63a 6699 d23d
000002c0: c158 633e 7109 923e b4a7 ce3d 5afc 533e
000002d0: edfd c2bd 9d2e f3bd 936a 443e 4369 113e
000002e0: 24c8 523e cc9a e9bc 96d7 f0be bd9c 273e
000002f0: 327b 06bf 60d5 163d e70e 283f 27a6 b93e
00000300: 79e0 05be 9e3d a93c 2329 253d 4fd1 f23d
00000310: 703e b7bd fdd5 8f3e 6706 a23d 9416 9dbd
00000320: 4b92 1f3e 1f80 703d c7f9 22bc afce 413b
00000330: 81c7 983d 4812 393e d04b 85be 6884 673d
00000340: dabf 83be 9e95 453e 9673 f5bd 2157 693e
00000350: 05ab 083e d9d2 f13d 3c7f 793e 5e56 84be
00000360: 446a 5c3e 4576 533e 8497 a9bd 7b18 9e3e
00000370: 3c6f 1cbc 6c07 03be bd09 a53e be59 b43e
00000380: 7931 af3e fbb5 573e 3973 b5bc d271 3bbe
00000390: 6fbf 34be b83d 8f3d eb70 5dbe 4dbe 6cbe
000003a0: 82a2 99bd 41ed b73d e9d3 b9be b04c 6d3e
000003b0: 69e7 903e c709 863d fc33 2abf 7333 f2b9
000003c0: 72ee 90be 5745 4dbd 6c9b 9c3d 92b1 023d
000003d0: 182e 073d b818 0d3d ce64 f0bd 264e b2be
000003e0: eb15 3cbd 9382 6c3f f818 1c3e 24f9 50be
000003f0: fdfd de3d 95a5 73be 70a4 363e 807d 85bc
-0.032860585 0.1538613 0.10819203 -0.15372644 -0.351812 -0.15199807 -0.16688925 -0.26626623
-0.16240406 -0.5600161 0.08153473 0.036014736 0.15203516 -0.059123658 0.18378307 0.53455716
0.0909284 0.0075769643 0.5063315 -0.518468 -0.30852395 -0.4333295 0.12408481 0.089826494
-0.23554003 0.009296347 0.037700146 -0.27785093 -0.24778768 0.058447663 -0.25081238 0.3639242
-0.21546634 0.028795844 0.034090552 -0.06794129 0.093086176 -0.022837613 -0.10801945 -0.09805311
-0.058419917 -0.15363143 0.16686942 0.11493432 0.108709335 -0.19219477 0.19143333 0.027042108
0.15685381 -0.29942995 0.0893268 0.0613818 -0.0005015339 -0.057198007 -0.16079973 -0.054553926
-0.12051388 -0.06812862 0.045354642 -0.09032468 -0.15611662 -0.035014793 0.036779594 -0.43939152
0.14140147 -0.14130737 -0.014612104 0.12986472 0.014636343 0.38259315 -0.032099884 0.17044139
-0.035416573 0.13328245 -0.25972694 0.14823434 0.07929651 -0.25163466 -0.25602633 -0.041302145
-0.31213656 0.49050412 -0.16205433 0.16184449 0.05446207 0.15942676 0.31226158 0.061513428
0.029904904 0.16421168 -0.22241178 0.21054794 0.13925874 0.12505622 0.3334813 0.1841677
-0.21968733 0.16399223 0.14945759 0.0851417 0.048616245 -0.33847156 -0.0035518664 0.1356535
-0.21894008 -0.24370193 0.1265366 -0.04174529 0.17874181 0.18796094 0.16334412 -0.054198347
0.3104591 -0.2728884 -0.047278997 -0.22906971 -0.1902026 -0.21113585 -0.34665415 -0.015546051
0.024014505 -0.1289843 0.041209497 -0.00086812844 -0.36480734 -0.07677652 -0.35805675 -0.4062044
-0.31167197 -0.15691918 -0.1137743 0.1648093 0.27125406 0.13362369 0.22810012 0.18932705
0.03584237 0.19055748 0.12689856 -0.217917 -0.1588788 0.21668158 0.19646043 -0.24095154
0.14780818 0.0664055 0.09853847 0.24708042 -0.05236666 0.017381147 -0.03939865 0.28321558
0.15235585 -0.37804446 -0.08161909 0.1214534 -0.027773045 0.37691128 0.042009745 0.19594844
-0.38501075 0.09928364 -0.21230175 -0.024182623 0.16807325 0.42327657 -0.021363942 0.081254736
0.00201712 -0.10057735 0.23095725 -0.32785082 -0.15311669 0.96442956 0.0016395007 0.10283165
0.22201826 0.28522828 0.100905806 0.20701733 -0.09521089 -0.11874125 0.1918128 0.1420031
0.2058416 -0.028516196 -0.4703948 0.16368385 -0.5253173 0.036824584 0.6564774 0.36259577
-0.13073911 0.020659264 0.040322434 0.11856329 -0.08947456 0.28092948 0.079113774 -0.07670322
0.1558315 0.058715936 -0.009947247 0.0029572656 0.07459927 0.1807338 -0.26034403 0.056522757
-0.2573231 0.19295356 -0.11984937 0.22787143 0.13346489 0.11807794 0.24364942 -0.25847143
0.21524912 0.20650585 -0.082808524 0.30878052 -0.009548005 -0.127958 0.32233992 0.35224718
0.34217432 0.21065514 -0.022149669 -0.18305138 -0.17651151 0.06994194 -0.21625106 -0.23119469
-0.07501699 0.089807995 -0.36294487 0.23173785 0.28301552 0.06544834 -0.6648557 -0.0004619617
-0.2830692 -0.050114956 0.07646832 0.031907625 0.033002943 0.0344474 -0.11737977 -0.34825248
-0.04591934 0.9238674 0.152439 -0.2040754 0.10888288 -0.23793633 0.17836165 -0.016295195

fc2.bias f4 [32]
00000000: 0432 1dbf 8d3a 88be 7ff3 ce3d d332 b6bc
00000010: 4638 3c3e 25a1 0bbd 2df5 c83d ad38 913d
00000020: 37ca 68be de87 153e 7d87 61be 3af2 bd3d
00000030: 24dd 1fbe b8aa 903e 3ab9 c43d ad82 203e
00000040: c0a4 093e 16d8 833d efed 433e 23fc 513e
00000050: 4517 163e d9f4 2f3d 35b1 4bbe 8697 9bbc
00000060: b010 0f3e 7ffe 4f3e f059 50bd 04f0 273e
00000070: 2c53 633e 2263 f5bd fc41 d33d 05f0 c73d
-0.6140444 -0.2660717 0.10105037 -0.022241032 0.18380842 -0.034089226 0.098123886 0.07090888
-0.22733389 0.1460261 -0.22024341 0.09274717 -0.15611702 0.28255248 0.09605642 0.15674849
0.13441753 0.064376995 0.19133733 0.20506339 0.14657314 0.042958114 -0.19891818 -0.01899315
0.1397121 0.20311926 -0.05086702 0.16400152 0.22199696 -0.11981799 0.1031532 0.09762577

fc2a.weight f4 [32, 32]
00000000: d6ec 153e 710b 89bd c2d3 66be 61c9 8a3d
00000010: 06f1 753a e1a5 df3d 90d0 d3be c91c 85bd
00000020: ecd5 453e 07c0 18bd 1cfb 1f3c a017 68bd
00000030: 982e 523e 96f5 50be 2297 e4bd b6fa f03d
00000040: 2e06 14bf 288d e8bd b7fb a2be 85a0 f1be
00000050: eab3 18be 3b60 533e 5d7a 7f3e b7f3 a53e
00000060: 8961 2bbe c182 88bd 2310 f2bd 5aab 7b3d
00000070: b308 bdb9 69a0 c33e 12ce b0be d1d1 8bbe
00000080: 487b 7c3e 28a2 1e3e 5a32 5ebf cea4 243f
00000090: 7f91 3fbe 454b e03e eeaa 883d 2b9e 91bd
000000a0: df8a 593d 7846 d6bd 130f 3bbf fb1b 3dbe
000000b0: 2b47 32be b529 943d 92d5 fa3d 2902 543f
000000c0: 3ef1 47be 8613 a0be 1a52 453e f7c1 233c
000000d0: 038a cdbd f21f ccbd 7b68 4fbe c447 833e
000000e0: 208f a13e b6a9 6fbd 9fd8 e7be 7818 923e
000000f0: b2d9 533f 69f3 e33d f6e9 a93c ded6 3b3e
00000100: 0dd5 62be a158 16be dfaa d23e 2236 a4be
00000110: ef7f 85bb 7948 54be 5064 f73d 6d01 863e
00000120: 7a07 9dbe bf53 593e 19fb c73e 0f86 153e
00000130: 00fe 003c 2e41 d0bd 18b0 27bd 3d3f b7be
00000140: d778 f53e 45b3 813d c539 e5bd cca6 ef3e
00000150: 6ea2 243d 964f 9cbd ef8a a63d 353f 00bf
00000160: b868 93bd f9ed 813d 200d e33d 6969 b1be
00000170: cb91 6cbe 3af6 2bbe 18d7 f13e b995 93bd
00000180: 2185 4d3e cda8 dcbd 9863 9cbe 6543 43bd
00000190: 477c 2d3e fdb9 5dbe f08a 63be 9965 17be
000001a0: 9cca f53d d996 babd 55c8 85bd 45c3 4abe
000001b0: 4de9 3e3e 8df4 8bbe 0458 4b3e 2b02 02be
000001c0: 7ddb 0ebf 2609 d83c f0e1 03bf 6237 44be
000001d0: 4d78 abbe 18ec 8d3e 674b 993d 39b7 93bd
000001e0: d5fc b8be 3acc 893e 98be 1e3f b181 ecbd
000001f0: d70a c5bd 1f7a 9ebd 30d7 0e3c 8418 26bd
00000200: 2f26 843e aa2b 51bd fafd 42be c4a1 4abe
00000210: b54d d03d cdb2 7bbe 09ea debe 47b7 2a3d
00000220: 9bf8 9e3e f267 5a3d 2839 d5bd 8084 bb3d
00000230: c3a6 c33e 867c 87be f782 693d 35e1 323e
00000240: 0e83 8cbf f0e5 953e 7eca abbe 2f57 f5be
00000250: 1ea6 4b3e cd00 ca3e 6cba aa3d 8037 083e
00000260: c37d 69bd 3f03 303e 0710 c23d db2f 8dbc
00000270: ed70 033e 97af a73e 049f cdbe f547 a5be
00000280: ed9d 8a3e 19d8 5f3e c743 28bf 885a 2d3f
00000290: aecf 613d dfcb 6b3e 5579 d6be 7f7c 453d
000002a0: b989 143e b886 3cbe 5482 4ebf ba8d 6f3d
000002b0: 5522 7cbe c110 473e 0dbd f03c 5611 3b3f
000002c0: 9954 a7be 3783 aebe c743 8abd 4e01 fcbe
000002d0: 1691 85bc dca3 843d 7be3 8dbe 28ed 1b3f
000002e0: 229d c13e f368 bc3d 7a7e a3be 1684 453f
000002f0: d21a 433f 2c0a 873e 545f 4fbe 3de1 843d
00000300: 53ea 93be 44ab 9abc ca61 0d3f 3313 67be
00000310: 06aa 973e 6fcb 443e 99a8 eabd 2e57 dabc
00000320: 502b 8ebd 5599 18bc d8ae 21be 4d07 533e
00000330: 6462 cc3d 9e06 413e 26a6 8ebe d0ec 473e
00000340: 8ae7 663e bfef 433d f8d3 723e 2a34 733e
00000350: 8b4b 6a3e ea87 9c3d 95ee 06be 934c 02bd
00000360: 1022 353d 486f 673e 9fbd 263d 469f 313e
00000370: 4b45 ac3d f1d0 9cbd 318a a33d dc3e cebc
00000380: d5f3 e23d 7a39 113e f72d 513f 7bb2 56bf
00000390: 8417 0fbe 3925 dabe 7323 b4bd b09b 9a3e
000003a0: b82a 28be 959a 6e3e f124 3b3d e22a 9dbe
000003b0: 0b03 ba3e cb69 8bbe b249 103d 6a42 04be
000003c0: 95ca 9dbd 7873 f53e 1b07 3dbd 45f1 0a3c
000003d0: 554e 2ebe f07b a73e 3a93 433f aead bfbd
000003e0: 6f54 18bf 4ff7 aa3e f34f e33e 1b45 6cbb
000003f0: 42ad 2ebe c6b9 90be d9fc 743c 66c2 cabe
0.14641127 -0.066916354 -0.22541717 0.06776691 0.00093819236 0.10920311 -0.41370058 -0.06499631
0.19319886 -0.037292507 0.009764459 -0.056663156 0.20525587 -0.20406184 -0.11161639 0.11766569
-0.5782193 -0.113550484 -0.31832668 -0.4719278 -0.14912382 0.20642178 0.24949022 0.32412502
-0.16736425 -0.06665564 -0.11819484 0.06144271 -0.0003605537 0.3820832 -0.3453222 -0.27308515
0.24656403 0.15491545 -0.8679558 0.6431397 -0.18707846 0.43807426 0.06673227 -0.07110246
0.053110953 -0.104626596 -0.73069876 -0.18467705 -0.17409961 0.072345175 0.122477666 0.82815796
-0.1952562 -0.31264895 0.192696 0.009994975 -0.10036089 -0.099670306 -0.202547 0.2564069
0.31554508 -0.05851146 -0.45282456 0.28534293 0.8275405 0.11130411 0.020741444 0.18343684
-0.22151585 -0.14682247 0.4114599 -0.3207255 -0.0040740888 -0.20730771 0.1207968 0.26172963
-0.30669767 0.21223353 0.3905876 0.1460192 0.007873058 -0.10168682 -0.04093942 -0.35790434
0.47943756 0.06333021 -0.11192659 0.46806943 0.040193968 -0.07632367 0.08131968 -0.50096446
-0.07197708 0.06344218 0.11086488 -0.34650734 -0.2310249 -0.16793147 0.47234416 -0.07206292
0.20070316 -0.10774384 -0.30544734 -0.047671694 0.1694194 -0.2165298 -0.22220969 -0.1478485
0.12001535 -0.09110803 -0.06532351 -0.19801052 0.18643685 -0.27335015 0.19857794 -0.1269614
-0.5580366 0.02637155 -0.5151663 -0.19161752 -0.3349022 0.27719188 0.07485085 -0.07212681
-0.36130396 0.26913625 0.62009573 -0.11548174 -0.09621208 -0.077381365 0.008718297 -0.040550724
0.25810382 -0.051067032 -0.19042197 -0.19788271 0.101710714 -0.24579926 -0.4353793 0.041678693
0.31049046 0.053321786 -0.10411292 0.09156132 0.38213167 -0.2646219 0.057009663 0.17468722
-1.0977495 0.2927699 -0.33552927 -0.47918078 0.19887587 0.39453736 0.083363384 0.13302422
-0.0570047 0.17188738 0.09475713 -0.017234733 0.12836047 0.32751152 -0.40160382 -0.3228146
0.27073613 0.21859778 -0.6572842 0.67716265 0.0551297 0.2302699 -0.41889444 0.04821443
0.14505662 -0.18410766 -0.80667615 0.05848477 -0.24622472 0.19439985 0.029387021 0.7307333
-0.3268173 -0.34084484 -0.06751209 -0.49219745 -0.016304534 0.06476566 -0.27712616 0.60908747
0.37815195 0.09199705 -0.3193243 0.7715467 0.762128 0.26374948 -0.20251209 0.06488273
-0.28889713 -0.018880494 0.5522734 -0.22565918 0.29621905 0.19218229 -0.11457939 -0.026652899
-0.06941855 -0.009313901 -0.15789354 0.20608254 0.09979704 0.1885018 -0.27861136 0.1952393
0.22549263 0.04783606 0.23713672 0.23750368 0.2288038 0.07643111 -0.1317695 -0.031811308
0.044221938 0.22601044 0.04070818 0.17345914 0.08411654 -0.0765704 0.07985342 -0.025176458
0.110816635 0.14182082 0.8171076 -0.8386609 -0.13973814 -0.42606524 -0.08795824 0.30196905
-0.16422546 0.23301156 0.045689527 -0.3069678 0.36330447 -0.2722915 0.03522653 -0.1291596
-0.07704655 0.47939658 -0.046149354 0.008480375 -0.17022069 0.32711744 0.76396525 -0.09359299
-0.59503835 0.33391806 0.44396934 -0.0036051932 -0.1705828 -0.28266734 0.014952862 -0.3960144

fc2a.bias f4 [32]
00000000: 7575 90bd 20c3 4abe 6523 063e 470c 98be
00000010: 776d 14be bbb3 b3bd c941 e43e 8492 8bbd
00000020: 43b0 ed3d 9d67 0b3e d2b7 2abe 455b 1b3e
00000030: 4db4 c23d 83a7 553e 8285 903c dfc8 813e
00000040: 9691 123d 9d69 adbe 9483 3c3f 4f6b 713e
00000050: ebd5 e7bd 76d9 c1bd 86bb 1d3e 1d41 81bd
00000060: 15e0 c7bd 6541 cc3d 9655 ac3c 9c48 143e
00000070: edf7 483e 2dbf 00bc aaff 57be 6a61 f7bd
-0.07053653 -0.19800997 0.1309944 -0.29696867 -0.14494883 -0.08774515 0.4458144 -0.06815055
0.11605885 0.13613744 -0.16671684 0.15171535 0.09507046 0.20864682 0.017641786 0.25348565
0.035783373 -0.3386964 0.7363827 0.23576091 -0.113200985 -0.094653055 0.15403566 -0.063112475
-0.09759537 0.099734105 0.021036904 0.14480823 0.19625826 -0.00785808 -0.21093622 -0.12079127

fc2b.weight f4 [32, 32]
00000000: 62e4 38bd 455d 353f f308 8a3e a137 373e
00000010: 9ad5 f3bd ab34 3dbe c72f d1be fa42 953d
00000020: ab38 b13e 365d 863e 79ba 0abe eb5e b6be
00000030: 2915 203e 6f49 8ebe 5565 58be b9e8 0dbd
00000040: eb45 883e 79c8 aa3d a976 6dbe 71ce 27bd
00000050: 22c4 4f3e bdd4 b73e ccd8 3b3e b17b 23be
00000060: dc1b 3e3e 10a4 2fbd fec8 4f3d 9808 e7bd
00000070: 16f8 84bd 1de9 83be fc8c 6c3e 9df7 86bd
00000080: 9a73 d43d 1643 a73d 853f afbc 2865 2b3d
00000090: 1392 73bd 12a7 d03e 5fcf 06bd 30dc a53e
000000a0: 366c 9d3e a4f1 ab3e 5074 13bd f9c6 d6be
000000b0: c59e 563e eb6e b33e eb4a 2dbc f69b f73d
000000c0: ad0d 82be 28a7 0b3e d0dc 0bbe 596d 773d
000000d0: 38e6 6abc 9ccc 35bc e01f e43d 7bc9 093f
000000e0: 3496 7bbe a634 e4bc 4d87 953d 3684 5fbe
000000f0: 80df 4fbe 3c5e 1ebe 26a7 bdbe 56b1 c2bd
00000100: 1548 0ebf 9a3a 9dbc 8bbd 193f 3b81 13bd
00000110: 14fb 2abe 48b2 e5bd e844 cb3d 4868 8fbe
00000120: 4445 81be fd3c 353f 7128 0fbf 1bdc 4b3e
00000130: a403 363d c0ae ee3e 5283 c1be 8d76 8c3e
00000140: dd11 11be 8bd2 a3be bbc6 8e3e df23 e83e
00000150: c03f 91be 4c9b acbe 5923 8abe afa2 1e3e
00000160: af8c 8bbe 1964 48be 7d7a babd 8f05 df3d
00000170: 56f2 b73e efe2 2e3e df31 afbe cd66 0bbf
00000180: 7ffa 8abe e555 173f 1004 303c eb40 a83d
00000190: 164e 42bd 8511 d73e 8305 81be 0d26 573d
000001a0: 6c80 783e 9265 083f 3492 4bbd d1c4 05bf
000001b0: 7016 2e3e 4aa0 b9bb 7764 98be 1fad 38be
000001c0: af9c 1f3e 40ad 073e 3e9c 8fbe 2f45 21bd
000001d0: a702 7b3e c4eb 0a3d 2383 213e d3e2 65bd
000001e0: 0470 3dbc c7fc 0f3e 9a3d 533e 81ea 8fbe
000001f0: 8ac6 473d bfb2 8cbd abcb 323e 7b39 123d
00000200: b746 4abd f6b6 023f 17ae c53c 069f 093e
00000210: 347c e3bd a2e4 963d efd2 0ebd 3f20 463e
00000220: 6a43 1c3f df60 ad3d 387a 43be cca6 8abe
00000230: 7330 143e 310e 163e 0891 03bd c642 373e
00000240: abf7 82be 5755 8fbc 72fb 47be 9c7a 503e
00000250: 3c3d 053e 20c5 c9bc b03a 723e e224 af3d
00000260: 7258 bb3d 4d60 2abe 57ec 72bd e453 4b3d
00000270: 9851 77be f6bd 6dbe fb85 763d b5d6 94be
00000280: 4d4c 73be 2373 11bf b4ee a33e c975 96bd
00000290: dd62 323e 0d61 b4bf 3b49 d83c bcd0 71be
000002a0: eb1f 48bf 35a9 f4be b8a6 de3d 5332 663f
000002b0: 5caa 33be a47b f7bd 3d9a 283d c2c5 713d
000002c0: 4a0d 793c 6979 00bd 2fad 963e f3e6 ac3d
000002d0: d18e 01bb e1aa 44be 4204 5a3e 12bb 09bf
000002e0: df6b 9c3e 7405 d5bc 7daa 8cbe 6771 883e
000002f0: e6d9 8d3e dc9f 2a3f 542d 07be 59a9 50be
00000300: 0c36 893d 418c 51be 5a31 1f3f 1718 a93d
00000310: 6c21 1d3e 3137 95be aa89 9a3e 4d23 893d
00000320: df8a 833d 6210 603e 5fca 59be 19d8 68bd
00000330: 98d5 313e 48be 5c3e ad83 97bf 18c4 8a3e
00000340: b0ba 8abd bba4 f53d 40d7 66bd dc1e 743e
00000350: 06b3 18be a1d5 94be 9c4f 363f 0ea6 dabe
00000360: 7896 173f 0806 693e d84f afbd 57d7 1f3e
00000370: f98e 54be 3b01 17bd 580a c9be b040 d4be
00000380: 1265 6dbe cf43 8bbd 38f8 5e3d 40f6 71be
00000390: cae0 b6be 3c00 163e 734c 303f 9c10 d93d
000003a0: 8e6f e33d 6edd bf3e afeb 9cbd 6ed5 21be
000003b0: 4bd3 cbbc ac90 fe3e f4f5 9b3d 9f16 22be
000003c0: 844c 1dbd 3acc c2be 0c96 5b3e 7e14 383e
000003d0: 7f55 703d 0603 1ebf d29b c43d c710 b8bc
000003e0: 4870 21bd 3234 453e fbb3 66be 8f91 0b3e
000003f0: 0711 803e 6b81 21be 7828 0fbf d012 4bbe
-0.045139678 0.70845443 0.26959953 0.17892314 -0.11905976 -0.18477122 -0.40856764 0.072881654
0.34613547 0.2624299 -0.13547696 -0.35619292 0.15633072 -0.277904 -0.21132405 -0.03464577
0.26615843 0.083390184 -0.23189797 -0.040968362 0.20289662 0.35904494 0.1834442 -0.15965153
0.18565315 -0.04288107 0.05072879 -0.11280936 -0.06492631 -0.2576379 0.23100656 -0.06590197
0.10373612 0.081670925 -0.021392593 0.041844517 -0.05946548 0.40752465 -0.03291261 0.32394552
0.3074662 0.33582795 -0.035999596 -0.4194868 0.20959003 0.3504556 -0.010576944 0.12090294
-0.2540106 0.13637984 -0.13658452 0.060407016 -0.014337115 -0.011096146 0.11138892 0.5382306
-0.24569017 -0.027857136 0.07301197 -0.21827778 -0.20300102 -0.15465635 -0.37041587 -0.095064804
-0.5557874 -0.019192982 0.60054845 -0.036011916 -0.16697341 -0.11215645 0.09925252 -0.28009248
-0.25248158 0.70796186 -0.55921084 0.19908182 0.044437066 0.466177 -0.37795502 0.27434197
-0.1416697 -0.3199657 0.27885994 0.45339867 -0.2836895 -0.33712232 -0.26980093 0.15491746
-0.2725577 -0.19569434 -0.09105394 0.10889732 0.35927075 0.17078756 -0.34217736 -0.54453737
-0.27144238 0.5911544 0.010743156 0.08215507 -0.04743775 0.42005554 -0.25199518 0.052526522
0.24267739 0.53279984 -0.049699977 -0.52253443 0.17000747 -0.00566486 -0.2976415 -0.1803479
0.15587114 0.13249683 -0.2804889 -0.03937262 0.2451273 0.03391625 0.15772681 -0.05612452
-0.011562351 0.1406127 0.20628968 -0.281086 0.048773326 -0.068700306 0.17460506 0.03569935
-0.049383845 0.51060426 0.024130864 0.13439569 -0.11107674 0.07367827 -0.03486913 0.19348238
0.61040366 0.08465742 -0.19089592 -0.2708038 0.14471607 0.14653851 -0.032120734 0.17896566
-0.2557958 -0.017496748 -0.19529513 0.20359272 0.1301164 -0.02463013 0.236552 0.08551957
0.09147729 -0.16638298 -0.059307422 0.04964055 -0.2415222 -0.23216996 0.060186367 -0.29070058
-0.23759575 -0.5681631 0.32018054 -0.073466845 0.17420526 -1.4092118 0.026402107 -0.23614782
-0.781737 -0.47785345 0.10871643 0.8992054 -0.17545456 -0.120841295 0.041162718 0.059026487
0.015200922 -0.031365786 0.29429004 0.084424876 -0.0019768963 -0.1920581 0.21290687 -0.5380107
0.3055105 -0.026003577 -0.27473822 0.2664902 0.27705306 0.66650176 -0.13200885 -0.20377101
0.06699762 -0.20463659 0.6218468 0.08256548 0.1534478 -0.2914367 0.30183154 0.06696186
0.06422972 0.2188125 -0.21268605 -0.05684671 0.17366636 0.21556962 -1.1837059 0.27102733
-0.06773889 0.119943105 -0.056357622 0.23839897 -0.14912042 -0.29069236 0.71215224 -0.42704815
0.5921397 0.22756207 -0.08560151 0.1560949 -0.20757665 -0.036866408 -0.39265704 -0.41455603
-0.23183087 -0.06800043 0.05443594 -0.23629093 -0.35718375 0.14648527 0.6886665 0.10598871
0.11105262 0.37473625 -0.076621406 -0.15804073 -0.024881026 0.4971975 0.07615271 -0.15828942
-0.03840305 -0.38046438 0.21443957 0.17976567 0.058675285 -0.61723363 0.09600033 -0.022468938
-0.03941372 0.19258192 -0.22529595 0.13629745 0.2501299 -0.15772025 -0.55921125 -0.19831395

fc2b.bias f4 [32]
00000000: 9c52 65be 1a82 d7bd 4a0a 27be be5a e3bd
00000010: 184c d6be 359d 843e 772d 83bc 5462 b23e
00000020: e3be e0be dde8 41bd fb16 513e c70d 14be
00000030: 9c75 6d3d 0dff 67bd 25c8 8b3e e191 edbd
00000040: 4ef8 313e f01b e23d 9ce8 c13d a035 bebd
00000050: 7006 bdbd dcb4 a43e 263e ec3d cea1 febd
00000060: c1b0 a7be c329 a03d b54e f3bd 858b 8e3c
00000070: 86ac e63e 6276 8f3d 6de2 1d3c b49a bbbd
-0.22394794 -0.10522862 -0.16312519 -0.11101292 -0.4185493 0.2590119 -0.01601289 0.34840643
-0.43895635 -0.047341216 0.20418923 -0.1445838 0.05797349 -0.05663972 0.27301136 -0.1160009
0.17379877 0.11040485 0.09468195 -0.09287572 -0.092297435 0.32169235 0.115352914 -0.124332055
-0.3275204 0.078204654 -0.118802465 0.017400512 0.450535 0.070050016 0.009636504 -0.09160367

fc2c.weight f4 [32, 32]
00000000: 0155 793e 1661 c0be aeac da3e 362e 6abe
00000010: 253c 67be f4e7 98bd 5c8c 25bf a197 62be
00000020: b8ae 73be e9bb 42be 14bd a9bd 0f0a adbe
00000030: 8650 e73e d977 70be 8553 f0be 6d81 873d
00000040: 1485 b8be e6d2 4c3e bdc2 96bc d41c 463f
00000050: 934b ea3d a514 773e 0bdc 7ebe 058e 89be
00000060: a049 fcbd ffdb 29bf 4f18 5cbc 0c65 2bbe
00000070: 0c2c f23c 543c 7fbe a9d7 913e dc87 96be
00000080: be2b ad3e e4e7 6cbe fb24 273e c9a5 913e
00000090: 5503 6dbc 91dd 34bd 4125 ef3c a8df 863d
000000a0: 4f8a 56be d6d4 f33c b33d f33e 3674 dbbd
000000b0: 41c9 05bd ce99 93bd a830 34be 252d 88be
000000c0: f101 913e 7db6 653e 620b 18be 485a e33e
000000d0: a641 363e cbfd 913d 1be1 2f3e 40e3 823c
000000e0: 7b42 9a3e f506 b2be bb07 ce3d 49a2 08bd
000000f0: 7624 e5bd 7e3b 17be 49db b43e b9e2 d13e
00000100: 2762 b83d be5a b6bd 58b6 4a3d 904f 4d3d
00000110: a295 a83c 183d 99bd 974f 003c 58b3 76be
00000120: 268b e4bd 1a2e 9b3d 99af 7abe 55ad b8be
00000130: 3b1c ce3d aa29 6fbe b751 1fbe 81ba 99be
00000140: 4eb2 28be 1f0e 8e3d 0301 123e 9b6b aa3e
00000150: b74c c63e 8d8b 09bf 1070 4b3e f0a1 25be
00000160: d779 fd3d 17ad 8fbe d697 a7be db43 92bd
00000170: 4802 27be ed93 86bf 00b0 85be 8151 fa3e
00000180: 438e 433e 28e0 94be 5fb7 b83e d962 243e
00000190: c0af e03c e354 de3d a0e6 243f 2009 553d
000001a0: 876d 2e3c 12ae 9bba de71 133f 6f79 af3d
000001b0: 38b8 4abf 0543 323d fbff 833d 3338 8dbd
000001c0: e765 29be e574 a6bd ba92 b23b d34a b63e
000001d0: 83d6 5e3e 80ba f4bd 4191 c53e 1ae8 a4be
000001e0: 1bb8 343d 97ac 83be 31fb b6bc 8e04 57be
000001f0: f2d8 2dbd 9e54 7bbe b8b6 caba ae55 5b3e
00000200: 1290 6d3e f689 233e 7a95 af3e 79b6 b03e
00000210: ea47 3b3e 1c0f 3ebf a981 2f3d 598b 07be
00000220: 68a0 d4bd aa92 6ebd 0e98 6b3c 89ad 36bc
00000230: 4bf2 00bd 48bd 2abf 4460 87be 677e 3d3e
00000240: 3ad7 9fbd f03b f7bd 759d a13e 2881 823e
00000250: e0ef dd3c 4dd8 9b3e 7227 88bd 6369 3cbe
00000260: f81f 33bd df7b 81bd 2737 aa3d 8f64 aebe
00000270: 7803 85be bc56 a03c 25b2 1bbe 7044 173c
00000280: 1781 8ebe d6b7 933e f0d8 f53d 78fd cfbd
00000290: 34cd 5dbe 1625 d8be 8e60 ef3d 4133 b6bc
000002a0: 197c 853d 9bfe 973e 7c41 203f 5eeb 7dbd
000002b0: 0d5c c1be f36b a73e 1f64 6f3e add7 21be
000002c0: d98d 5d3e 36ff 9d3e 87cf b6bd efd8 1f3e
000002d0: 76c3 13be a05b 7b3d 8aa3 60be 6868 843d
000002e0: c087 32be 23a1 7abb faee b83c 6f5e 41bd
000002f0: a450 d33e 4756 453f 8d7e 9cbd 6621 84be
00000300: 1d8c d23e 16b1 59bc 4db8 9bbe 142b ff3e
00000310: f9bb ab3e abab 8f3b c5a8 1abe a8e6 1a3e
00000320: c012 fc3e ac52 2a3f fc5f abbd e470 f13d
00000330: 2adc ec3d 0590 d33e d9b0 b93e 138d c1be
00000340: 2345 373e e45c c23d 390e 14be 30a3 85bd
00000350: 816b c6bd dd33 1dbe 53d3 0d3f 2d22 023d
00000360: c01d 8a3e 5792 f3bd 759e 6b3e 6052 cd3e
00000370: 0e52 f3be c182 54be 15d7 0abe f483 093e
00000380: f147 ebbe dd4c 9a3e 7587 42bd 91f2 7fbe
00000390: 2897 0abe 7cf5 95bd e08d 85be d8db c23d
000003a0: 3feb f1bb b491 30be 4510 21bf 8bf5 cbbd
000003b0: ecd9 283e f53b 4b3d 4245 c0bb 9b7f 9d3d
000003c0: a447 0bbe ecda 883d 8271 c53e 1931 d4be
000003d0: 9698 a13d dc8c 893d b4a5 a3bd f617 2e3e
000003e0: 4cb2 edbe 092c 283e c7b9 1c3e dec2 fc3d
000003f0: 87a5 cc3e edf6 3c3f 509d 1dbe f58e 48bf
0.24348833 -0.3757407 0.4270987 -0.2286919 -0.22581537 -0.074661165 -0.64667296 -0.22128154
-0.23797119 -0.19016995 -0.08288017 -0.33796737 0.45178622 -0.23483218 -0.4693872 0.06616483
-0.3603903 0.20002326 -0.018403405 0.7738774 0.11440196 0.24128969 -0.24888627 -0.26866165
-0.1231873 -0.6635131 -0.01343353 -0.16737765 0.029562019 -0.24925357 0.28484848 -0.29400527
0.33822435 -0.23135334 0.163227 0.28446797 -0.014466126 -0.044156615 0.029192569 0.06585628
-0.20951198 0.029764574 0.4750801 -0.10715525 -0.032662634 -0.0720707 -0.17596686 -0.26596943
0.28321794 0.22432895 -0.14848092 0.44404817 0.1779848 0.07128485 0.17175715 0.015977502
0.30128846 -0.34770933 0.10060068 -0.033357892 -0.11188595 -0.14768788 0.3532355 0.40993288
0.09003096 -0.089040264 0.049490303 0.050124705 0.020579163 -0.07482356 0.007831476 -0.24091852
-0.11159353 0.075771526 -0.24481048 -0.36069742 0.10063978 -0.23355737 -0.15558515 -0.30025104
-0.16474268 0.06936287 0.14258198 0.3328522 0.38730404 -0.5372856 0.19866967 -0.16175056
0.12376755 -0.28061745 -0.3273303 -0.07141849 -0.16309464 -1.0513893 -0.2611084 0.48890308
0.19097237 -0.29077268 0.360774 0.16053332 0.027427554 0.108560346 0.64414406 0.052010655
0.010646231 -0.0011877439 0.5759562 0.085680835 -0.79187346 0.043520946 0.06445309 -0.06895485
-0.16542779 -0.081277646 0.00544962 0.3560396 0.21761517 -0.119496346 0.38587382 -0.3220833
0.04412089 -0.25717613 -0.022336574 -0.20997831 -0.042443223 -0.24543998 -0.0015465831 0.21419403
0.2319949 0.15970597 0.3429373 0.34514216 0.18289152 -0.74241805 0.042848263 -0.1323675
-0.103821576 -0.05824534 0.014379514 -0.011149772 -0.03148107 -0.6669507 -0.26440632 0.1850525
-0.07804723 -0.12071979 0.31565443 0.25489163 0.02709192 0.30438462 -0.066481486 -0.18399577
-0.04373166 -0.06322455 0.08311301 -0.34061095 -0.2597921 0.019572608 -0.15204675 0.009232625
-0.27832863 0.28851193 0.12004268 -0.10155767 -0.2166031 -0.42215794 0.11688338 -0.022241237
0.065178104 0.29686436 0.6259992 -0.06199204 -0.37765542 0.32699546 0.23378037 -0.1580493
0.21636142 0.30858773 -0.089263014 0.15610097 -0.14430031 0.061366677 -0.21937385 0.064652264
-0.17434597 -0.0038243018 0.02257489 -0.0472092 0.4127246 0.77084774 -0.07641325 -0.2580673
0.41122523 -0.0132868495 -0.30414048 0.49837554 0.3354185 0.004384478 -0.15103443 0.15127051
0.49233055 0.665324 -0.08367917 0.1178911 0.115654305 0.41320816 0.36267737 -0.37802944
0.17897467 0.09490374 -0.1445855 -0.06525266 -0.096884735 -0.15351816 0.5540058 0.031770874
0.26975822 -0.118931465 0.23009665 0.4010191 -0.4752354 -0.20753004 -0.1355861 0.13429242
-0.45953324 0.30136767 -0.047492463 -0.24994875 -0.13534224 -0.07322213 -0.26084805 0.09514588
-0.00738278 -0.17243081 -0.6291545 -0.09958943 0.1648938 0.049617726 -0.005867631 0.076903544
-0.13601547 0.06682381 0.38563162 -0.4144371 0.078904316 0.0671632 -0.0799059 0.17001328
-0.46425092 0.16423048 0.15305243 0.123418555 0.39970037 0.7381428 -0.15392041 -0.78343135

fc2c.bias f4 [32]
00000000: 1d2c f13d 25e4 3b3e f893 33bd 2d51 abbd
00000010: 85c4 fabd 5e8b 403e e03f a4bd acb8 a53b
00000020: 0393 f8bd 9345 87be 2f49 70bd f7a5 d1be
00000030: 2900 863e ad72 cbbd 5335 b63e e9cb 393e
00000040: 3104 b43e d9aa 74be beb9 edbd 7aad 9b3e
00000050: 158f 2abd b833 2b3c 45f7 fabd ef9f 0f3e
00000060: 5cdb 17be 3053 96bd fedd 5f3e 6583 ce3b
00000070: 8e00 af3e d887 79be d080 613c e20e 9ebe
0.11775992 0.18348749 -0.043842286 -0.083650924 -0.122445144 0.18803164 -0.08019996 0.005057415
-0.12137415 -0.26420268 -0.058663543 -0.40946934 0.26171997 -0.09933982 0.35587558 0.18144192
0.35159448 -0.23893298 -0.11607693 0.3040579 -0.04164036 0.010449342 -0.12254194 0.14025854
-0.14829773 -0.073400855 0.21862027 0.0063022845 0.3418011 -0.24368227 0.013763621 -0.3087073

fc2d.weight f4 [32, 32]
00000000: b82a 853e f3f6 b13d 3df6 0ebe fc64 a8be
00000010: 3da8 163f cff9 2dbf 5ee3 69be 057c a33c
00000020: f522 153e 59a8 b0be e40d fcbc 3be5 88bb
00000030: 967e 27bf 5808 a03e 87fd 4f3e a86d a83e
00000040: 4868 a43d 26d0 b3bb 8f95 833f 42a2 fb3d
00000050: ddac 90bd 47fb b5be 5ca6 0e3e 3377 0fbd
00000060: 1d38 853e 1c5f c73e 54fe 9fbe 7b63 903c
00000070: 1759 a73d 6245 12be 99e0 d23a 64c9 f33e
00000080: 3608 0abe e14b dfbe 08fe 12be 4f7c 47bf
00000090: a8f7 81be 473c 1fbf fcce d73e ed2f fc3e
000000a0: ee61 00be b760 3b3e f9b8 433e b1f9 79bd
000000b0: f1e5 3ebf 32d5 cd3d a0d7 d8be fc23 453e
000000c0: 4545 edbe a830 0a3f 7049 91be 5146 a3be
000000d0: 5ec0 08be 5c82 093e 6370 9fbd 5a69 103e
000000e0: 8915 0a3f d047 e83d 000d b4be 22d7 2fbe
000000f0: aea8 91bd 881e 893e 47bf c63d afc8 883d
00000100: 4d37 ac3c 0026 02be cab3 133e 784f 4dbc
00000110: 5a91 393e 2459 18be ac53 cfbe d9a8 413f
00000120: 2459 993e 69d5 a9be 53aa c6be ca99 32bb
00000130: 4438 a33e aa98 4ebe c3da 103d 4016 f6bd
00000140: 5d53 df3e fb78 1bbe a452 fe3d 1e31 e63e
00000150: 4d27 16bf 725e 09bf 5603 7d3e 0fcc fc3d
00000160: 7e8e 12be 4727 f4bc 9a75 8dbe 2766 54be
00000170: 93f4 39bd 4a1d 5b3f ca4e 96bd e83a ad3e
00000180: 1e4b 503e 6e33 a53e 2363 e63d fdbe 06bd
00000190: f2d2 cabe aeb3 323f 8ef7 3e3e 94bb 963c
000001a0: 1fb6 b7be f538 913d ed30 ae3e 2db8 ad3e
000001b0: 4965 073f cb6f c7bd 8c20 6fbe 59f0 52be
000001c0: d040 963e 136a 6b3e 5b6b 51bf c922 a33d
000001d0: 8bbf 9f3e 05aa 72bc 7c6e f4be 3b42 143e
000001e0: 29ab 01bf ca7b e03c 2f9d 7b3e 2fa5 d63e
000001f0: 729d ac3d e3c9 5abe f722 8dbe a943 52bf
00000200: f92d 2bbf 21af f3bd 1501 99bd 2469 09be
00000210: edf3 0dbf 4ac3 743e ee58 653c 8026 673d
00000220: 7b36 01be 46a5 263f 8807 f73e 153f 313e
00000230: e00f d8bd 9bf0 a3be 0efb 533f cabe 0d3e
00000240: 3b84 85be f87a 113e c15a 8dbe e187 76be
00000250: a4a4 f23d cd19 d5bb ae9e d8be 9823 dd3d
00000260: 17d3 233e 0bc6 603c 61c8 0d3e 1868 2ebf
00000270: 8b7b 3ebc 082c b0be eedd c1bd 884e 8ebe
00000280: 4f32 02bd d621 97be c47d 65be 9c1c 32be
00000290: f2c9 0cbe 845a 773d bd1d adbd f1cb b33e
000002a0: c82d a7be a254 083e c7e5 fc3e cc41 2abe
000002b0: 9d95 c7be ff74 e4bc 5643 2cbe 27ce ac3c
000002c0: 8e10 dfbc 9536 c83d dd86 92be 2e9b b1be
000002d0: e57c 903d 3dce 9e3d 0eb9 8abc bfae e5be
000002e0: c48c d7be b373 6d3e 5b2d 5abd e417 7dbd
000002f0: 4dbc d93d 8ebe bd3c 7793 d33b 1910 5abd
00000300: 09cc 1bbf 03e6 9d3e 401c e5bc c8b9 9abe
00000310: e1f8 fdbd 3d3d c6bc 0f58 173e 9ce9 0abf
00000320: 18da 41bf 7d3e 0c3f 26f5 0e3f 7d23 593e
00000330: bee5 e4be a80f 183e 2ba4 5e3f ee7c 9d3d
00000340: 374a d5be be59 e53d f3d5 e2bd 1508 f9be
00000350: 1414 de3e 827b fdba b6de aabe 9b6d 863c
00000360: 570e 293d 7bb2 b43e dbba a13d eae0 73be
00000370: d182 57be 29a4 1dbf 7ded a93d d8ca b1be
00000380: f6b0 b03d e62a 803e 3d4f a5be 63a7 683e
00000390: 0e0b c23d 2690 07bf a881 393f c735 8abe
000003a0: 2c6e 623e b943 a8be 3cea 8abd ce0b b1bd
000003b0: aa29 9fbe 0582 9e3d 5e03 7ebe 891c debe
000003c0: 8a97 a5be b0a2 303f 2129 353f c647 98be
000003d0: 82cb 0c3e 6ce7 12be ffbc b33d 4547 313e
000003e0: 4522 633f c816 2e3e f194 52bf 5bae 163c
000003f0: 0ebc 2dbe 5f46 c6bd 56fc 343e 81fa 2e3f
0.26009154 0.0868968 -0.1396112 -0.32889545 0.5885046 -0.679593 -0.2284064 0.019956598
0.14564116 -0.3450344 -0.030768342 -0.004177717 -0.6542753 0.31256366 0.20311557 0.3289616
0.080277026 -0.0054874597 1.0280017 0.122868076 -0.07064221 -0.35543272 0.13930649 -0.035025787
0.26019374 0.3893975 -0.31248724 0.017625561 0.081712894 -0.1428428 0.0016088664 0.47614586
-0.13479695 -0.4361258 -0.14354718 -0.77924055 -0.2538426 -0.6220135 0.42150104 0.49255314
-0.12537357 0.18298613 0.1911353 -0.06102914 -0.7456961 0.100504294 -0.4235201 0.19252008
-0.4634191 0.53980494 -0.2837634 -0.31889585 -0.13354632 0.13428634 -0.07785108 0.14102688
0.5393911 0.11341822 -0.35166168 -0.1717191 -0.07112251 0.26781106 0.09704452 0.06678902
0.021022463 -0.12709808 0.14424053 -0.012531154 0.18121853 -0.14877754 -0.40493524 0.75648266
0.2995082 -0.33170632 -0.38801822 -0.002725231 0.31878865 -0.20175424 0.035364877 -0.120159626
0.4361829 -0.15182869 0.12418106 0.44959348 -0.5865372 -0.5365974 0.24708304 0.123436086
-0.14312169 -0.029803885 -0.27628785 -0.20742093 -0.04539926 0.85591567 -0.073392466 0.33834004
0.20341155 0.322658 0.112493776 -0.032896984 -0.39614064 0.6980542 0.18649122 0.018399991
-0.35881135 0.07090942 0.34021702 0.33929577 0.52888924 -0.0973812 -0.2335226 -0.20599498
0.29346323 0.22989683 -0.81804436 0.07965619 0.31200823 -0.014811044 -0.47740543 0.1447839
-0.50651795 0.027402777 0.2457168 0.419229 0.08428468 -0.21366076 -0.2756574 -0.8213449
-0.66867024 -0.118986376 -0.074709095 -0.13419014 -0.55450326 0.23902622 0.013998253 0.0564332
-0.12618439 0.6509594 0.48247933 0.1730922 -0.10549903 -0.32019505 0.82804954 0.13842312
-0.26077446 0.14207065 -0.27608302 -0.24075271 0.11847809 -0.00650332 -0.42308563 0.107978046
0.15998493 0.013719092 0.1384597 -0.68127584 -0.011626135 -0.34408593 -0.09466158 -0.2779429
-0.03178626 -0.29518002 -0.22411257 -0.17393726 -0.13748911 0.060389057 -0.08452938 0.35116532
-0.32652116 0.13313535 0.49394056 -0.16626662 -0.38981333 -0.02788782 -0.16822562 0.021094395
-0.027229574 0.09776036 -0.28618518 -0.34688705 0.07055072 0.077541806 -0.016933944 -0.44859883
-0.42099583 0.23188667 -0.05326591 -0.061790362 0.10631619 0.023162153 0.006456788 -0.05323801
-0.6085821 0.30839548 -0.027967572 -0.30219865 -0.124009855 -0.024199123 0.14779685 -0.5426271
-0.7572341 0.5478285 0.55842817 0.21204944 -0.4470653 0.14849722 0.8696925 0.07689844
-0.41658184 0.111987576 -0.11075964 -0.4863898 0.43374693 -0.0019339176 -0.3337304 0.016409686
0.04127344 0.3529242 0.07896968 -0.23816267 -0.21045996 -0.61578614 0.082972504 -0.3472507
0.086275026 0.2503273 -0.32287017 0.22720103 0.09474765 -0.5295433 0.72463465 -0.26994154
0.2211234 -0.32864168 -0.06782958 -0.0864483 -0.31086475 0.07739643 -0.24805972 -0.43381146
-0.32342178 0.6899824 0.7076588 -0.2974226 0.13749507 -0.14346093 0.087762825 0.17312343
0.88724166 0.17000878 -0.82258517 0.009196843 -0.16966268 -0.09681391 0.17674384 0.6835099

fc2d.bias f4 [32]
00000000: f591 80be a3a9 a0be 27cc 3e3d 65fa 5c3e
00000010: c022 893d 2a21 b9be aeb8 263e 7f40 c8be
00000020: 2bf6 0b3f 8a20 613c 52bb e2be 65d5 9bbe
00000030: 00bb 0c3f ecfc 893d 442e bd3c 09b9 34be
00000040: 27c1 aa3e b449 643d 46c9 043d 3ea1 9ebe
00000050: 6fe3 3b3c e4d2 af3e 10f8 343d 42dc 0fbe
00000060: e7bd 8fbe 825a 633e 4b00 023e fcec 02be
00000070: 0f86 db3e b7d9 c7bd e48e 2bbc bfa4 b43e
-0.25111356 -0.31379423 0.046581414 0.21579893 0.06696081 -0.36158115 0.16281387 -0.39111707
0.546725 0.013740668 -0.4428354 -0.30436245 0.5497284 0.06737694 0.02309335 -0.1764871
0.3335049 0.05573435 0.03241851 -0.30982393 0.011467799 0.34340584 0.044181883 -0.14048865
-0.28074571 0.22202495 0.12695424 -0.12785715 0.42875716 -0.09758323 -0.0104710795 0.3528194

fc2e.weight f4 [32, 32]
00000000: 29b5 cc3d 11a8 9abc d326 66be ebee 3bbe
00000010: 8b7a 5dbe dfad 163e 26bb 8d3e 8c38 28be
00000020: 5aed 74be 9c7f d0be 0c2f 33be d43a 63bd
00000030: ae94 cc3d 0e16 71be 3088 753e ab33 9fbb
00000040: 44f9 b0bc 198b a9be a7cf d4be ed07 883e
00000050: 3c95 2ebf 3922 fa3d 5d82 82bd c5df 0ebe
00000060: d43d 1e3e 8471 f43e b5f2 5cbe 409b c5bc
00000070: 07eb 8fbe 7573 b7be b81e 4f3e dd8a 5bbd
00000080: 5341 e1bd 3f9c 413f be09 223f cae0 35be
00000090: 8a9a 91be 2f51 da3e 1af5 a1be 6a90 ec3d
000000a0: fff5 033e eca0 abbd 6d22 db3e 4b24 10bd
000000b0: 4698 b1be 19e4 aebe 7669 f53e 0e7b 75be
000000c0: 58f4 023e a458 1ebf 41fc 1c3d ed9e 373e
000000d0: 95fd 283d 58c8 51bf 868e 6b3e 80e7 943e
000000e0: 1326 af3d 3858 89be 45b0 3ebf 947e 3a3e
000000f0: 42f2 5bbf 2e27 0d3f fad3 e4be 6acb 10be
00000100: 943a 4bbe 88f7 713e a94e 003e 05ea 2bbf
00000110: 157f 493f 7112 1dbe e245 4d3e 38ec 1fbe
00000120: d0a4 933e 232c 9ebe 92aa b5bd 61b5 eebe
00000130: 5be5 0c3e ef4c cd3e 03b1 72be d8c6 2fbe
00000140: 03a2 0c3e 2d49 2bbf 60e2 e03e 4afd f6bc
00000150: 67b5 72bf d9bc eabd a037 d63c e4c9 07bc
00000160: adac 923d b3db 363c 18eb f9be 8fe5 65be
00000170: 7dff 29bd 0868 24be 9eb4 9dbe 840f 183f
00000180: 0998 2f3f 419a 9abe a9c2 183f fb62 29be
00000190: c6d1 72be 5552 c3bd 1782 87be d60b e53e
000001a0: 74de b83e 85e3 fc3c 1618 5e3e 61fc 823c
000001b0: ac61 b4be c084 0fbe ea4a 183f 4bc4 6bbe
000001c0: 9a8c 09be ae9f 89be c7ec f5bb 4fec 823e
000001d0: 3cdd c33d 922d 27bb f9d9 de3e 2cbd c53e
000001e0: 9e9d 293e 72af 18be 186a bbbe a28e c23e
000001f0: 5901 6b3e 0272 3e3c e56f d4bd a66a 1c3e
00000200: 6f6d edbc 3609 ae3c 6cd3 203f 9a6f 8bbe
00000210: cdc5 833e 31db e23d bdb1 0a3f c92f eb3e
00000220: 2c91 a83d fbba 333c 02b1 0d3f ee94 abbc
00000230: d175 15bf 4712 823e 05c8 4d3c 69de 88be
00000240: c4e6 603d d9c4 52bc cd9a d53e 0409 233e
00000250: 7cf1 113e 8fc5 afbe feb2 3fbe 36d8 123e
00000260: 7804 21bc 4521 81be 0364 213e ec23 d3bd
00000270: 7aa8 863e 5a38 723f fd07 13be d43a cc3e
00000280: afd8 16be cb72 3a3e 3ebc 2cbf 346f ae3d
00000290: f62e cd3e 2a19 653e 9f14 ed3e 95d7 49be
000002a0: 3d18 51be d853 90bd f1a9 4a3e ae19 03bf
000002b0: 83b6 6a3c 55cc 26be 55b0 01bd e44f ab3d
000002c0: cad9 53be b9b1 61be ed7f b43d 7529 833e
000002d0: 622e d1be 431c 35be 5d9a 8abe 8fc8 a93d
000002e0: d483 44be e541 753d c737 d83e 35f3 6f3c
000002f0: 5aa6 71be 478e d8be 239b d03c 9ecc 7cbf
00000300: b2b4 91bf 61fa ddbd 87d9 acbe 6a9b 1e3f
00000310: 76ef 8cbd d03a e3be 99e5 a4be eff4 fbbe
00000320: 5d12 dc3e af63 48be 2a86 3fbf 624e 103e
00000330: f625 993f 2368 88be 64f2 00bf ec4f a93e
00000340: 4a8a 06bd f9cd 2bbe 4332 d7bd 72d4 d8be
00000350: 528e 3cbd 7a59 ef3e 8e8c 01bf a3ab 03bf
00000360: be66 33bd cd35 b73e 2a51 223f 3902 adbd
00000370: 255d 303f e5cb ebbe 3067 69be 18f7 393e
00000380: 76dc da3d 2e29 e03e 0857 4abe 34fe 0a3f
00000390: d091 cebe e402 62bd 3aad 0c3e 7975 23be
000003a0: e280 bdbe 46cc ccbe 0ce6 67be 5df4 09be
000003b0: 9cbf e53d fbdb f8be ae7e 2dbb 1b5b 0e3f
000003c0: 71c9 f4be f8af 933e 724b 96be f6f1 133f
000003d0: b796 5bbe 5613 1a3f d8b4 ba3d 9b62 08be
000003e0: 44bf a8bd fe8b 20be cad5 2e3e 4f20 0b3d
000003f0: c124 37be 2486 8bbe ea54 243f e03d 013e
0.09995491 -0.018878968 -0.22475748 -0.18352859 -0.21628778 0.14714764 0.27681845 -0.16427821
-0.23918667 -0.40722358 -0.17498416 -0.055476025 0.09989296 -0.2354357 0.23977733 -0.004858454
-0.021603234 -0.33113936 -0.41564676 0.26568547 -0.68196464 0.12213559 -0.06372521 -0.13952549
0.15453273 0.47742856 -0.2157696 -0.02412188 -0.28109 -0.35830274 0.20226562 -0.053599227
-0.10998788 0.7562904 0.63296115 -0.17761531 -0.28438216 0.42640063 -0.3163231 0.11550982
0.12886809 -0.08380303 0.42799702 -0.03519086 -0.34686488 -0.341584 0.47932023 -0.23972723
0.12788522 -0.61854005 0.038326506 0.17931719 0.04125746 -0.81946325 0.23003587 0.2908287
0.08552184 -0.26825118 -0.74487716 0.18212348 -0.8591653 0.5513791 -0.44692975 -0.14140096
-0.19846565 0.23629582 0.12530006 -0.6715396 0.78709537 -0.15339066 0.2004619 -0.15617454
0.2883668 -0.3089305 -0.08870424 -0.46622756 0.13759367 0.40097758 -0.23700337 -0.17165697
0.13733678 -0.6690853 0.4392271 -0.030150075 -0.9480805 -0.11461801 0.026149571 -0.008287881
0.071618415 0.011160779 -0.48812175 -0.22450851 -0.04150342 -0.1605531 -0.30801862 0.59398675
0.6859136 -0.3019581 0.5967203 -0.16541664 -0.23712835 -0.09537188 -0.26466438 0.44735593
0.36107218 0.030870209 0.21688876 0.015989484 -0.35230768 -0.14015484 0.5948931 -0.23024099
-0.13432541 -0.26879638 -0.0075050327 0.25570914 0.095636815 -0.002550934 0.43525675 0.3862089
0.16564032 -0.14910677 -0.3660438 0.37999445 0.22949733 0.011623861 -0.10372905 0.15275058
-0.028982846 0.021244626 0.62822604 -0.27233583 0.25736848 0.11076964 0.5417746 0.45934895
0.08230814 0.010969873 0.5534822 -0.020945039 -0.583829 0.2540457 0.012559895 -0.26732185
0.054907575 -0.012864315 0.41719666 0.15921408 0.14252275 -0.34330413 -0.18720624 0.1434029
-0.009827726 -0.25220695 0.15760808 -0.10309586 0.26300412 0.94617236 -0.14358516 0.39888632
-0.14731096 0.18207853 -0.67474735 0.08517304 0.4007489 0.2237288 0.46304795 -0.19711144
-0.20419402 -0.07047242 0.1979139 -0.5121106 0.014325741 -0.16288884 -0.031662304 0.08364847
-0.20688549 -0.22040452 0.088134624 0.25617567 -0.408557 -0.17686562 -0.27070895 0.08290207
-0.19190913 0.059877295 0.42230055 0.014645387 -0.23598614 -0.4229605 0.0254646 -0.9874972
-1.1383269 -0.108387716 -0.3375971 0.61955893 -0.06881611 -0.44380808 -0.3220642 -0.49210307
0.4298276 -0.19569276 -0.74814093 0.140924 1.196471 -0.2664195 -0.5036986 0.33068788
-0.032846726 -0.16777791 -0.105076335 -0.42349583 -0.046034165 0.46747953 -0.50605094 -0.5143377
-0.043799154 0.35783234 0.63405097 -0.084476896 0.6889213 -0.46053997 -0.22793269 0.18160665
0.10686581 0.43781418 -0.19759762 0.54294133 -0.4034562 -0.055178538 0.13737956 -0.15962781
-0.37012392 -0.39999598 -0.2264635 -0.13472123 0.11218187 -0.48605332 -0.0026473212 0.55607766
-0.47809938 0.2884519 -0.29354435 0.5779108 -0.21444212 0.60185754 0.091165245 -0.13318865
-0.08239606 -0.15678403 0.17073742 0.03396636 -0.17885114 -0.2725078 0.6419207 0.1262126

fc2e.bias f4 [32]
00000000: 4405 71bd 1c0b 72be 4a4b 1e3e 5dbe d2bd
00000010: e19c 7abc 4b89 98bd 94e4 9b3e 66a0 88bd
00000020: e83b 8c3e 5b7b be3c aa9f d73d 5965 933e
00000030: 3f59 99bd de6d 55be 9c1f e8bc 0db4 293e
00000040: 93a7 8ebe 817e 1abe 6541 8cbe b3d1 f43d
00000050: d4af c63d 68a6 303e 2658 ae3d e725 71be
00000060: 1398 c2be fbfe 0f3e 3f2a 92be 2ac2 643e
00000070: f78c 2e3d a106 cc3e 66f3 1abe d201 a8be
-0.058842912 -0.2363705 0.15458408 -0.10290215 -0.015296192 -0.074480616 0.3044783 -0.066712186
0.27389455 0.02325218 0.105285004 0.2878826 -0.074877255 -0.20842692 -0.028335385 0.1657259
-0.27862224 -0.1508732 -0.27393642 0.119540595 0.09701505 0.17250979 0.08512907 -0.23549615
-0.38006648 0.14062111 -0.28547856 0.22339693 0.042614903 0.39848807 -0.15131912 -0.3281389

fc2f.weight f4 [32, 32]
00000000: f71f e1be ee1f b43d 2a67 173e 4017 7c3d
00000010: f0ca 403c bc79 bfbe 9a9a 8dbe 5448 33be
00000020: 508e 36be c8fd 84be 005f b2be 6059 79be
00000030: 9b86 043e e5ff d63e e7b2 9dbe 823b 113e
00000040: f355 b9bc 8877 743d 3008 97be a833 18bf
00000050: aa26 cc3d 548a 12be 7cfe 5f3e 5c44 e83d
00000060: f8d1 d43e 85be cdbd 12a1 a93d 91b6 253d
00000070: 8137 64bd 58c9 083c fca2 e43d 05aa 1f3e
00000080: ea55 c63e e2ac 1cbe de4d 08be 6123 32bd
00000090: 687f 403e 1bd1 383e 0474 c6bd 2c1c 91bd
000000a0: 9d66 cd3d 6b7d 4cbd e0f7 45bd d072 043d
000000b0: f0ee 5d3e 998a d5bc 328f 543e 9700 ea3e
000000c0: 6dd0 47be 800b 1d3e 61d4 17be b174 31bb
000000d0: 5adc 013d 89c5 2cbe 383a 5a3e 8c31 5b3c
000000e0: 9ff2 0a3e 12fc e8bd 6fb0 38be 408a 733d
000000f0: fe8a 51bf c871 87be ef78 1c3d a5a8 873e
00000100: 1efa fd3e b668 b93b f1a3 6a3e 3814 9fbe
00000110: 02b9 afbe 7fc9 e73e f1bf c53e 9e60 923d
00000120: b538 a0be 4ef6 01bf 302e 1f3f e5fb b4be
00000130: 5ce2 2a3e 0286 5cbe 2afc 96bd b610 053f
00000140: 6a38 09bf 40ba 3cbe 3da0 9b3e cc7c 343e
00000150: 73d7 70bd 715f 883e 2ea6 2a3f 2613 68be
00000160: 2102 90bc 9565 8d3e 1700 83be 33a1 b73d
00000170: e003 053e ebe4 833e ef7b af3d e7d3 dd3d
00000180: 67b8 20bf 085e 253c 3838 51be 9b29 87be
00000190: 8c0d 663e 5c9c 92be 0dab 2ebe 80ba cf3e
000001a0: 7a18 43be efb8 003f dce8 0dbe c416 edbe
000001b0: 3794 12be 0c1d 6f3d 34a2 e3bb 1a11 e8be
000001c0: 9512 b33e 8152 643c 315a 823e 4e9b 32bf
000001d0: 362a 373d bdfa b53c f4d6 60be 4efd 173e
000001e0: b272 113f 6743 8abd 9c61 c33d 2bfa 133c
000001f0: a6b4 ac3e 9751 bebc 8dba 7bbc aef7 4b3d
00000200: f3b9 363e e999 52be 0e12 593e 9967 55be
00000210: fcb5 4abe 1de5 853d 3147 fd3d 9d69 ae3d
00000220: 9ddf f9be 2912 bdbc d9ba c83d c476 95be
00000230: ac69 ae3d 8a08 403e 60c8 eb3e 8f7f 65bd
00000240: ca00 10be 8d36 8abe b9db eb3e 0f96 99be
00000250: 617d 86bd b986 fcbd b44b afbc 9a9f 70be
00000260: 2b93 923e 9651 95bd 7c6f 31be 0b64 383e
00000270: 1d6a 483e 5f19 05be 1393 a1be 78b7 033d
00000280: cb17 59be 60ef de3d 5624 4b3b da92 b3bd
00000290: 2bfc 1c3e 1982 b53d 9a3e c23d 2318 eebe
000002a0: 238e 2bbe 9bf8 a2bd 51ad c8bc 3efb 523e
000002b0: 84d3 a43e ee65 1ebe ac67 ca3e 7666 6ebe
000002c0: e9ca ddbd b6e0 bbbc e790 00bd aed1 113f
000002d0: c186 313d 43e1 923d 27f9 a3bd e16c b5be
000002e0: b8e5 aebc b868 06be 418f 79ba 8b4f 2fbe
000002f0: fd64 b4bc b3fb bd3d 6bf7 9cbe ad0b a0be
00000300: 10d0 59bf 0a2d 093e e5ec b53a 1dc0 733e
00000310: d742 173e da3c f0be 1c5f a53d a2b9 6ebf
00000320: 9169 cabe 9642 07bd 6e62 c9be dc0f 193f
00000330: afef c9bd 83da 623c 4e2d 273e 6679 ccbd
00000340: 313b 703d 575c 91be 55b3 60be 0221 25bf
00000350: 7683 22be 8488 3abd 775c da3c 6036 b33d
00000360: f39f a9bb dbf6 eb3d a249 173d 5158 72be
00000370: bbb6 6d3e 2315 453e 24c4 48be 7fc4 58be
00000380: 8618 a83e eb0e 5e3e c92f b1be f246 8b3e
00000390: f400 8b3e 50cc 9ebe d935 cebb 2c5f 1b3e
000003a0: 7351 be3e cd8f 443f fa6d 663e dc1b afbe
000003b0: 04dd 223e 9e91 ff3e 308a d5bd 7079 57bd
000003c0: d1b3 1a3f e270 b13d f6e6 51bd 8eed d5be
000003d0: 1638 d4be 019c 44bf 1283 303e 51bd 943e
000003e0: ab1a adbd 833e 17be 8de9 093f be5e a03d
000003f0: 106f e0bd c349 a8be 2f64 f83c 7f8a 373f
-0.439697 0.087951526 0.14785448 0.06154561 0.011767134 -0.37397563 -0.27657014 -0.1750806
-0.17827725 -0.2597487 -0.34838104 -0.243505 0.12941973 0.41992107 -0.30800554 0.14182857
-0.022623992 0.059684306 -0.29498434 -0.5945382 0.09968312 -0.1431058 0.21874422 0.113411635
0.41566443 -0.10046104 0.08282675 0.040457312 -0.055716995 0.008348785 0.11163899 0.15592201
0.38737422 -0.15300325 -0.13310954 -0.04349077 0.18798602 0.18048517 -0.09690097 -0.070854515
0.100293376 -0.049924295 -0.048332095 0.032336056 0.21673179 -0.026067065 0.2075775 0.45703575
-0.19513102 0.15336418 -0.1482711 -0.002707761 0.031704284 -0.16872229 0.21311271 0.013378512
0.13569115 -0.113762036 -0.18036054 0.059458017 -0.8185271 -0.26453996 0.03820127 0.26495853
0.49604887 0.0056582345 0.22914101 -0.31070113 -0.34320837 0.45270917 0.38623002 0.071473345
-0.31293264 -0.50766456 0.6217985 -0.3534843 0.16687912 -0.21535495 -0.07372315 0.51978624
-0.53601706 -0.18430424 0.3039569 0.17625731 -0.05879922 0.26635316 0.6665982 -0.22663555
-0.01757914 0.27616563 -0.25586006 0.08966293 0.1298976 0.25760588 0.0856856 0.10831433
-0.62781376 0.01009322 -0.20431602 -0.2639893 0.22466105 -0.28634918 -0.17057438 0.40571976
-0.19052306 0.50282186 -0.1385836 -0.4630643 -0.14314352 0.05837731 -0.0069468264 -0.45325547
0.34975114 0.013935686 0.25459436 -0.69768226 0.04471799 0.022214288 -0.21956998 0.14842722
0.56815636 -0.06751137 0.09540102 0.009031813 0.33731574 -0.023232264 -0.015364301 0.049796753
0.17844371 -0.20566525 0.21198294 -0.208403 -0.19795984 0.065378405 0.12367094 0.08516238
-0.48803416 -0.023079948 0.09801263 -0.29192173 0.08516249 0.18753257 0.46051311 -0.056029852
-0.14062801 -0.26994744 0.46066073 -0.29997298 -0.06566883 -0.12330384 -0.021398403 -0.23498383
0.28627905 -0.07290952 -0.17327684 0.18006913 0.19571729 -0.1299796 -0.3155752 0.03215739
-0.21200483 0.10885501 0.0030997 -0.08768244 0.1533057 0.08862705 0.094845966 -0.4650279
-0.1675344 -0.07957574 -0.024496706 0.20603654 0.32192624 -0.1546857 0.3953222 -0.23281273
-0.10829718 -0.022934299 -0.03138819 0.5696057 0.043341402 0.071718715 -0.080065064 -0.3543463
-0.021349773 -0.13125885 -0.00095199427 -0.17120187 -0.022020811 0.092765234 -0.30657515 -0.31258908
-0.85083103 0.13396087 0.0013879804 0.23803754 0.14771591 -0.46921426 0.08074781 -0.93252003
-0.39533666 -0.033022486 -0.39332908 0.59789824 -0.09860169 0.013846043 0.16325876 -0.099840924
0.0586502 -0.28390762 -0.2194341 -0.6450349 -0.15870461 -0.045540348 0.026655419 0.087506056
-0.005176538 0.11521693 0.036935456 -0.23666503 0.23214237 0.19246344 -0.19606072 -0.21168707
0.3283121 0.21685378 -0.3460677 0.27202564 0.27149165 -0.31015253 -0.0062930402 0.15173024
0.37171516 0.7678192 0.2250289 -0.34200943 0.15904623 0.49915785 -0.10426748 -0.052606046
0.6043063 0.08664109 -0.051245652 -0.41782802 -0.4144904 -0.76800543 0.172375 0.29050687
-0.08452352 -0.1476994 0.53871995 0.07830571 -0.109586835 -0.32868776 0.030321209 0.71695703

fc2f.bias f4 [32]
00000000: 77e4 023e d7b0 023e 5518 983e a758 8e3d
00000010: 92b6 a2bd ea1e bdbd 92d5 60bc 7605 acbe
00000020: 26fd b8be 7a35 b13d c530 3bbe 731a 91be
00000030: f4c5 16bc b567 793c 0d1d d83c 241b ad3e
00000040: be4f 19be a315 d2bd f7cc eb3d 17a8 243e
00000050: 373a ae3d b26f 2e3e 3f61 f3bd 0d7f efbc
00000060: 7d79 65be 5bcd d13d a4a6 bd3d 3871 ae3e
00000070: db17 a23d cec6 85be 3f20 07be 2c00 ca3d
0.12782465 0.12762772 0.29706064 0.06950503 -0.07944979 -0.09234412 -0.013722794 -0.33597916
-0.36130637 0.08652778 -0.18280323 -0.28340492 -0.009202469 0.01522248 0.02638104 0.3380977
-0.14971825 -0.10258033 0.11513703 0.16079746 0.08507197 0.17034796 -0.118837826 -0.029235387
-0.22409625 0.102442466 0.092603 0.34070754 0.07914706 -0.26128238 -0.13195895 0.09863314
