model_l1_fixedqm.pth (torch, 111914 bytes, 54 tensors)

fc1.weight f4 [32, 1]
0	0x3f8d1a27	1.1023606
1	0xbe44ca60	-0.19217825
2	0xbf3fd00f	-0.7492685
3	0xbf81e860	-1.014904
4	0x3d006439	0.03134558
5	0xbd7c4acb	-0.061594766
6	0x3d0baee7	0.034102347
7	0xbe1d4781	-0.15359308
8	0x3fb5eb39	1.4212409
9	0xbf8ba6ec	-1.0910316
10	0xbf7b6ec1	-0.9821587
11	0x3e20455b	0.15651457
12	0x3e88c8ae	0.26715606
13	0x3f3b6915	0.7320722
14	0xbcfaa13c	-0.03059446
15	0x3e676069	0.22595371
16	0xbcefb9d9	-0.029263424
17	0x3d1198da	0.03554616
18	0xbf28d58a	-0.65950835
19	0xbe47eddb	-0.19524328
20	0x3f454874	0.7706368
21	0xbde259e4	-0.110523015
22	0xbd84a6f8	-0.06477159
23	0xbe9a663d	-0.30156127
24	0x3fb844ad	1.4395958
25	0xbf4aa025	-0.7915061
26	0xbe3a120f	-0.18170951
27	0x3eb0737a	0.34463102
28	0x3e9a49d9	0.30134466
29	0xbe375067	-0.17901765
30	0xbf73abd4	-0.95184064
31	0x3cfe9bd4	0.031080164

fc1.bias f4 [32]
0	0xbfb5a718	-1.4191618
1	0x400575ae	2.0853076
2	0xbfe45f19	-1.7841522
3	0x3fb353c7	1.4009942
4	0xbf69e2a6	-0.91361463
5	0xbf2287d9	-0.6348854
6	0xbfa6ead5	-1.3040415
7	0x3fc6ddc8	1.5536432
8	0xbd1d5a16	-0.03841599
9	0xbeaa16da	-0.3322056
10	0x3faa7b68	1.3318911
11	0xc001404c	-2.0195494
12	0xbfb4f613	-1.4137596
13	0xbf403726	-0.7508415
14	0x3f5de4da	0.86677325
15	0xc01544dd	-2.332328
16	0x3f30e464	0.69098496
17	0xbfbba225	-1.4658858
18	0xc013ec80	-2.3113098
19	0x40077ad2	2.1168714
20	0x40390f2c	2.891551
21	0x4004a788	2.0727253
22	0xbe83d6f5	-0.25749937
23	0x3fa7cc36	1.3109195
24	0x406b3ce0	3.6755905
25	0xbfd94627	-1.6974534
26	0x400f3530	2.2376213
27	0xbfd5633e	-1.6670911
28	0xc012d50a	-2.2942529
29	0x3f5c38aa	0.8602396
30	0xc07bcba8	-3.9343052
31	0xbf611b54	-0.87932324

fc2.weight f4 [32, 32]
0	0xbdfeff74	-0.124510676
1	0xbc9e8077	-0.019348366
2	0xbdeee669	-0.11665041
3	0x3e0fe674	0.14052755
4	0x3ea6eb28	0.32601285
5	0xbdb45590	-0.08805382
6	0x3f137817	0.5760512
7	0xbda4aab1	-0.08040369
8	0x3b7ac88b	0.0038266506
9	0xbe3f0d8c	-0.18657511
10	0xbe0425f2	-0.129051
11	0xbe45e3d1	-0.19325186
12	0xbcf80836	-0.030277353
13	0x3dc383ae	0.095466
14	0xbeab9933	-0.3351532
15	0xbd61cb98	-0.055125803
16	0xbd25a296	-0.040438257
17	0x3eff5735	0.4987122
18	0x3b6bbac2	0.003596947
19	0x3e88fd69	0.26755837
20	0x3e02c14e	0.12769052
21	0xbd35a44a	-0.04434613
22	0x3d11c362	0.035586722
23	0x3d7e72cb	0.062121194
24	0x3ddc31c9	0.10751683
25	0x3cc96c5f	0.024587808
26	0x3e882b03	0.26595315
27	0xbe396b0a	-0.18107238
28	0xbe4e9126	-0.20172557
29	0x3e26d7d2	0.16293266
30	0xbdbac239	-0.09119076
31	0x3ed44056	0.41455334
32	0x3e581c67	0.21104585
33	0xbe5f470a	-0.21804443
34	0xbdfc6788	-0.123244345
35	0xbe7c233a	-0.24622813
36	0xbdd6b0f8	-0.10482973
37	0xbe5afe9a	-0.21386185
38	0x3d103b5c	0.03521286
39	0xbe916aa6	-0.2840168
40	0x3d6ebe8f	0.0582872
41	0xbe351e61	-0.1768737
42	0xbe39ecd2	-0.18156746
43	0x3e36dd8a	0.17857948
44	0x3f1ca11d	0.6118334
45	0x3eb74199	0.35792235
46	0xbd6dcc31	-0.05805606
47	0x3dd18352	0.102301255
48	0x3ddf32aa	0.10898335
49	0xbd355ed3	-0.044279885
50	0xbd12acf3	-0.03580947
51	0xbc55635d	-0.013024178
52	0x3e997536	0.29972237
53	0xbd2fa6b7	-0.0428836
54	0xbe9dca17	-0.30818245
55	0xbf499bc7	-0.7875332
56	0xbc3b8e5d	-0.011447516
57	0xbe280f95	-0.16412194
58	0xbe819f22	-0.2531672
59	0x3f3eb667	0.74497074
60	0x3ebf1baf	0.37325808
61	0xbed0d23b	-0.40785393
62	0xbd3c74a7	-0.046009686
63	0x3dcfc5ca	0.10145147
64	0xbda11136	-0.07864611
65	0xbed36679	-0.41289118
66	0xbd03a7d9	-0.032142494
67	0xbdf1c932	-0.11805953
68	0x3f287a94	0.6581204
69	0x3dac0d15	0.08400933
70	0x3e94bc11	0.29049733
71	0xbd8d621f	-0.06903481
72	0xbe1d0713	-0.1533473
73	0x3d6c76cc	0.05773048
74	0x3e2090d3	0.15680246
75	0x3edd338d	0.43203393
76	0x3e0aaffb	0.13543694
77	0xbcaaee1c	-0.020865493
78	0xbf0ee5e7	-0.55819553
79	0x3eb360d5	0.35034814
80	0xbeae218c	-0.3400997
81	0x3f085229	0.53250366
82	0x3c9ebf2c	0.019378267
83	0xbe75ea95	-0.24015267
84	0xbd90e240	-0.07074404
85	0xbf584433	-0.84479064
86	0xbc374ff7	-0.011188499
87	0xbcedeb5f	-0.029042898
88	0x3d4db00a	0.050216712
89	0xbb271838	-0.0025496613
90	0xbe416f46	-0.18890104
91	0xbcaa8184	-0.020813711
92	0x3e0b847a	0.13624755
93	0x3cf55247	0.02994646
94	0xbd7b949a	-0.061421014
95	0x3f2a08d2	0.6641971
96	0x3d934e06	0.07192616
97	0xbdd8687d	-0.105668046
98	0xbddb764e	-0.10715924
99	0xbe163a42	-0.14670661
100	0xbefbe364	-0.49196923
101	0xbdacd2be	-0.084386334
102	0xbf387d5a	-0.7206627
103	0xbd4f3e3a	-0.050596453
104	0x3e2efb83	0.17088132
105	0xbded5b38	-0.11589664
106	0xbc88b849	-0.016689437
107	0xbccbb17e	-0.024864908
108	0xbd802238	-0.06256527
109	0x3e55fb9e	0.20896766
110	0x3ee89df6	0.45433015
111	0x3e21f721	0.15816928
112	0x3dc57ba5	0.09642724
113	0xbf3382a2	-0.70121205
114	0x3db942a9	0.090459175
115	0xbe0e416b	-0.13892142
116	0xbd8fbbda	-0.07018252
117	0xbd2a0021	-0.04150403
118	0xbd5139d5	-0.051080544
119	0x3d563299	0.052294347
120	0x3e2f18f8	0.17099369
121	0xbe5659e7	-0.20932733
122	0xbe14f4a8	-0.14546454
123	0x3dbbaec4	0.09164193
124	0x3dde9301	0.108678825
125	0x3c0695b5	0.008214404
126	0xbe41edf4	-0.18938428
127	0xbf04172d	-0.51597863
128	0xbeaba93d	-0.33527556
129	0x3e5beadc	0.2147631
130	0x3e51194f	0.2041981
131	0x3ef70360	0.48244762
132	0xbda77641	-0.08176852
133	0x3e9a28b7	0.30109188
134	0xbde0c5ff	-0.10975265
135	0xbc21a29b	-0.009865428
136	0xbdcf4148	-0.10119873
137	0x3ea63f88	0.32470345
138	0x3f2c3cdd	0.6728037
139	0x3d065e26	0.03280463
140	0xbf2c7c0c	-0.6737678
141	0xbed2f604	-0.4120332
142	0x3bd04806	0.006356242
143	0xbe2bf3ce	-0.16792223
144	0xbdc8d9d9	-0.09807176
145	0x3e20fe87	0.15722094
146	0xbc22f862	-0.009946914
147	0x3e89e5c9	0.26933125
148	0xbe8e7a57	-0.27827713
149	0x3e0bca37	0.13651358
150	0x3e89a8e9	0.2688668
151	0x3f498557	0.78719085
152	0x3d37c2c6	0.044863485
153	0x3e27073b	0.16311352
154	0x3dc58612	0.096447125
155	0xbf0e242a	-0.5552393
156	0xbe9baca6	-0.30405158
157	0x3f22010a	0.63282835
158	0x3c91907d	0.017769093
159	0xbb6ca6c7	-0.003611015
160	0x3b17e7c2	0.002317891
161	0xbdaf4162	-0.08557393
162	0xbe14685c	-0.14492935
163	0xbd0b0305	-0.033938427
164	0xbee46b65	-0.44613186
165	0xbe3689c5	-0.17825992
166	0xbf1c7cc1	-0.6112786
167	0xbe2d9098	-0.1694969
168	0x3dbc20dc	0.09185955
169	0xbd0f5175	-0.034989793
170	0xbe27ae8e	-0.16375181
171	0xbcb546cc	-0.022128485
172	0xbd852512	-0.06501211
173	0x3e01cdd0	0.12676167
174	0x3f007059	0.5017143
175	0xbcf334dc	-0.029688291
176	0x3ee7cc5e	0.45273107
177	0xbf2275bc	-0.634609
178	0xbd58c184	-0.052918926
179	0xbcc10c8d	-0.023565555
180	0xbbd99a54	-0.006640712
181	0xbe51dc01	-0.20494081
182	0xbe12ec36	-0.1434792
183	0xbe796936	-0.24356541
184	0x3e04a213	0.12952451
185	0xbe2a3fbc	-0.16625875
186	0x3d675beb	0.056484144
187	0x3e5b2d1c	0.21403927
188	0xbbe3b364	-0.0069488753
189	0xbe74e5a6	-0.23915729
190	0xbe741a91	-0.2383826
191	0xbf09e65f	-0.53867143
192	0xbe2292db	-0.15876333
193	0x3ee8509a	0.45373994
194	0x3d587785	0.052848358
195	0x3dd6c1cd	0.10486183
196	0x3e8f62c7	0.2800505
197	0xbd947690	-0.072491765
198	0x3e1b455c	0.15163177
199	0x3e90c6c1	0.28276637
200	0x3deab8e6	0.11461048
201	0xbdf193f8	-0.11795801
202	0xbd5c32bb	-0.053759318
203	0xbe1df0e4	-0.15423924
204	0xbe57369c	-0.21016926
205	0xbe2b2687	-0.16713916
206	0x3aae93b3	0.0013319164
207	0xbf013281	-0.5046769
208	0x3e8154ea	0.25260097
209	0x3dd3e0c4	0.10345605
210	0xbc3053de	-0.010762183
211	0x3eb203a9	0.34768417
212	0x3cf36f0f	0.029716043
213	0x3e98ec82	0.2986794
214	0xbd2aeae8	-0.04172793
215	0x3e008336	0.12550053
216	0x3e1679eb	0.14694946
217	0xbe1b522c	-0.15168065
218	0x3ed80185	0.4218866
219	0xbe277cb6	-0.16356167
220	0xbebfd97c	-0.37470615
221	0x3e7b32c0	0.24531078
222	0x3cb30555	0.021853128
223	0x3e212e9d	0.15740438
224	0x3f04056e	0.51570785
225	0xbdbecd44	-0.09316495
226	0x3bbdcee2	0.0057924846
227	0xbf26295f	-0.6490688
228	0xbe640aa0	-0.22269678
229	0xbe6b8eab	-0.23003642
230	0xbe1ad510	-0.1512034
231	0xbd9e3b2a	-0.077261284
232	0x3d60c8a8	0.05487886
233	0xbea44308	-0.3208239
234	0xbf48ac44	-0.78387856
235	0xbc87e242	-0.01658738
236	0x3ec297d6	0.38006467
237	0x3f13ffc9	0.5781217
238	0x3e3b9f5a	0.18322507
239	0x3decefd8	0.11569184
240	0xbcc863bf	-0.024461625
241	0xbe1e6ad9	-0.15470447
242	0xbe8ffac6	-0.28121012
243	0x3cb51e5e	0.022109207
244	0x3e07f1b8	0.13275802
245	0x3e4fd1d1	0.20294882
246	0xbe554447	-0.20826827
247	0xbed63067	-0.41833803
248	0x3e90b50e	0.28263134
249	0xbe0d0285	-0.13770492
250	0xbe152a41	-0.145669
251	0x3e0b7888	0.13620198
252	0x3dbb9087	0.09158426
253	0xbf07760f	-0.5291452
254	0xbe87b6ee	-0.26506752
255	0x3cfb1629	0.030650215

fc2.bias f4 [32]
0	0x3e5a520d	0.21320362
1	0x3e748c70	0.23881698
2	0xbe17b81d	-0.14816327
3	0x3c0c26db	0.008554186
4	0xbe5ec124	-0.21753365
5	0x3e17af95	0.14813073
6	0x3da85df0	0.08221042
7	0x3e3ce8ef	0.18448232
8	0xbd7871b1	-0.0606553
9	0xbc218fc8	-0.00986094
10	0xbccf9d8a	-0.025343675
11	0x3e88c4da	0.26712686
12	0x3e71cb23	0.23612647
13	0x3e7325ca	0.23744884
14	0x3d972f3c	0.07382056
15	0x3d693c11	0.05694205
16	0xbdad99f4	-0.0847663
17	0x3d643f9f	0.055724736
18	0xbe3738d5	-0.17892773
19	0xbe91bf5f	-0.28466317
20	0xbded4e77	-0.115872316
21	0x3da0a5e9	0.07844145
22	0xbe7f2135	-0.24915011
23	0x3e54b893	0.20773534
24	0xbda80575	-0.08204166
25	0xbd4022f2	-0.046908326
26	0xbc91f8ee	-0.017818894
27	0xbe0516ec	-0.12997025
28	0xbe646cc6	-0.22307119
29	0xbd10a339	-0.03531191
30	0x3e1c17fd	0.15243526
31	0x3d06f7d7	0.032951202

fc2a.weight f4 [32, 32]
0	0x3e987608	0.2977755
1	0x3e48be57	0.19603859
2	0x3ed6bc48	0.41940522
3	0x3d8bd054	0.06826845
4	0xbe1a2ea1	-0.1505685
5	0x3e47db08	0.19517148
6	0xbe24eea0	-0.16106653
7	0x3d62565b	0.055258136
8	0xbeb0b501	-0.34513095
9	0x3e1dfdc9	0.15428843
10	0xbd8acaf3	-0.06776991
11	0x3e1ea850	0.15493894
12	0x3d98b51a	0.074564174
13	0xbeea6dc6	-0.45786875
14	0x3f2fa865	0.68616325
15	0x3d8c48ff	0.068498604
16	0x3e84e448	0.25955415
17	0x3f30c03e	0.6904334
18	0xbf115536	-0.56770647
19	0xbd2efecc	-0.042723462
20	0x3e0b1ff4	0.13586408
21	0xbed1c6d5	-0.4097201
22	0xbe7d145b	-0.24714796
23	0x3dc613ae	0.09671722
24	0xbd076cd0	-0.033062756
25	0x3e193c5d	0.14964433
26	0xbf351798	-0.70739126
27	0xbec589eb	-0.38581786
28	0x3d2935cc	0.04131107
29	0xbdab17ef	-0.08354174
30	0x3d8df599	0.0693161
31	0x3ebd14f5	0.3693005
32	0x3d864462	0.06556012
33	0x3d71c9aa	0.059030212
34	0xbf1d6136	-0.6147646
35	0x3e943b56	0.2895152
36	0x3dccb48f	0.09995376
37	0x3d228ab9	0.039683077
38	0x3e9f9c09	0.31173733
39	0x3db97483	0.09055426
40	0x3d005377	0.0313296
41	0xbe9b93ca	-0.30386192
42	0xbcdb047c	-0.026735537
43	0xbdc38b63	-0.0954807
44	0xbcf08b19	-0.029363202
45	0x3ee6db65	0.4508926
46	0xbecc9aa6	-0.39961737
47	0xbdc60c75	-0.09670345
48	0xbc1f9cfe	-0.00974202
49	0xbf401c08	-0.7504277
50	0x3ef9c77f	0.48785016
51	0xbe2c4219	-0.16822089
52	0xbdb8583c	-0.09001204
53	0x3e29618d	0.16541119
54	0xbd9dfc01	-0.077140816
55	0xbd90bd77	-0.070673876
56	0xbe87bd8a	-0.26511794
57	0xbef7ad3c	-0.48374355
58	0x3f28b4c0	0.659008
59	0x3f1554f6	0.58332765
60	0xbe922eb8	-0.2855127
61	0x3d785c8d	0.06063514
62	0x3db799ff	0.08964919
63	0xbe0ec279	-0.13941373
64	0xbf2c383e	-0.6727332
65	0xbdc63ed2	-0.09679951
66	0xbea330c6	-0.3187315
67	0x3ed3ca4a	0.41365272
68	0xbcf75b0d	-0.030194784
69	0x3e44f8dd	0.19235559
70	0xbd12b6c6	-0.035818838
71	0xbc305126	-0.010761535
72	0x3e43049f	0.19044732
73	0xbf095560	-0.53645897
74	0x3ecfb7f1	0.40570024
75	0xbebc549e	-0.36783308
76	0xbe40f7aa	-0.18844476
77	0x3daa0fd2	0.08303799
78	0x3d9f3ee5	0.07775668
79	0x3f0a0b6b	0.5392367
80	0xbde67520	-0.112528086
81	0xbe0c3b5b	-0.13694517
82	0x3ef4eae5	0.4783546
83	0xbe9ab064	-0.302127
84	0x3d2c40a3	0.04205383
85	0x3ee9db08	0.4567492
86	0xbc57a820	-0.013162643
87	0x3dfb71b0	0.122775435
88	0x3e8bd67d	0.2731208
89	0x3da5efc5	0.08102373
90	0x3e78a19b	0.24280398
91	0xbc8aabf0	-0.01692769
92	0x3ef2056f	0.4726977
93	0x3e1149fe	0.14188382
94	0xbeeb07d1	-0.459044
95	0xbf1f4392	-0.6221248
96	0xbee69065	-0.4503204
97	0xbc5df02b	-0.01354603
98	0xbe694ae5	-0.22782476
99	0x3e421771	0.18954255
100	0xbd8a2936	-0.067461416
101	0xbddcb631	-0.10776938
102	0x3d92c84a	0.07167108
103	0xbdb086eb	-0.086194836
104	0x3e4d936f	0.20075773
105	0xbedc228f	-0.42995116
106	0x3edd6ade	0.43245596
107	0xbed75f63	-0.42064962
108	0xbe6f70a1	-0.23382808
109	0x3d318fc5	0.04335
110	0xbeaf88ee	-0.34284157
111	0x3eba2f98	0.36364436
112	0xbe7e03ec	-0.24806184
113	0x3d736329	0.05942074
114	0x3f037f18	0.51365805
115	0xbe808b4d	-0.25106278
116	0xbc962174	-0.018326499
117	0x3ed1725f	0.4090757
118	0xbd8461ca	-0.06463964
119	0xbd1384f6	-0.036015473
120	0x3e091d6a	0.13390127
121	0x3e809621	0.2511454
122	0x3d1d4ff1	0.038406316
123	0x3eb1f6e2	0.3475867
124	0x3eb2831d	0.34865656
125	0x3e63b752	0.222379
126	0xbe0658bb	-0.13119785
127	0xbe82e840	-0.25567818
128	0x3f403473	0.7508003
129	0xbaa40982	-0.001251504
130	0xbdc147a4	-0.094374925
131	0xbf66c861	-0.90149504
132	0xbd76f156	-0.06028875
133	0xbee142e8	-0.43996358
134	0x3e09d16d	0.13458796
135	0xbdb0f667	-0.086407475
136	0xbdb39709	-0.08769042
137	0x3f1fb84d	0.62390596
138	0xbf74df16	-0.956529
139	0x3f21d1ae	0.6321057
140	0xbdab958f	-0.083781354
141	0x3d652997	0.055947866
142	0xbe1dbe38	-0.15404594
143	0xbf2c1131	-0.6721373
144	0x3d9644f9	0.07337374
145	0xbe699f62	-0.22814706
146	0xbe75ca60	-0.24002981
147	0x3f4244d2	0.7588626
148	0xbdb3a356	-0.08771388
149	0xbeaceb53	-0.33773288
150	0x3daf84a2	0.085702196
151	0x3b0fdd2e	0.0021951902
152	0xbf3fcffc	-0.74926734
153	0xbebfdd69	-0.3747361
154	0x3d9bf9d8	0.07616013
155	0x3e43c4d5	0.19118054
156	0xbf4ec034	-0.8076203
157	0xbec08572	-0.3760181
158	0x3f067285	0.5251849
159	0x3e3436fb	0.17599098
160	0xbf1c94fe	-0.61164844
161	0x3e2250c0	0.15851116
162	0xbc895150	-0.016762406
163	0x3eb7a28b	0.35866198
164	0xbc50edbb	-0.012751992
165	0xbd2d399a	-0.04229126
166	0xbbbe0aec	-0.005799642
167	0x3e00a6b1	0.12563588
168	0x3ee656ac	0.44988
169	0xbe2a2ee8	-0.16619456
170	0x3eb04c49	0.344332
171	0xbf57e449	-0.8433271
172	0xbe253684	-0.16134077
173	0x3e117f11	0.14208628
174	0x3b71b0b2	0.0036879
175	0x3edaedf6	0.42759675
176	0x3e003ee8	0.12523997
177	0x3ba0cae7	0.0049070003
178	0x3eff68cc	0.4988464
179	0xbe222a6e	-0.15836498
180	0x3d90427f	0.07043933
181	0x3e70f628	0.23531401
182	0xbdb9f111	-0.09079183
183	0x3e50a99d	0.20377202
184	0x3f216c3f	0.63055795
185	0x3f31a4af	0.6939191
186	0x3d58e662	0.052954085
187	0x3e5c022e	0.21485206
188	0x3f2b7f0a	0.6699072
189	0x3e7b541a	0.24543801
190	0xbf9a59e9	-1.2058688
191	0xbf243523	-0.6414358
192	0x3d6494f9	0.055806134
193	0xbeeca43f	-0.4621906
194	0xbf2cebd5	-0.6754735
195	0xbd7a1b19	-0.061061
196	0x3e542940	0.2071886
197	0x3c98f62c	0.018672071
198	0x3f9a41dd	1.205135
199	0xbec5f8dc	-0.38666427
200	0x3e44632a	0.19178453
201	0x3e3567f1	0.17715432
202	0xba740f7a	-0.00093101675
203	0x3e870764	0.26372826
204	0xbf16f63d	-0.5896948
205	0x3e84933f	0.2589359
206	0xbe2a9890	-0.1665976
207	0xbed1d895	-0.4098555
208	0xbebbeb9e	-0.367032
209	0xbf366f4d	-0.7126358
210	0x3e8bf19b	0.27332768
211	0xbe95c5fa	-0.29252607
212	0xbeeaae98	-0.4583633
213	0x3e869a65	0.2628967
214	0x3edb2b6d	0.4280657
215	0xbf00a77d	-0.50255567
216	0xbf071160	-0.5276089
217	0xbeb6a91e	-0.356759
218	0x3ecbcd61	0.3980513
219	0x3e5076d5	0.20357831
220	0xbf9d0eb8	-1.2270117
221	0xbe079ebf	-0.1324415
222	0x3f853750	1.0407505
223	0x3e176e3b	0.14788143
224	0x3ed08c8e	0.40732235
225	0x3da05935	0.07829515
226	0xbe3f2221	-0.18665363
227	0xbf80d7ba	-1.0065835
228	0xbe0de9b3	-0.1385868
229	0xbf5ae04f	-0.8549852
230	0xbbd5e7d7	-0.0065278816
231	0x3df02bbe	0.11727093
232	0x3e2a4d47	0.16631041
233	0x3e864d5a	0.2623089
234	0xbe979702	-0.29607397
235	0x3e709b8e	0.2349684
236	0xbdea534d	-0.114416696
237	0x3da52229	0.08063156
238	0xbe803318	-0.2503898
239	0xbe996fa3	-0.29967985
240	0x3c394b1e	0.011309413
241	0xbe76ec60	-0.24113607
242	0x3b496288	0.0030728895
243	0x3f5bd892	0.85877335
244	0xbe4b9bac	-0.19883603
245	0xbd6501eb	-0.055910032
246	0xbddfc56a	-0.109263256
247	0x3e64e011	0.223511
248	0xbdd5db8b	-0.10442265
249	0xbe7b12b7	-0.24518858
250	0x3e02e5a8	0.1278292
251	0x3e7208c6	0.2363616
252	0xbdd43915	-0.1036245
253	0xbc7634dc	-0.015027251
254	0x3dfb1a97	0.12260931
255	0xbbbb7913	-0.0057212203

fc2a.bias f4 [32]
0	0x3e67cbd4	0.22636348
1	0x3d0e087f	0.03467607
2	0xbe85b0ee	-0.2611155
3	0xbe3ac345	-0.18238552
4	0xbe3b7cd0	-0.18309331
5	0xbeb96953	-0.36213169
6	0xbe86e285	-0.26344696
7	0xbde39ec8	-0.111142695
8	0xbe8c8556	-0.27445477
9	0x3e57a057	0.21057259
10	0xbe8e04cf	-0.27738044
11	0xbb9a0d3b	-0.004701284
12	0xbebad15c	-0.36487854
13	0xbe3329d5	-0.17496426
14	0xbf5efd2c	-0.8710506
15	0x3cb297c7	0.021800889
16	0x3d06b211	0.03288466
17	0xbd073d98	-0.033017725
18	0xbea9b4db	-0.33145794
19	0xbe462213	-0.19348936
20	0x3d0c1f2f	0.034209426
21	0x3e9db8c7	0.30805036
22	0xbea28b3b	-0.3174685
23	0x3d5699eb	0.05239288
24	0x3e960223	0.29298505
25	0x3e45b552	0.1930745
26	0xbd5aa7a6	-0.05338254
27	0xbd378ed0	-0.04481393
28	0xbdc6db1d	-0.09709761
29	0xbe146934	-0.14493257
30	0x3efc9677	0.49333546
31	0xbe54234f	-0.20716594

fc2b.weight f4 [32, 32]
0	0x3eff5d83	0.4987603
1	0xbd8730b5	-0.06601087
2	0x3e695890	0.2278769
3	0x3cdf6227	0.027268482
4	0x3c74e502	0.014947178
5	0xbd92faac	-0.07176718
6	0x3e420630	0.18947673
7	0xbec60969	-0.38679054
8	0x3e4b1301	0.19831468
9	0xbe6c80c4	-0.23095995
10	0xbeb281a1	-0.34864524
11	0xbeb0c96f	-0.34528682
12	0xbef36f9c	-0.4754609
13	0xbdea3e61	-0.11437679
14	0x3d79f297	0.061022367
15	0x3f0d91bd	0.55300504
16	0xbe03e641	-0.12880804
17	0x3d20cb81	0.039256576
18	0xbf21b34e	-0.6316422
19	0x3e06d9c6	0.13169011
20	0xbdc71fba	-0.09722848
21	0xbdb9c0bc	-0.09069964
22	0x3c970b86	0.018438112
23	0x3e6e7180	0.23285484
24	0x3e4e0d9d	0.2012238
25	0x3dc10bf6	0.094261095
26	0x3cf604fa	0.03003167
27	0xbd2fa244	-0.042879358
28	0x3d91c995	0.07118527
29	0x3e9c86b6	0.30571526
30	0x3c12d485	0.008961801
31	0xbe8f6134	-0.28003848
32	0xbebab95a	-0.36469537
33	0x3cd2be10	0.025725394
34	0xbe964e6a	-0.293567
35	0x3cde682b	0.02714928
36	0x3d217ddc	0.03942667
37	0x3e1d0acb	0.15336148
38	0xbe93d5e1	-0.28874114
39	0x3e08b8e7	0.13351785
40	0xbe352ab6	-0.17692074
41	0xbf4715f5	-0.7776788
42	0x3edf54ff	0.43619534
43	0xbdc7f65e	-0.09763788
44	0x3f23542e	0.63800323
45	0x3dc85c5e	0.09783243
46	0x3ea0e70b	0.31426272
47	0x3cfb3889	0.030666607
48	0x3cb5b3ff	0.022180555
49	0xbea560f0	-0.3230052
50	0x3e986bbc	0.29769695
51	0x3e9f8468	0.31155705
52	0x3e746714	0.23867446
53	0xbd13dd86	-0.036099933
54	0x3ee8dff7	0.45483372
55	0x3e8bc2e8	0.2729714
56	0xbecd20eb	-0.40064177
57	0xbe05df0c	-0.13073367
58	0x3d86e0bb	0.06585833
59	0x3e991ca4	0.29904664
60	0x3e63e5cf	0.22255634
61	0xbe2c29dc	-0.16812843
62	0xbe7b6939	-0.24551858
63	0x3e5682cd	0.20948334
64	0x3d922492	0.071358815
65	0x3de62083	0.1123667
66	0xbe5c4184	-0.21509367
67	0xbf02fa73	-0.51163405
68	0x3cb30091	0.021850856
69	0xbf74edb6	-0.9567522
70	0xbe608e62	-0.21929315
71	0xbe3e0c18	-0.18559301
72	0xbf47d345	-0.78056747
73	0x3f296db9	0.6618305
74	0xbf105eab	-0.5639445
75	0x3dc6c163	0.09704854
76	0xbf4e4d67	-0.80586857
77	0x3eb681c2	0.35645872
78	0xbebb5382	-0.3658715
79	0x3e898f22	0.26867014
80	0xbd9103ed	-0.07080827
81	0xbe0a7cac	-0.13524121
82	0x3dd9eb45	0.10640577
83	0xbefcaea1	-0.4935198
84	0xbdce2c51	-0.100670464
85	0x3f1cc1d4	0.6123326
86	0xbf0fee78	-0.5622325
87	0xbf3c08a9	-0.73450714
88	0x3e5f088e	0.21780607
89	0x3f14eee1	0.58177
90	0x3e241d34	0.16026765
91	0x3d42e6bc	0.047583327
92	0xbe49ef31	-0.1972015
93	0xbdda519b	-0.10660096
94	0x3f66c6b7	0.90146965
95	0xbe7a04a4	-0.24415833
96	0xbde87f71	-0.113524325
97	0x3de9118d	0.11380301
98	0x3ef5761b	0.4794167
99	0x3f1b19cf	0.60586256
100	0xbd8b7640	-0.06809664
101	0x3f636dc0	0.8883934
102	0x3e8cd075	0.2750279
103	0x3c9d7af9	0.019223677
104	0x3eb2f48f	0.34952208
105	0x3cb68605	0.022280702
106	0xbe01e4bc	-0.12684911
107	0x3e0d5843	0.138032
108	0x3dcbc724	0.099500924
109	0xbd4f1ea4	-0.05056633
110	0x3e07a74e	0.13247415
111	0xbec218bb	-0.37909493
112	0xbd20fae9	-0.039301787
113	0x3dd980c6	0.10620265
114	0xbe1ebaa9	-0.15500893
115	0x3e4b3692	0.19845036
116	0xbe454591	-0.19264819
117	0xbef827b2	-0.48467785
118	0x3eb86be1	0.36019805
119	0x3dc248bf	0.094865315
120	0xbec061f1	-0.37574723
121	0xbf0b1cf2	-0.5434104
122	0xbe561f3f	-0.20910357
123	0x3d1a8a76	0.037729703
124	0xbd8c5195	-0.06851498
125	0x3e9de6fc	0.3084029
126	0xbedddede	-0.43334097
127	0xbd2c117a	-0.042008854
128	0x3d4373b6	0.047717772
129	0xbcd8fe04	-0.026488312
130	0xbf034c96	-0.51288736
131	0xbf122f41	-0.57103354
132	0x3e0e1918	0.1387676
133	0xbf511be5	-0.8168319
134	0xbe10ae89	-0.1412908
135	0xbe61f175	-0.22064765
136	0xbeb41bea	-0.35177547
137	0xbd9dd0ba	-0.07705827
138	0x3d839533	0.06424942
139	0xbe46f911	-0.19430949
140	0xbd864918	-0.0655691
141	0xbd9b6b80	-0.075888634
142	0xbdb95082	-0.09048559
143	0x3ecd9888	0.40155435
144	0xbda24619	-0.07923526
145	0xbcb1fa21	-0.021725716
146	0x3e1fd8d1	0.15610053
147	0xbebdfb56	-0.37105817
148	0xbd5254aa	-0.051350273
149	0x3ee3341d	0.44375697
150	0xbdbcf4f4	-0.092264086
151	0xbe82a1cd	-0.2551407
152	0x3eb16c89	0.34653118
153	0x3efcf9c0	0.49409294
154	0x3e54a067	0.20764314
155	0x3e002cd6	0.12517104
156	0x3e21c6b0	0.1579845
157	0xbe9e1d47	-0.30881712
158	0x3e8f010a	0.2793048
159	0x3d953b09	0.07286651
160	0x3ebe25ab	0.37138113
161	0xbed9a515	-0.4250876
162	0x3e45a4b7	0.19301115
163	0x3ea325a3	0.31864652
164	0xbd7e62a5	-0.062105794
165	0x3e864933	0.26227722
166	0x3e88086d	0.26568928
167	0xbe6a85c9	-0.22902597
168	0x3db3596e	0.08757292
169	0x3dd8c1da	0.10583849
170	0xbeab3bc9	-0.3344405
171	0xbd67bec3	-0.05657841
172	0xbe1ce9c7	-0.15323554
173	0xbe15a390	-0.14613175
174	0x3d655a79	0.055994485
175	0x3e86b081	0.26306537
176	0xbe3fb33e	-0.18720719
177	0x3d0d6ea4	0.034529343
178	0xbec42543	-0.38309678
179	0xbcdfd25e	-0.02732199
180	0x3d94229c	0.07233164
181	0xbdd329c0	-0.103106976
182	0xbdd6ef33	-0.104948424
183	0x3e54378d	0.20724316
184	0x3eb36892	0.35040718
185	0x3e029546	0.12752256
186	0x3df60e5e	0.12014459
187	0xbd0c7176	-0.034287892
188	0x3e2beb1e	0.16788909
189	0x3e7d27ac	0.24722165
190	0xba155343	-0.0005696306
191	0xbe880b07	-0.26570913
192	0xbca9e9c9	-0.02074136
193	0xbe556d63	-0.20842509
194	0xbe21321e	-0.15741774
195	0x3d6b69bc	0.057473883
196	0x3f1784b9	0.59186894
197	0x3e17434b	0.14771764
198	0xbe0ae16e	-0.13562557
199	0x3dde6dc1	0.10860778
200	0x3da697b6	0.08134405
201	0x3ddc3916	0.10753076
202	0xbe9e7c62	-0.30954272
203	0xbd79ef31	-0.061019126
204	0xbda0043f	-0.0781331
205	0x3e53f3c8	0.20698464
206	0x3d6f49e9	0.058420096
207	0xbc784a69	-0.0151544595
208	0xbe39e773	-0.18154697
209	0xbf847e53	-1.0351051
210	0xbbf5f446	-0.0075059263
211	0xbe6ca6ff	-0.23110579
212	0xbe8f7bfc	-0.2802428
213	0x3e60908f	0.21930145
214	0xbdb97b31	-0.090567
215	0xbe1429a8	-0.14469016
216	0xbe7aeb9b	-0.24503939
217	0x3a0d12da	0.0005381532
218	0x3f5f24b0	0.87165356
219	0xbe45d8dd	-0.19321008
220	0xbd3e0172	-0.046388097
221	0xbe8ee1d8	-0.2790668
222	0x3c98095d	0.018559152
223	0xbe4d3b36	-0.20042118
224	0xbd8df9bf	-0.06932401
225	0x3eb70307	0.35744497
226	0xbe52e87e	-0.20596501
227	0x3e0ee3c1	0.13954069
228	0xbe3feefc	-0.18743509
229	0x3db87d32	0.09008254
230	0xbd9bb672	-0.07603158
231	0x3f773eaf	0.9658002
232	0x3e02f444	0.12788492
233	0x3ec48c30	0.38388205
234	0xbe103af3	-0.14084987
235	0x3d76fa6e	0.060297422
236	0xbe737abe	-0.23777291
237	0x3e3ab388	0.18232548
238	0xbe7dcada	-0.24784413
239	0xbe6a580f	-0.22885154
240	0x3ecc7dd4	0.3993975
241	0x3d9b55d6	0.07584731
242	0x3f31d233	0.69461364
243	0xbe393d79	-0.18089856
244	0xbc12029b	-0.008911754
245	0x3dd62e60	0.10458064
246	0xbe12b743	-0.14327721
247	0xbf10bd22	-0.56538594
248	0xbe583960	-0.21115637
249	0x3b7b3f1e	0.0038337181
250	0xbdef116e	-0.11673246
251	0x3e813da9	0.25242355
252	0x3d6aa10b	0.05728249
253	0xbe22b974	-0.15891057
254	0x3e7ad53a	0.24495402
255	0x3dac0b55	0.08400599

fc2b.bias f4 [32]
0	0x3e579ce3	0.21055941
1	0xbe990795	-0.29888597
2	0x3e790d24	0.24321419
3	0xbe8b82c6	-0.2724821
4	0x3e2bbf80	0.1677227
5	0xbdbadbfd	-0.09123991
6	0x3e2bb8e2	0.16769746
7	0x3e43c7db	0.19119208
8	0xbde52d1f	-0.11190247
9	0xbe3dff0f	-0.18554328
10	0xbd0a7e43	-0.03381182
11	0x3dbc49a5	0.09193734
12	0x3dfa1eca	0.12212904
13	0xbe295a11	-0.16538264
14	0x3c80c542	0.01571906
15	0xbd2fd228	-0.04292503
16	0xbd930439	-0.0717854
17	0xbe5bbad3	-0.21457987
18	0xbd50a7a0	-0.05094111
19	0xbe8b6e95	-0.27232805
20	0x3d13f4c5	0.036122102
21	0x3e8977cc	0.2684921
22	0x3e65ba0e	0.22434255
23	0xbe01e978	-0.12686718
24	0x3e8dc3a8	0.27688336
25	0xbed11a62	-0.4084044
26	0xbd064c61	-0.032787684
27	0xbe38735b	-0.18012755
28	0x3e928dda	0.2862385
29	0xbea90c14	-0.33017027
30	0x3d75485c	0.05988346
31	0xbde5547f	-0.11197757

fc2c.weight f4 [32, 32]
0	0x3e1568b9	0.1459073
1	0xbe84dc23	-0.259492
2	0x3e9c48c2	0.3052426
3	0xbea75989	-0.32685497
4	0x3d7492f0	0.059710443
5	0xbd85ea3b	-0.065388165
6	0x3d1c4d96	0.03815993
7	0x3e8b7b5f	0.27242562
8	0xbf3f8c9e	-0.7482394
9	0xbe415095	-0.18878396
10	0xbd965349	-0.07340104
11	0xbebbe177	-0.36695454
12	0x3c9d64d0	0.01921311
13	0xbeb114ce	-0.34586185
14	0x3e5c320c	0.21503466
15	0x3dc4095e	0.09572099
16	0xbd14baa0	-0.036310792
17	0xbf8c9f17	-1.098605
18	0xbe2da9eb	-0.1695935
19	0x3ddad25e	0.106846556
20	0x3d59d89f	0.0531851
21	0x3e2abcd1	0.1667359
22	0x3fa2deb3	1.2724212
23	0x3d0c9140	0.03431821
24	0x3dc5d77f	0.09660243
25	0xbf14ff7e	-0.5820235
26	0xbe393c46	-0.18089399
27	0x3c972226	0.0184489
28	0x3e72181b	0.23642008
29	0xbd8d89ba	-0.06911035
30	0xbd610c88	-0.05494359
31	0x3de13c60	0.10997844
32	0xbcb2be02	-0.021819118
33	0x3e9993ab	0.29995474
34	0xbea3e8df	-0.32013604
35	0x3e948645	0.2900869
36	0xbe04c67f	-0.12966345
37	0x3e117ae4	0.14207035
38	0xbcc4c935	-0.024021724
39	0xbe2ee7fb	-0.17080681
40	0xbf10264d	-0.5630844
41	0x3eb78a5c	0.35847747
42	0x3ea9a42b	0.33133063
43	0xbdc75dd3	-0.097346924
44	0x3ef7bdc6	0.48386973
45	0x3cb039e9	0.021511989
46	0x3bcee321	0.006313697
47	0xbe9c625f	-0.305438
48	0x3ee25903	0.44208536
49	0xbecec8d1	-0.40387586
50	0x3e782b4e	0.2423527
51	0x3da489d6	0.080341026
52	0xbdbfe5c9	-0.0937
53	0x3d9ac2ee	0.07556711
54	0x3e017f2e	0.12646171
55	0xbdb78632	-0.089611426
56	0xbd774f92	-0.06037862
57	0x3d080879	0.033211205
58	0x3ea78dfb	0.3272551
59	0xbe14f6bb	-0.14547245
60	0xbe75e09a	-0.2401146
61	0x3e0fc89d	0.14041372
62	0xbeaa4e56	-0.3326289
63	0x3e87fd81	0.26560596
64	0xbd8a5aa5	-0.0675557
65	0xbeab3785	-0.33440796
66	0xbeeeefb3	-0.4666725
67	0xbd0ad185	-0.03389122
68	0x3c7ac9df	0.015306919
69	0xbcd3217e	-0.025772806
70	0xbe2dbead	-0.16967268
71	0xbd685a7b	-0.056726914
72	0xbec3b5f7	-0.38224766
73	0x3ea3e0e7	0.32007524
74	0x3dbdf00d	0.09274302
75	0xbc53ecb6	-0.012934854
76	0x3ea7a2d2	0.3274141
77	0x3de7eac2	0.113240734
78	0xbe56668c	-0.20937556
79	0x3e8035e0	0.25041103
80	0x3f004a07	0.50112957
81	0xbe7dd765	-0.24789198
82	0x3ca15af3	0.019696688
83	0x3ea67b44	0.3251592
84	0x3d0d800c	0.034545943
85	0x3d88c7f2	0.066787615
86	0x3e6f9562	0.23396829
87	0xbdbe406a	-0.0928963
88	0x3e84fe30	0.2597518
89	0xbd0e9536	-0.034810267
90	0xbe5acf36	-0.21368107
91	0x3e9f8cfc	0.3116225
92	0xbe2dec69	-0.16984715
93	0xbe11c040	-0.14233494
94	0x3e116682	0.1419926
95	0xbe2e4891	-0.1701987
96	0x3e667905	0.22507103
97	0xbe00296a	-0.12515798
98	0x3c1ea2c0	0.009682357
99	0x3d986f91	0.074431546
100	0xbe926ef8	-0.28600287
101	0x3d7970b8	0.060898513
102	0x3cf45474	0.029825427
103	0x3ed57561	0.41691115
104	0x38f41023	0.00011637832
105	0x3dd4bf28	0.10388023
106	0x3e42f74e	0.19039652
107	0xbe903653	-0.28166446
108	0x3f03aac7	0.5143246
109	0xbca37733	-0.0199543
110	0x3d772c5d	0.060345042
111	0xbf2d8dc5	-0.6779445
112	0x3f2d376e	0.67662704
113	0x3e16796c	0.14694756
114	0x3e890170	0.2675891
115	0x3eb29431	0.34878686
116	0x3ddd842c	0.108162254
117	0xbdf807c7	-0.121108584
118	0xbe35b28a	-0.17743888
119	0x3e2bf49d	0.16792531
120	0xbe8da246	-0.27662867
121	0xba8264c3	-0.0009948242
122	0x3eff3376	0.4984395
123	0x3eeb0566	0.45902556
124	0xbd1b83e0	-0.037967563
125	0xbe3899d8	-0.18027437
126	0xbe7f7397	-0.24946438
127	0xbd662b57	-0.056193676
128	0x3eb98aee	0.36238807
129	0x3e0ddf8b	0.13854806
130	0x3e214898	0.15750349
131	0x3dc3eb45	0.095663585
132	0xbe4791d4	-0.19489223
133	0xbbcd6cdf	-0.006269082
134	0x3e3c250c	0.18373507
135	0xbec2dbff	-0.3805847
136	0xbe5b0038	-0.21386802
137	0x3db4c5e0	0.08826804
138	0x3ea44289	0.32082012
139	0x3d366272	0.04452748
140	0xbea52b36	-0.3225953
141	0x3d606b2d	0.05478971
142	0xbcd56119	-0.026047276
143	0xbeef2861	-0.46710494
144	0xbe92e79b	-0.28692326
145	0x3e9577fd	0.29193106
146	0x3de8b5bd	0.11362789
147	0xbcad0362	-0.021119777
148	0x3dc0e65a	0.09418936
149	0x3ec88f4e	0.39171833
150	0xbdd250d3	-0.10269322
151	0xbe930ad5	-0.28719202
152	0x3da954b0	0.08268106
153	0x3e8b5853	0.27215824
154	0x3f0e0b96	0.5548643
155	0xbe187df1	-0.14891793
156	0xbb96382a	-0.004584332
157	0x3dc07e4d	0.0939909
158	0xbe6afc63	-0.2294784
159	0xbd58c5bd	-0.052922953
160	0x3e071338	0.13190925
161	0xbe9d2797	-0.30694267
162	0xbeb50548	-0.35355592
163	0x3e93c2a5	0.2885944
164	0xbdcd8551	-0.10035194
165	0x3e4aa1f7	0.19788347
166	0xbe248662	-0.16066888
167	0xbd8400f5	-0.06445495
168	0xbe96c50e	-0.29447216
169	0x3dd87483	0.10569098
170	0x3db35a3d	0.08757446
171	0x3e20b9df	0.15695904
172	0x3e11ab6f	0.14225553
173	0x3df34e73	0.118801974
174	0xbe4716cc	-0.1944229
175	0xbdffedf9	-0.124965616
176	0x3e847a3d	0.2587451
177	0xbb02b65b	-0.0019945118
178	0x3e353223	0.17694907
179	0x3efc1abc	0.49239147
180	0x3e8e0955	0.27741495
181	0x3daa3649	0.08311135
182	0xbcf1fe57	-0.029540224
183	0x3d1bf0a2	0.038071282
184	0xbe0fcbba	-0.1404256
185	0x3e18ebbc	0.14933676
186	0x3e42dd47	0.19029723
187	0x3ef1a185	0.47193542
188	0xbe074267	-0.13208924
189	0xbdfd37c2	-0.123641506
190	0x3e10d7dd	0.14144845
191	0x3e3a7752	0.1820958
192	0xbc89c597	-0.016817851
193	0x3f58ab3f	0.846363
194	0x3da88484	0.082284
195	0x3d3cd077	0.046097245
196	0xbcf6a07c	-0.030105822
197	0xbe772e3f	-0.24138735
198	0x3e934df7	0.2877042
199	0x3e3e85f1	0.18605782
200	0xbd84b578	-0.06479925
201	0x3e072a00	0.13199615
202	0xbd8d92ae	-0.069127426
203	0xbef21ccc	-0.47287595
204	0x3e93798a	0.28803664
205	0xbc030965	-0.007997845
206	0x3eff28ff	0.49835965
207	0xbe2fd48d	-0.17170925
208	0xbdd5353b	-0.104105435
209	0xbdf03fa9	-0.11730892
210	0xbf0bba5a	-0.54581225
211	0x3dd02f1e	0.10165237
212	0xbf02261d	-0.50839406
213	0xbf165d2e	-0.5873593
214	0x3e89c445	0.26907554
215	0xbda24e1a	-0.07925053
216	0xbf2ce3d6	-0.6753515
217	0xbf33ba65	-0.7020629
218	0x3e0ccdf4	0.1375044
219	0xbe5dfafa	-0.21677771
220	0x3c6bb79d	0.014387039
221	0x3ea9619c	0.33082283
222	0xbdfdd518	-0.1239416
223	0x3e95273b	0.29131493
224	0xbd2101f1	-0.039308492
225	0xbdba1746	-0.0908647
226	0xbf1ef5f4	-0.62094045
227	0x3f63a7ac	0.8892772
228	0xbf2edf6e	-0.68309677
229	0x3e1b060a	0.15139022
230	0x3e34152f	0.17586206
231	0xbcecd3a7	-0.028909517
232	0xbe28bb54	-0.1647771
233	0x3f0dfede	0.5546702
234	0xbdf652a2	-0.1202748
235	0x3e65f107	0.22455226
236	0xbeaa1c8f	-0.33224913
237	0x3cf84964	0.030308433
238	0x3d3faa1b	0.046793085
239	0x3e29c75c	0.16579956
240	0x3e38da72	0.1805208
241	0x3ea0b941	0.31391338
242	0x3e23fd19	0.16014518
243	0x3e275377	0.16340433
244	0x3de3ca0e	0.11122523
245	0x3c30c64e	0.010789467
246	0xbeb2f1a4	-0.34949982
247	0x3c3f5c71	0.011679755
248	0xbea2e919	-0.31818464
249	0x3e5af548	0.2138263
250	0xbd418cbe	-0.047253363
251	0x3d3e94ec	0.04652874
252	0xbed5ef62	-0.41784197
253	0x3dbd2ee1	0.09237457
254	0x3e3aba05	0.18235023
255	0x3e437b11	0.19089915

fc2c.bias f4 [32]
0	0x3e7f44f6	0.2492865
1	0xbe773570	-0.24141479
2	0x3d512c4c	0.051067635
3	0x3d6f2cef	0.05839246
4	0xbecd444b	-0.40091166
5	0xbea84508	-0.32865167
6	0x3e48fb98	0.19627225
7	0xbe90f2e7	-0.2831032
8	0xbe3c109e	-0.18365714
9	0xbe2ba093	-0.16760473
10	0x3c4258da	0.011862004
11	0xbe0fc2e7	-0.14039193
12	0xbd3fd596	-0.04683455
13	0x3db8e56b	0.09028133
14	0x3d87b25c	0.06625816
15	0xbd3fd05d	-0.04682957
16	0xbe857f37	-0.2607362
17	0xbf00dc6b	-0.5033633
18	0x3e3f9976	0.18710884
19	0x3d90484d	0.0704504
20	0x3eb12ccd	0.34604493
21	0xbea2f507	-0.31827566
22	0x3e649d97	0.22325741
23	0x3edf6d65	0.4363815
24	0xbe5d41dd	-0.21607156
25	0xbe40b817	-0.18820225
26	0xbe41e3cb	-0.18934552
27	0x3db656d3	0.08903279
28	0xbd47c821	-0.048774842
29	0x3c11a039	0.008888298
30	0x3db04747	0.08607345
31	0xbd12e8bb	-0.03586648

fc2d.weight f4 [32, 32]
0	0xbeb2eea4	-0.34947693
1	0xbe816ba5	-0.2527744
2	0xbf587152	-0.84547913
3	0xbc4134e6	-0.011792397
4	0xbd3f8412	-0.04675681
5	0x3e928611	0.2861791
6	0xbe48c2e9	-0.19605602
7	0x3e5fa9a8	0.21842062
8	0x3dd04829	0.101700135
9	0xbcfcb016	-0.030845683
10	0x3d473ca3	0.048641812
11	0x3f55521d	0.8332842
12	0x3e84852c	0.25882852
13	0xbf03e7dd	-0.5152567
14	0x3de3532c	0.11099848
15	0x3e34ffc8	0.17675698
16	0x3e1789d5	0.14798672
17	0xbd58a77f	-0.05289411
18	0x3e76f9db	0.2411875
19	0xbb441f1b	-0.0029925767
20	0x3aaed141	0.0013337509
21	0x3d75be0f	0.059995707
22	0x3ba35c07	0.0049853357
23	0xbf094031	-0.53613573
24	0xbda1f3c9	-0.079078265
25	0xbc925454	-0.017862476
26	0x3d86c89d	0.06581233
27	0x3e94bb94	0.2904936
28	0x3c109385	0.008824234
29	0x3d60c614	0.054876402
30	0x3d8ecba6	0.069724366
31	0xbdb3b1f6	-0.08774178
32	0xbe84adbb	-0.25913796
33	0x3f17e30e	0.5933083
34	0x3c483a86	0.012220984
35	0x3e3f8eab	0.18706767
36	0x3eef8d73	0.46787605
37	0x3df2d3d5	0.1185681
38	0x3da17ba0	0.07884908
39	0x3e3c7925	0.18405588
40	0x3f1f8b41	0.6232186
41	0xbd9c4ec8	-0.07632214
42	0x3d8ce6f7	0.068799905
43	0x3e1ede12	0.155144
44	0x3cfa92fa	0.030587662
45	0xbea7bd53	-0.3276163
46	0xbb2f6568	-0.0026763324
47	0xbe7068bf	-0.23477457
48	0xbeeb6483	-0.45975122
49	0x3e85f109	0.26160458
50	0xbcb02f63	-0.02150697
51	0x3e5be220	0.21472979
52	0x3ece7d9f	0.40330216
53	0xbe513fea	-0.20434538
54	0xbe114a48	-0.14188492
55	0xbdaa386a	-0.083115414
56	0xbf039afb	-0.51408356
57	0x3ec8ae10	0.391953
58	0x3e380e3b	0.17974178
59	0x3e7e2488	0.24818623
60	0xbf543e14	-0.82907224
61	0x3e6a6b63	0.22892527
62	0x3ede939a	0.43471986
63	0x3d86f815	0.06590287
64	0x3de8c860	0.113663435
65	0x3db6af33	0.08920135
66	0xbe924e9a	-0.28575593
67	0xbca04316	-0.019563239
68	0xbeb8f4fd	-0.3612441
69	0xbdd01f65	-0.10162238
70	0x3d5d2ab5	0.053995807
71	0xbdbd5525	-0.09244756
72	0xbd420290	-0.047365725
73	0x3a234cb1	0.00062293845
74	0x3eaa73f6	0.33291596
75	0xbd9ef37e	-0.07761286
76	0xbf969ae5	-1.176602
77	0x3e3911b4	0.1807316
78	0x3f457b0a	0.7714087
79	0x3e9f6abd	0.31136122
80	0x3e9d7aed	0.30757847
81	0xbf82b355	-1.0210978
82	0x3f8637c2	1.0485766
83	0x3f185a27	0.5951256
84	0xbf0edab0	-0.5580244
85	0x3ec7eadc	0.3904637
86	0x3f882302	1.0635684
87	0xbe3a1c87	-0.18174945
88	0xbd0bcf38	-0.034133166
89	0xbfb448e8	-1.4084749
90	0xbca33849	-0.0199243
91	0xbe46837f	-0.193861
92	0x3e0f316e	0.139837
93	0xbf0f7f18	-0.56053305
94	0xbd87580f	-0.06608593
95	0xbe404b3f	-0.18778704
96	0xbe612508	-0.21986783
97	0x3f105ad4	0.5638859
98	0xbda546ac	-0.0807012
99	0x3eb9b908	0.3627398
100	0x3eb815a8	0.35954022
101	0x3dbfc4c0	0.09363699
102	0x3dc56ace	0.09639512
103	0xbdf42623	-0.119213365
104	0x3e1dacbf	0.15397929
105	0x3e4a61c3	0.19763856
106	0xbf60e7c3	-0.8785364
107	0xbd962625	-0.07331494
108	0x3ec2f1d3	0.38075122
109	0xbd8b22c5	-0.06793741
110	0xbf078ec1	-0.529522
111	0xbea51db2	-0.32249218
112	0xbd91797b	-0.07103249
113	0x3e583bb6	0.21116528
114	0xbe4ba3f9	-0.1988677
115	0x3dd65e71	0.10467232
116	0x3f93fc07	1.1561288
117	0xbfa47eaa	-1.2851155
118	0xbee24fe8	-0.4420159
119	0x3dfd2769	0.123610325
120	0xbe821c07	-0.25412008
121	0x3e1e67af	0.1546924
122	0xbdff340a	-0.124610975
123	0xbe364a29	-0.17801727
124	0x3ccdac2d	0.025106514
125	0xbc6d8040	-0.014495909
126	0x3f51d7e3	0.8197004
127	0x3d129ddd	0.03579508
128	0x3ddb6abe	0.10713719
129	0xbeae241d	-0.34011927
130	0x3ec30397	0.38088676
131	0xbe138290	-0.14405274
132	0xbe97c9e3	-0.29646215
133	0xbe5b1be0	-0.21397352
134	0x3e7d309f	0.24725579
135	0xbe867c26	-0.26266593
136	0xbe8ff5fa	-0.28117353
137	0xbe0e7d31	-0.13914944
138	0x3e761b72	0.24033907
139	0xbd101a81	-0.035181526
140	0xbf49fecb	-0.7890441
141	0x3e9176ca	0.2841094
142	0x3f41bf80	0.7568283
143	0x3e7828a1	0.24234249
144	0xbf9a9c93	-1.2079033
145	0xbf3db359	-0.7410179
146	0x3f1d1f7f	0.61376184
147	0x3f3ea23d	0.74466306
148	0xbe3e908c	-0.18609828
149	0x3eeede81	0.46654132
150	0x3f1eaa79	0.6197887
151	0x3e30237a	0.17201033
152	0xbf2ec6a0	-0.6827183
153	0xbf67f96d	-0.9061497
154	0x3e3f52eb	0.18683974
155	0xbc83d297	-0.016091628
156	0xbf019ec6	-0.50632894
157	0xbe31f361	-0.17377998
158	0x3df18cd3	0.11794438
159	0x3c88cc4a	0.016698975
160	0xbed6294c	-0.41828382
161	0xbc1ad9aa	-0.009451309
162	0xbf3c0eb7	-0.73459953
163	0xbf2a66bd	-0.66563016
164	0x3be3b7d4	0.0069494043
165	0xbdfad87d	-0.12248323
166	0xbdb3ff1f	-0.08788895
167	0x3e490278	0.19629848
168	0xbe17b626	-0.14815578
169	0x3e408c56	0.18803534
170	0x3eff2eff	0.49840543
171	0x3d11f03d	0.0356295
172	0xbd9812ea	-0.074254826
173	0xbebb6d50	-0.36606836
174	0xbf48503b	-0.7824742
175	0x3e773b7b	0.24143784
176	0x3f78d0ac	0.9719341
177	0x3ddb25b7	0.10700553
178	0xbe3eab39	-0.18620004
179	0xbf526577	-0.82186073
180	0x3d735ca8	0.059414536
181	0x3dee24bd	0.11628101
182	0xbe833162	-0.25623614
183	0xbda3f783	-0.080061935
184	0x3ebdf3dd	0.37100115
185	0xbe7e4697	-0.24831615
186	0x3e9371d9	0.28797796
187	0x3de64c01	0.11244965
188	0x3f4f84dd	0.8106211
189	0x3d854f38	0.065092504
190	0x3f71615b	0.9428918
191	0x3d873bd0	0.06603205
192	0x3d9671bb	0.07345911
193	0xbf1bd630	-0.608737
194	0x3f529dd2	0.82272065
195	0xbee50a6b	-0.4473451
196	0xbf479e9e	-0.77976406
197	0x3e59c931	0.21268155
198	0xbcf2b42a	-0.029626925
199	0x3eadef4a	0.33971626
200	0xbdf4964a	-0.11942728
201	0xbdf7eaeb	-0.12105354
202	0x40049f95	2.07224
203	0x3eab927b	0.33510193
204	0xbf3397c5	-0.70153457
205	0xbed2420d	-0.41066018
206	0x3f080f37	0.53148216
207	0x3e6d6fd6	0.23187193
208	0xbf017443	-0.50568026
209	0xbec7ee46	-0.39048976
210	0x3eb6dbbb	0.35714516
211	0x3e95f03c	0.29284847
212	0xbee49516	-0.44644994
213	0x3f49cea1	0.78830916
214	0x3eb895e4	0.36051857
215	0x3e280e61	0.16411735
216	0xbf258d51	-0.64668757
217	0xbf7877d5	-0.9705785
218	0xbe8b2a55	-0.27180734
219	0x3bd66123	0.0065423413
220	0xbe65dd1d	-0.2244763
221	0xbca1e6c0	-0.01976335
222	0xbf4251ba	-0.75905955
223	0x3ebd280e	0.36944622
224	0x3eb10dcd	0.34580842
225	0x3e864914	0.2622763
226	0xbe4da240	-0.20081425
227	0x3ddcac8a	0.10775097
228	0x3ed6a9c9	0.4192641
229	0xbe2bb315	-0.16767533
230	0xbe0dccb1	-0.13847615
231	0xbefb9834	-0.4913956
232	0x3ec6ac1b	0.3880318
233	0xbe07d8f7	-0.1326636
234	0xbe17b3ca	-0.14814678
235	0x3d5f925d	0.054582942
236	0x3ec92b84	0.39291012
237	0x3eb72a89	0.3577464
238	0xbdac827f	-0.08423328
239	0xbee04a07	-0.43806478
240	0xbb137585	-0.0022500467
241	0x3f153d6b	0.5829684
242	0xbf276658	-0.6539054
243	0xbf16bd7d	-0.58882886
244	0x3e03f3cd	0.12885971
245	0xbca80cf0	-0.020513982
246	0xbe9e9a90	-0.30977297
247	0x3e6c6a5a	0.23087445
248	0x3e3e7a7f	0.18601416
249	0x3ee00f4b	0.43761668
250	0x3ebfb122	0.3743983
251	0x3e11f57a	0.14253798
252	0xbc3cd515	-0.011525412
253	0xbdee2829	-0.11628754
254	0xbe836f3a	-0.25670797
255	0xbe957e25	-0.29197803

fc2d.bias f4 [32]
0	0x3d35066d	0.04419558
1	0xbe950297	-0.29103538
2	0xbe12b5b4	-0.14327127
3	0x3eced559	0.40397146
4	0xbdc01586	-0.09379105
5	0xbe8f6041	-0.28003123
6	0x3c93ed69	0.018057542
7	0xbe96e7c1	-0.2947369
8	0xbdc2e5d1	-0.0951649
9	0x3e5187b6	0.20461926
10	0x3e302e4f	0.17205165
11	0xbe025a69	-0.12729801
12	0xbe06ba86	-0.1315709
13	0x3e8a3e5d	0.27000704
14	0x3e4b4389	0.19849981
15	0x3dcbdceb	0.09954246
16	0xbea5d0dd	-0.32385913
17	0xbe6859a8	-0.22690451
18	0xbebccb55	-0.3687388
19	0xbe186707	-0.14883052
20	0xbe18411c	-0.14868587
21	0x3dd59a1b	0.10429784
22	0xbd1da8dd	-0.03849112
23	0xbd2f2d69	-0.042767916
24	0x3e00515f	0.1253104
25	0xbe614e82	-0.22002605
26	0xbe83c89c	-0.2573899
27	0xbd53ba39	-0.051691268
28	0x3e0bb047	0.13641463
29	0xbdfb71c8	-0.122775614
30	0xbe81954b	-0.25309214
31	0x3d4941e5	0.049135108

fc2e.weight f4 [32, 32]
0	0x3a3652c2	0.0006955081
1	0xbe9acd97	-0.30234978
2	0x3f1f5881	0.6224442
3	0x3e88a574	0.2668873
4	0xbf0b562d	-0.5442837
5	0x3e21c6de	0.15798518
6	0xbe70cb8a	-0.23515144
7	0x3d3099ea	0.043115534
8	0xbf55a4c2	-0.83454525
9	0xbe6640d3	-0.22485666
10	0xbe14f5a7	-0.14546834
11	0xbe4a9856	-0.19784674
12	0x3eb690ef	0.3565745
13	0xbe60f42a	-0.21968141
14	0x3e147921	0.14499332
15	0x3ea1e88a	0.31622726
16	0x3ea3d138	0.3199556
17	0x3d0c9ab8	0.03432724
18	0x3ea23234	0.31678927
19	0xbd927288	-0.07150751
20	0xbf080202	-0.53128064
21	0x3e4d77dd	0.20065255
22	0x3ed73161	0.4202986
23	0xbe6385f2	-0.22219065
24	0x3cae84b2	0.021303508
25	0x3e1aae5c	0.15105575
26	0xbe99a8de	-0.30011648
27	0xbea34d31	-0.3189483
28	0xbd345668	-0.044027716
29	0x3da7c66c	0.08192143
30	0x3ec8b4d1	0.39200452
31	0xbec1ad60	-0.37827587
32	0x3db513ff	0.088417046
33	0x3f691260	0.91043663
34	0xbeda2a61	-0.42610458
35	0x3dd68f59	0.1047656
36	0x3e71c85f	0.23611592
37	0xbd6548d2	-0.05597765
38	0x3df75876	0.120774195
39	0x3d47ec3d	0.04880928
40	0x3ea63be5	0.3246757
41	0x3ddf2426	0.10895567
42	0xbf178bd2	-0.59197724
43	0x3ef0dffc	0.47045887
44	0xbed67463	-0.4188567
45	0x3eda3fc2	0.42626768
46	0xbe28b3e0	-0.16474867
47	0xbe83c6c6	-0.2573759
48	0xbf69689c	-0.91175246
49	0xbcaf25c8	-0.02138032
50	0x3e62b575	0.22139533
51	0x3e38f3ec	0.18061799
52	0x3ebce88b	0.36896166
53	0x3f0f7e33	0.5605194
54	0x3f355ff8	0.7084956
55	0x3ee537a1	0.44769004
56	0x3dd531f5	0.10409919
57	0xbe5036b9	-0.20333375
58	0x3bda044c	0.0066533443
59	0x3d6706b4	0.056402877
60	0xbbca579a	-0.0061749937
61	0x3e7b95de	0.24568889
62	0x3ca182db	0.019715717
63	0xbe0a38f1	-0.13498284
64	0xbee091bc	-0.43861187
65	0xbeb5c9f5	-0.35505643
66	0x3ec1ba0b	0.37837252
67	0x3e94cb72	0.29061466
68	0xbdc79de6	-0.097469136
69	0xbd371334	-0.044696048
70	0xbddd50ce	-0.10806428
71	0xbdf9cea5	-0.121976174
72	0xbea7ae4a	-0.3275016
73	0xbe28e753	-0.16494493
74	0xbcb7159f	-0.022349177
75	0x3e7e0588	0.24806798
76	0x3eeecae6	0.46639174
77	0xbd3429d6	-0.04398521
78	0x3eb5d09f	0.35510728
79	0x3f0e3f4a	0.5556532
80	0x3d88462a	0.06654008
81	0xbe06cb7d	-0.13163562
82	0xbd467888	-0.04845479
83	0xbe82f48e	-0.25577205
84	0xbf736db5	-0.95089275
85	0xbe8627bb	-0.26202187
86	0x3dc0965b	0.09403678
87	0xbc9ba0d3	-0.018997585
88	0x3d85e218	0.065372646
89	0xbe2e1974	-0.17001897
90	0xbe7ba18b	-0.24573343
91	0xbf2f0f92	-0.68383133
92	0x3e4fb021	0.20282032
93	0x3d7aa098	0.06118831
94	0xbe847162	-0.25867754
95	0xbcaeb78a	-0.021327753
96	0x3d79cda6	0.060987137
97	0xbed7f051	-0.42175534
98	0x3ec0c58b	0.37650713
99	0x3dabd3b4	0.083899885
100	0x3b4f510c	0.0031634
101	0x3f1f86f3	0.6231529
102	0xba8309f2	-0.0009997471
103	0xbe2f0380	-0.17091179
104	0x3d907fec	0.07055649
105	0x3c316335	0.010826875
106	0x3edf2bbc	0.43588054
107	0x3dcd9c47	0.10039573
108	0x3ef44e69	0.47716072
109	0xbe8cf054	-0.27527106
110	0x3dd4c869	0.10389788
111	0xbe11bba3	-0.14231734
112	0x3d2443e3	0.040103804
113	0x3c8efaf8	0.017453656
114	0xbe4d9f0e	-0.20080206
115	0xbe6b000c	-0.22949237
116	0xbe0dd487	-0.13850604
117	0xbf4f7fd0	-0.810544
118	0xbe135a82	-0.14389995
119	0x3dff7584	0.12473586
120	0x3b6a4e98	0.0035752412
121	0x3dc4def5	0.09612838
122	0xbdef476f	-0.11683547
123	0xbe3199b5	-0.17343791
124	0x3ef3f69f	0.47649094
125	0x3cdc82c3	0.02691782
126	0xbc7a0dbe	-0.015262065
127	0x3e18f194	0.14935905
128	0x3da89851	0.08232177
129	0xbcc759cf	-0.024334816
130	0x3e107f06	0.14110956
131	0x3ee2d74c	0.44304883
132	0x3ee72c50	0.45150995
133	0x3e5b497d	0.21414752
134	0x3da64046	0.08117728
135	0xbe50a447	-0.20375167
136	0xbec2c876	-0.38043565
137	0xbec22cdf	-0.3792486
138	0x3f076277	0.5288462
139	0x3df55bef	0.119804256
140	0xbebfdaa7	-0.37471506
141	0xbe8d7770	-0.27630186
142	0x3ee5be78	0.4487188
143	0xbe1563cc	-0.1458885
144	0xbec36240	-0.38160896
145	0x3e6d089c	0.23147815
146	0xbc2c44d6	-0.010514459
147	0x3e3c442a	0.18385378
148	0xbead9694	-0.33903944
149	0x3d8ed1d3	0.069736145
150	0x3e6cd391	0.23127581
151	0x3e1d47ce	0.15359423
152	0x3debf891	0.1152202
153	0xbd7a7586	-0.061147235
154	0xbe689aff	-0.22715376
155	0xbcc2cb3f	-0.023778556
156	0x3ea837e5	0.32855144
157	0x3d446995	0.047952253
158	0xbe9ad6db	-0.30242047
159	0xbf38f86c	-0.7225406
160	0xbcb9050e	-0.022585418
161	0xbdbd5e97	-0.09246557
162	0xbef4c003	-0.47802743
163	0x3e3198bd	0.17343421
164	0x3e4eaa9a	0.20182267
165	0x3c4b5cdd	0.012412277
166	0x3e7e179c	0.24813694
167	0xbe16537a	-0.14680281
168	0x3e0aab46	0.13541898
169	0xbe4250b8	-0.18976104
170	0xbe2e5bab	-0.17027156
171	0x3e75a5ae	0.23988983
172	0xbe0ec7bc	-0.1394338
173	0x3d85271e	0.06501602
174	0xbe2fdef4	-0.17174894
175	0xbf5198b0	-0.8187361
176	0xbecd3df0	-0.40086317
177	0x3d110ad0	0.035410702
178	0xbe9ad610	-0.30241442
179	0xbd832b5f	-0.06404757
180	0x3ee7e5e4	0.4529258
181	0xbe00c763	-0.1257606
182	0x3e185192	0.14874867
183	0xbdeb38f6	-0.11485474
184	0xbe66017b	-0.22461502
185	0x3c3a0947	0.011354751
186	0x3deeb73c	0.11656043
187	0x3f643de8	0.8915696
188	0xbea7572b	-0.3268369
189	0xbf03d2de	-0.5149363
190	0xbe009440	-0.12556553
191	0xbde0427f	-0.10950183
192	0x3daf81e3	0.08569696
193	0xbea15e01	-0.31517032
194	0x3e894f07	0.26818106
195	0x3e495d0c	0.19664401
196	0x3e1d6795	0.15371545
197	0xbd4d7241	-0.05015779
198	0xbd13a878	-0.036049336
199	0xbe643678	-0.22286403
200	0xbe96a558	-0.29423022
201	0xbe8d887a	-0.27643186
202	0x3e178bda	0.14799443
203	0xbc61582b	-0.013753931
204	0xbc58ba23	-0.013227972
205	0xbe0160b6	-0.12634549
206	0x3f42621b	0.7593095
207	0x3cead983	0.02866817
208	0x3e133180	0.14374352
209	0xbd28da1f	-0.04122364
210	0x3ed43120	0.4144373
211	0xbed580a8	-0.4169972
212	0xbe00d949	-0.12582888
213	0xbc2c101b	-0.010501887
214	0xbc8f52fd	-0.017495627
215	0xbe6c82ab	-0.23096721
216	0xbdf3ded4	-0.119077355
217	0xbdf99192	-0.121859685
218	0xbe060f17	-0.13091694
219	0x3dcd8776	0.10035603
220	0x3e402179	0.18762769
221	0xbd2ae935	-0.04172631
222	0xbd637f13	-0.05554111
223	0xbd87a99a	-0.06624146
224	0xbe386da0	-0.18010569
225	0x3dc261d4	0.094913155
226	0x3e70acea	0.23503461
227	0xbf712910	-0.9420328
228	0x3f64f1e7	0.89431614
229	0xbc431138	-0.011905961
230	0x3f3f6df8	0.74777174
231	0xbf260c30	-0.64862347
232	0x3f0d5b3f	0.55217355
233	0x3f621ac6	0.88322103
234	0x3d305e61	0.043058757
235	0x3e698975	0.22806342
236	0xbf1f3d66	-0.6220306
237	0xbf135605	-0.5755313
238	0x3eb45ac4	0.352255
239	0xbd7f7e60	-0.06237638
240	0x3e3a4102	0.18188861
241	0x3d6e8ba2	0.058238633
242	0xbf41f2e6	-0.7576126
243	0xbda482a1	-0.08032728
244	0x3cfedc45	0.031110892
245	0x3e67fed0	0.22655797
246	0xbf625f3c	-0.88426566
247	0x3eeaa0f3	0.4582592
248	0xbe71c77a	-0.2361125
249	0x3f4315c3	0.7620508
250	0x3f353687	0.7078633
251	0xbe91dfc0	-0.2849102
252	0x3e15afa3	0.14617781
253	0x3cbe121e	0.023201998
254	0x3f29178b	0.6605155
255	0x3ef3c6ea	0.47612697

fc2e.bias f4 [32]
0	0xbdad79b0	-0.08470476
1	0xbe092f65	-0.13396986
2	0xbe17772f	-0.14791559
3	0x3e16a959	0.14713039
4	0x3dc585cd	0.09644661
5	0xbddf3153	-0.1089808
6	0x3daf4115	0.08557335
7	0xbf567820	-0.83777046
8	0x3c8400e4	0.016113706
9	0xbd62830f	-0.05530077
10	0xbd7d05c4	-0.061773077
11	0xbe635f7b	-0.22204392
12	0x3e130e64	0.14360958
13	0x3e6a070a	0.22854248
14	0xbde20949	-0.11036927
15	0x3e79023e	0.24317262
16	0xbe9a2469	-0.30105904
17	0xbd37df73	-0.044890832
18	0x3d055d52	0.0325597
19	0xbdfdaa8e	-0.12386046
20	0x3e2f62fb	0.17127602
21	0x3ebabd35	0.36472479
22	0x3e0b9b99	0.13633575
23	0xbeb76699	-0.35820463
24	0xbd085296	-0.033281885
25	0x3c8783f5	0.016542414
26	0xbd9a4b66	-0.07533912
27	0xbd8253f2	-0.063636675
28	0x3dee8364	0.116461545
29	0x3daa69cb	0.0832096
30	0x3dc1894f	0.09450018
31	0x3e00f534	0.12593538
